reacher-ppo/models/ppo-max-hiddensize-256.pth (torch_old, 603489 bytes, 12 tensors)

std f4 [1, 4]
0.97489125 0.87753296 0.27764112 0.47868738
00000000: 7992 793f 00a6 603f fa26 8e3e 8316 f53e

actor_body.linear1.weight f4 [256, 33]
0.19738053 0.043636877 -0.108557455 -0.13548383 0.09526804 -0.13348077 -0.11085438 -0.14884123
0.03393689 0.10908061 -0.0076808464 -0.118667565 -0.133545 0.06568592 -0.08895085 -0.17702705
0.12772211 -0.14013451 0.060515452 -0.06521129 -0.09586551 0.03576301 0.07147618 0.011015777
-0.013874386 -0.0006240735 -0.0024666453 -0.12418425 0.12050008 0.16000783 -0.024330901 0.11779207
-0.50401086 0.122390516 0.051950928 0.113563545 -0.13067718 0.20133954 0.0012226391 0.15436652
0.0052340375 0.046971995 0.021154178 -0.015307119 0.16402937 0.18986961 -0.046983823 0.021062026
0.15469074 0.0759922 -0.11199818 0.048599914 -0.07800785 -0.012589341 -0.038532358 0.12039982
-0.08471383 0.07732869 0.11050253 0.02758232 0.048117876 0.097733825 -0.035338104 -0.059932396
0.1661745 -0.3977177 -0.12479232 -0.003576473 -0.14775428 0.17112277 -0.06551636 -0.19173114
-0.0010232956 0.10958318 0.13513224 0.1399859 0.15001068 -0.20380479 -0.10701996 0.1766836
0.20864162 -0.041703176 -0.1557041 0.062372506 -0.062230155 -0.06903434 0.05422285 0.048872128
0.029117135 -0.088143475 0.031084869 0.191241 -0.12653099 0.09597955 -0.13494486 0.13945025
0.02720396 0.10331535 0.03145591 -0.15849228 -0.08415922 -0.11341232 -0.0046583717 -0.089583196
-0.01500548 0.060018215 -0.109348476 -0.08978861 -0.031940047 0.096439935 -0.09180226 -0.007928093
-0.048732035 0.20538282 0.059825227 0.064296454 0.19096537 0.12506124 -0.16847251 0.048603456
0.1318429 -0.17519042 0.10607614 0.04134354 -0.092933185 -0.15347908 -0.070003584 -0.14217614
0.121869594 0.14350246 -0.013800114 -0.08467581 0.06255833 0.09003495 -0.17050497 -0.14561158
-0.09572194 -0.18705703 0.018437516 -0.081737116 0.0121297715 0.1073627 0.07205823 0.08612432
-0.022296656 -0.0059858216 -0.07715605 0.122581206 0.0074392934 -0.12580663 0.03390784 -0.030225126
0.050825782 -0.007990036 0.066449665 0.054756243 -0.1773051 0.016901458 -0.031771958 0.057284683
0.043266777 -0.06961788 0.12753016 0.13549355 -0.18310855 -0.18360858 -0.06477063 -0.0638194
0.03863617 -0.0042921253 0.03258237 0.1873131 -0.072804034 0.102157496 0.047129616 0.10386543
0.024526104 0.09718753 -0.06790089 0.11345682 0.06863829 0.03107844 0.09940408 -0.0712187
0.059644856 -0.10728365 0.06804776 -0.12606497 -0.12799866 0.176181 0.120455876 0.033701837
0.10591348 -0.06960848 -0.07821748 0.16349256 -0.10653121 0.14246039 -0.08279393 0.20729862
0.0090037435 0.13919629 0.054679282 -0.07735818 -0.028259125 0.036053244 -0.08175696 0.035005845
0.12060668 -0.01968352 -0.07546099 -0.061192125 -0.04213441 -0.15143147 0.0104384 0.019189874
-0.16827986 0.09755966 0.07355426 0.16514498 -0.058648676 -0.06233678 -0.16685767 -0.11708352
0.03389277 -0.14717042 0.030872917 -0.071592115 0.031853277 0.1608699 0.16605227 0.11355078
0.14714977 0.0969669 -0.11848225 0.09948512 0.11465241 0.1891731 0.120316826 0.021302212
0.20946862 -0.089923546 -0.052190583 0.10090657 0.19719371 0.051850628 0.12468036 0.1170392
0.030488795 -0.14243066 0.13863504 0.1774033 -0.12335232 -0.06341716 0.17515789 0.18312345
00000000: 1f1e 4a3e 95bc 323d 5f53 debd 46bc 0abe
00000010: e41b c33d 2faf 08be 9f07 e3bd d669 18be
00000020: 6901 0b3d a865 df3d 9caf fbbb fb07 f3bd
00000030: 05c0 08be 5786 863d dd2b b6bd 9446 35be
00000040: 96c9 023e 6c7f 0fbe 0ddf 773d 7f8d 85bd
00000050: 2355 c4bd 3c7c 123d 1a62 923d 847b 343c
00000060: 6551 63bc dd98 23ba 71a7 21bb 5054 febd
00000070: bfc8 f63d 18d9 233e 9951 c7bc f83c f13d
00000080: db06 01bf e1a7 fa3d 7fca 543d 0194 e83d
00000090: 3dd0 05be f42b 4e3e f640 a03a 4212 1e3e
000000a0: 4a82 ab3b b565 403d 874b ad3c b6ca 7abc
000000b0: 51f7 273e 2e6d 423e 1c72 40bd 458a ac3c
000000c0: 4067 1e3e cca1 9b3d 4d5f e5bd b410 473d
000000d0: 94c2 9fbd 8643 4ebc 1bd4 1dbd 2e94 f63d
000000e0: 727e adbd 815e 9e3d 274f e23d 51f4 e13c
000000f0: 4017 453d ac28 c83d b0be 10bd ac7b 75bd
00000100: a629 2a3e a8a1 cbbe 1e93 ffbd 4363 6abb
00000110: e64c 17be cf3a 2f3e 712d 86bd 2b55 44be
00000120: 1a20 86ba 256d e03d 1b60 0a3e 7758 0f3e
00000130: 669c 193e 34b2 50be 482d dbbd 8cec 343e
00000140: 26a6 553e f3d0 2abd e570 1fbe 507a 7f3d
00000150: 0ce5 7ebd e061 8dbd c718 5e3d 242e 483d
00000160: 0f87 ee3c 9184 b4bd b2a5 fe3c aed4 433e
00000170: 5791 01be ed90 c43d fc2e 0abe 0ccc 0e3e
00000180: d7da de3c 0097 d33d ead7 003d cd4b 22be
00000190: ab5b acbd b844 e8bd 41a5 98bb 6577 b7bd
000001a0: 8bd9 75bc a9d5 753d 18f2 dfbd 17e3 b7bd
000001b0: 91d3 02bd 4d82 c53d d302 bcbd d5e4 01bc
000001c0: 3e9b 47bd e04f 523e 4c0b 753d dcad 833d
000001d0: 6d8c 433e 0e10 003e 0f84 2cbe 6b14 473d
000001e0: d301 073e 1e65 33be 733e d93d d857 293d
000001f0: c153 bebd 9f29 1dbe 0a5e 8fbd 9f96 11be
00000200: c496 f93d 4ff2 123e e019 62bc 836a adbd
00000210: 951e 803d 3e64 b83d db98 2ebe 341b 15be
00000220: dd09 c4bd e18b 3fbe 460a 973c ca65 a7bd
00000230: f3bb 463c fae0 db3d 4493 933d f361 b03d
00000240: 7aa7 b6bc b624 c4bb fe03 9ebd db0b fb3d
00000250: 51c5 f33b 74d3 00be f2e2 0a3d af9a f7bc
00000260: b22e 503d a4e8 02bc c316 883d 1548 603d
00000270: 788f 35be ed74 8a3c 5023 02bd 58a3 6a3d
00000280: 8138 313d d293 8ebd 4497 023e d2be 0a3e
00000290: cf80 3bbe e303 3cbe 77a6 84bd bfb3 82bd
000002a0: f640 1e3d f5a4 8cbb 1775 053d 01cf 3f3e
000002b0: 481a 95bd f337 d13d fc0a 413d 66b7 d43d
000002c0: f8ea c83c 410a c73d 9f0f 8bbd 0d5c e83d
000002d0: 3b92 8c3d 3698 fe3c 5e94 cb3d 1cdb 91bd
000002e0: 2a4e 743d 88b7 dbbd a05c 8b3d 2d17 01be
000002f0: 1512 03be cb68 343e 92b1 f63d f00a 0a3d
00000300: 2be9 d83d e48e 8ebd 7c30 a0bd 986a 273e
00000310: 092d dabd 23e1 113e dd8f a9bd 1746 543e
00000320: 7084 133c 7989 0e3e 62f7 5f3d f76d 9ebd
00000330: ae7f e7bc 91ac 133d 3170 a7bd 4a62 0f3d
00000340: a300 f73d 553f a1bc 4b8b 9abd 98a4 7abd
00000350: 2295 2cbd da10 1bbe d305 2b3c 1534 9d3c
00000360: 8e51 2cbe 5ccd c73d 9ea3 963d c41b 293e
00000370: 9839 70bd da54 7fbd bddc 2abe 7cc9 efbd
00000380: 25d3 0a3d d8b3 16be 33e9 fc3c e39e 92bd
00000390: 9578 023d 14bb 243e 9b09 2a3e 508d e83d
000003a0: 6eae 163e 9596 c63d d2a6 f2bd dbbe cb3d
000003b0: e2ce ea3d 98b6 413e ab68 f63d fa81 ae3c
000003c0: f17e 563e d629 b8bd cbc5 55bd 1ba8 ce3d
000003d0: 26ed 493e 5361 543d 6b58 ff3d 40b2 ef3d
000003e0: a3c3 f93c 58d9 11be 58f6 0d3e 36a9 353e
000003f0: 24a0 fcbd dbe0 81bd 975c 333e b784 3b3e

actor_body.linear1.bias f4 [256]
-0.107201904 -0.12871113 0.059757885 -0.009272417 0.011462515 0.00938679 0.053320035 -0.19686045
-0.09192793 0.07697596 0.16800329 0.13282348 0.13545628 -0.0380068 -0.11456297 0.06717127
-0.0926314 0.105196975 0.110579 0.006824928 -0.102929465 0.08725664 0.082519665 -0.03863343
-0.19819364 0.23316875 0.11990468 0.0015413691 0.02901211 0.1153757 0.053698543 -0.13820651
0.08109204 -0.08523905 -0.10682439 0.16099986 -0.14684337 0.15978712 -0.07037158 -0.11448901
0.058203656 -0.0022230593 -0.093860365 0.095118515 0.18163235 -0.1526896 0.024252132 0.16698259
-0.1201897 0.08216795 0.063318826 -0.17473146 -0.09420019 -0.020743696 -0.086790465 0.043870963
0.18709457 0.124932416 0.083981 -0.031037254 -0.19138569 0.056490056 0.08073742 0.0017526116
-0.0007056734 0.004935026 -0.13296849 -0.08104366 -0.067520335 -0.10581365 -0.034322463 -0.015267218
0.12813134 -0.07460345 0.051672168 0.05981902 -0.16424716 0.041124508 -0.12963878 -0.06399323
-0.08144808 -0.0884128 -0.13152161 0.10689848 -0.16931534 0.072619714 -0.08038651 0.049672227
0.08556454 0.02220327 -0.08926362 -0.13326614 0.05022383 0.03709269 -0.03506044 -0.11477885
-0.07975158 -0.14533062 0.091352336 -0.026554639 -0.004584756 -0.019918414 -0.12627554 -0.0077431244
0.002556623 0.114071645 -0.06464546 -0.1749371 0.05460906 0.030661205 -0.043809887 0.035383463
0.11751583 -0.15860821 0.0106681865 -0.016895331 -0.009394347 -0.102526516 0.1379888 0.14351915
0.046521604 -0.1265162 -0.0036962943 -0.017226465 -0.067493156 -0.082138956 0.00667942 -0.15224941
-0.022121625 0.017550789 0.0942664 0.16102271 0.021692235 0.041872058 0.06761161 -0.18290587
0.12218698 -0.084256485 -0.20378658 0.17710826 0.04462319 0.08687299 -0.17010932 0.070860915
-0.08194049 -0.045322582 -0.17073062 -0.028181234 0.024054619 0.021440187 0.052812804 0.028028008
-0.1165249 -0.098657705 -0.12758474 0.067296356 0.10619204 -0.17863384 -0.12966727 -0.056887355
-0.13526787 0.028702864 -0.09589422 -0.072538085 -0.11828224 -0.07438521 0.023934387 0.11920333
0.0046357503 0.09818998 -0.04037482 0.08378323 -0.15671338 -0.14632133 -0.18750267 0.038100086
-0.03338348 -0.07152176 0.18189898 0.018155402 -0.11137195 -0.04345281 -0.12563904 -0.18312791
-0.022890212 0.06949615 0.12500858 -0.13332677 0.0021774408 -0.15747066 0.05336717 -0.1094915
-0.08987647 0.13383445 0.16742143 0.02785841 -0.012792909 -0.10731572 -0.07976104 -0.14005414
0.17131008 -0.004474483 0.05946845 -0.055930708 -0.16986443 -0.017907906 -0.12935787 0.13792796
-0.049652148 0.06647016 0.077113844 -0.058253486 -0.027115421 0.09573189 0.016417734 0.09768929
0.09530827 -0.12961614 -0.031445965 -0.15242851 -0.001572061 0.12552816 0.13218658 0.07406899
-0.078593135 -0.115222454 -0.10396846 0.11070229 0.024409086 0.044312254 -0.09589835 0.15616609
-0.058647923 0.0062216385 0.11444982 0.14052531 0.20158787 0.12135756 0.05351117 0.107413165
-0.058917847 -0.17292207 -0.038098555 0.041421153 -0.13611454 -0.0023233213 -0.07948352 0.015395945
-0.063456066 0.17266436 -0.1191503 0.10634376 0.034257956 -0.14906831 0.17979802 0.05972343
00000000: ac8c dbbd dacc 03be afc4 743d 56eb 17bc
00000010: 46cd 3b3c 0dcb 193c 1c66 5a3d c995 49be
00000020: b644 bcbd 92a5 9d3d 0e09 2c3e e102 083e
00000030: 0db5 0a3e 05ad 1bbd fe9f eabd 1791 893d
00000040: 88b5 bdbd 8371 d73d 3e77 e23d a5a3 df3b
00000050: afcc d2bd 9cb3 b23d 1200 a93d 163e 1ebd
00000060: 46f3 4abe cac3 6e3e 9690 f53d c407 ca3a
00000070: ceaa ed3c 184a ec3d 01f3 5b3d 0286 0dbe
00000080: 9513 a63d d091 aebd bfc6 dabd 26dd 243e
00000090: 1c5e 16be 3c9f 233e fa1e 90bd 3779 eabd
000000a0: f566 6e3d bfb0 11bb dd39 c0bd 7fcd c23d
000000b0: d5fd 393e aa5a 1cbe 68ac c63c 7cfd 2a3e
000000c0: 0426 f6bd ac47 a83d 4dad 813d ceec 32be
000000d0: 07ec c0bd afee a9bc 33bf b1bd 0ab2 333d
000000e0: b895 3f3e 91dc ff3d 3bfe ab3d d741 febc
000000f0: 9cfa 43be 1e62 673d a959 a53d e3b7 e53a
00000100: f1fc 38ba 00b6 a13b e428 08be 38fa a5bd
00000110: 1a48 8abd d4b4 d8bd b695 0cbd 5b23 7abc
00000120: dd34 033e b2c9 98bd 32a6 533d ca04 753d
00000130: 6830 28be 2c72 283d 07c0 04be e20e 83bd
00000140: 40ce a6bd c511 b5bd 9aad 06be 97ed da3d
00000150: 0061 2dbe a5b9 943d afa1 a4bd 1b75 4b3d
00000160: 763c af3d a2e3 b53c d8cf b6bd eb76 08be
00000170: 81b7 4d3d 81ee 173d 899b 0fbd 2c11 ebbd
00000180: cc54 a3bd 8dd1 14be ef16 bb3d 1d89 d9bc
00000190: b93b 96bb f12b a3bc 604e 01be 09ba fdbb
000001a0: 048d 273b 659e e93d d764 84bd b622 33be
000001b0: c0ad 5f3d 352d fb3c ff71 33bd 40ee 103d
000001c0: 24ac f03d 316a 22be 9ec9 2e3c 1468 8abc
000001d0: bfea 19bc 6cf9 d1bd f04c 0d3e aff6 123e
000001e0: 708d 3e3d 768d 01be 873d 72bb 841e 8dbc
000001f0: da39 8abd 7838 a8bd 09df da3b 45e7 1bbe
00000200: 6938 b5bc acc6 8f3c be0e c13d 23e3 243e
00000210: eab3 b13c 0982 2b3d f577 8a3d ad4b 3bbe
00000220: 2b3d fa3d aa8e acbd 6ead 50be de5b 353e
00000230: cec6 363d 77ea b13d 2331 2ebe 871f 913d
00000240: 6ad0 a7bd 2ca4 39bd 02d4 2ebe 55dc e6bc
00000250: 310e c53c 55a3 af3c 3d52 583d fe9a e53c
00000260: 9ba4 eebd 0d0d cabd 93a5 02be acd2 893d
00000270: 367b d93d caeb 36be 7fc7 04be b702 69bd
00000280: a983 0abe 4522 eb3c 3064 c4bd d98e 94bd
00000290: f63d f2bd 4657 98bd 0c12 c43c e020 f43d
000002a0: 7ee7 973b d417 c93d 1160 25bd 8b96 ab3d
000002b0: 7979 20be 42d5 15be b300 40be d60e 1c3d
000002c0: 1ebd 08bd 007a 92bd ba43 3a3e a3ba 943c
000002d0: fa16 e4bd 93fb 31bd 85a7 00be e285 3bbe
000002e0: 4184 bbbc ff53 8e3d 4002 003e d086 08be
000002f0: 65b3 0e3b fd3f 21be 8997 5a3d 143d e0bd
00000300: 2811 b8bd e60b 093e 8670 2b3e 5237 e43c
00000310: 5999 51bc 58c8 dbbd c259 a3bd 5a6a 0fbe
00000320: e96b 2f3e af9e 92bb 3095 733d 9917 65bd
00000330: f1f0 2dbe 9ab3 92bc 6476 04be fd3c 0d3e
00000340: 0d60 4bbd 8221 883d dded 9d3d 359b 6ebd
00000350: 2921 debc 150f c43d 7c7e 863c 5311 c83d
00000360: fb30 c33d 18ba 04be 7ccd 00bd 3816 1cbe
00000370: 9d0d ceba 748a 003e eb5b 073e 7cb1 973d
00000380: 70f5 a0bd c0f9 ebbd 6aed d4bd e2b7 e23d
00000390: 90f5 c73c c480 353d 5b66 c4bd 01ea 1f3e
000003a0: ce38 70bd e3de cb3b ab64 ea3d dee5 0f3e
000003b0: 0d6d 4e3e 508a f83d 872e 5b3d 6ffb db3d
000003c0: d753 71bd 7c12 31be 3b0d 1cbd 3aa9 293d
000003d0: 9c61 0bbe dd42 18bb 41c8 a2bd 463f 7c3c
000003e0: 41f5 81bd edce 303e 1305 f4bd c2ca d93d
000003f0: 1252 0c3d 5da5 18be f91c 383e 8ea0 743d

actor_body.linear2.weight f4 [256, 256]
-0.06371907 -0.025888301 -0.07908406 0.06388569 -0.031082673 0.062025398 -0.027054701 0.018807124
-0.02520077 0.026988817 -0.062264614 0.0031918501 -0.005023637 0.01714985 -0.023705974 -0.055694785
0.0039884285 0.08942233 0.02836311 0.05306187 -0.026875475 -0.0011520993 0.03401489 -0.034953173
0.0045437897 -0.04252915 0.03580314 -0.017630666 -0.046394017 0.07884898 0.04487482 0.0075620003
-0.060563948 -0.02165449 -0.09410931 -0.038404938 0.03002581 0.09236165 0.030939989 -0.0110351825
0.024569802 -0.15296477 0.002652479 -0.10018204 0.058420636 -0.063641444 0.0798127 0.08706801
-0.031302948 0.03954264 0.06873482 -0.0886748 0.04593731 0.009635515 -0.10551151 -0.030807078
-0.07767682 -0.049532034 -0.026137345 -0.051862795 -0.05488288 -0.021953104 0.08837375 0.067985564
0.014114071 -0.007224041 0.028713806 0.109705485 0.05409674 -0.015296831 0.058867607 -0.036612127
0.04759985 0.021629432 0.05104114 -0.05486914 0.02848318 0.029107329 -0.031235982 0.00046427234
-0.058141388 -0.050105214 0.020765798 0.054529708 -0.04089912 0.016659426 0.0020702642 0.057615254
0.039906338 0.041624844 0.03196597 -0.0051062764 0.03968813 -0.07013338 0.09237795 -0.08397758
0.044633858 0.03461669 -0.048224706 -0.025691712 0.044416446 -0.06788671 0.026260452 0.037193358
-0.050240297 0.007684312 0.101516366 0.04838797 0.06009054 0.032512564 0.030286867 0.033965476
-0.030437864 0.032104313 -0.0034802784 0.04748878 -0.05924947 -0.032427516 -0.11009452 0.04406454
0.060494114 -0.020139847 0.090943545 0.004916674 0.019460034 0.0517441 0.041400693 -0.018482963
-0.016439777 -0.06539867 0.04536317 0.025273371 0.052760273 -0.013324395 0.02886781 -0.043499764
-0.0026648412 0.04796967 0.016939277 -0.08500214 0.032463003 0.013036419 -0.0759982 0.117680006
-0.059219055 0.009438223 -0.07164559 0.035788182 -0.05818169 -0.06261506 0.02238423 -0.0020527092
-0.0027205364 0.0584692 -0.0077598137 -0.055904873 0.08007759 -0.09146081 0.048334934 0.006004969
-0.03867532 0.05331934 -0.0044822777 0.05691929 0.04659908 -0.06983662 -0.05756109 -0.028074602
-0.052447017 -0.014539125 -0.067407995 0.07811381 0.06208467 -0.05611609 -0.03360938 -0.04918868
-0.014219118 0.036807157 -0.0565118 0.007920218 -0.009544487 -0.046050295 0.07545926 0.017769326
-0.13924243 0.039629363 -0.02732261 -0.013276347 0.07607463 0.039351054 -0.04473043 -0.007986586
0.044592656 -0.030054715 -0.015588696 0.0554544 -0.0018342356 0.12815912 -0.045476142 -0.004791958
-0.07930428 0.015561259 0.10949802 -0.035852328 -0.062056962 0.03723694 0.004202568 0.11005806
0.013109254 -0.019587366 0.097679436 -0.015167711 0.054250218 -0.022938594 -0.02547796 -0.006506828
0.02267799 -0.05714399 0.02565347 0.007901588 -0.038187224 0.039844967 -0.009301398 0.027418926
0.06555018 -0.087439716 0.073218055 0.0705935 -0.010019604 0.031394813 0.0021747376 -0.033998117
-0.06309015 0.05325071 0.07146897 -0.07923597 -0.007348078 0.04228574 -0.020085458 -0.05938742
-0.04510626 -0.08124907 0.008464069 -0.017876172 -0.0031588597 0.040620524 0.039392367 0.051721793
0.01112706 0.058081027 0.039684474 0.03800495 0.02906573 -0.05793671 -0.011079683 0.070120536
00000000: 257f 82bd b413 d4bc d3f6 a1bd 80d6 823d
00000010: 17a1 febc 580e 7e3d d2a1 ddbc 6611 9a3c
00000020: d871 cebc a717 dd3c 2e09 7fbd 5c2e 513b
00000030: 529d a4bb d87d 8c3c 0833 c2bc 3720 64bd
00000040: 5db1 823b 0e23 b73d c159 e83c 6757 593d
00000050: f529 dcbc 0a02 97ba 3353 0b3d 0f2b 0fbd
00000060: 12e4 943b 0c33 2ebd 50a6 123d 306e 90bc
00000070: a707 3ebd 937b a13d a9ce 373d a8ca f73b
00000080: e711 78bd c264 b1bc 62bc c0bd 7f4e 1dbd
00000090: b0f8 f53c 1b28 bd3d dc75 fd3c e9cc 34bc
000000a0: 9c46 c93c cca2 1cbe 37d5 2d3b 3e2c cdbd
000000b0: 7a4a 6f3d 7256 82bd d774 a33d b650 b23d
000000c0: 8537 00bd 77f7 213d d7c4 8c3d 229b b5bd
000000d0: c328 3c3d 47de 1d3c 6b16 d8bd 205f fcbc
000000e0: 0615 9fbd 1ae2 4abd fc1d d6bc 156e 54bd
000000f0: dfcc 60bd ffd6 b3bc 4cfd b43d 043c 8b3d
00000100: b43e 673c a6b7 ecbb 3739 eb3c 45ad e03d
00000110: 8b94 5d3d 8f9f 7abc 291f 713d 99f6 15bd
00000120: 0ff8 423d 3530 b13c 8410 513d 77be 60bd
00000130: 8f55 e93c 7e72 ee3c 9ae2 ffbc 9469 f339
00000140: aa25 6ebd 203b 4dbd 091d aa3c 8b5a 5f3d
00000150: d685 27bd 5979 883c 45ad 073b f9fd 6b3d
00000160: d474 233d d07e 2a3d c0ee 023d 8d52 a7bb
00000170: 0590 223d 17a2 8fbd a730 bd3d 70fc abbd
00000180: fed1 363d 3bca 0d3d 4587 45bd 6d77 d2bc
00000190: 05ee 353d 3008 8bbd 2920 d73c 1058 183d
000001a0: c5c8 4dbd aecc fb3b d0e7 cf3d 7732 463d
000001b0: 8021 763d e52b 053d 2a1c f83c 621f 0b3d
000001c0: d458 f9bc d07f 033d 6215 64bb 9883 423d
000001d0: 92af 72bd b7d2 04bd 3c79 e1bd 057d 343d
000001e0: adc8 773d 52fc a4bc 9c40 ba3d 0d1c a13b
000001f0: a66a 9f3c 9ff1 533d c693 293d 9569 97bc
00000200: b6ac 86bc bdef 85bd bbce 393d 1a0a cf3c
00000210: 281b 583d 904e 5abc 2f7c ec3c cf2c 32bd
00000220: 9ea4 2ebb d87b 443d 3dc4 8a3c 9a15 aebd
00000230: edf7 043d b496 553c f2a4 9bbd 3702 f13d
00000240: ae8f 72bd c7a2 1a3c ecba 92bd a196 123d
00000250: ec4f 6ebd 533c 80bd 225f b73c bf86 06bb
00000260: 074b 32bb 667d 6f3d 0946 febb 82fc 64bd
00000270: b8ff a33d ce4f bbbd dafa 453d 55c5 c43b
00000280: 036a 1ebd 6165 5a3d 12e0 92bb 3424 693d
00000290: adde 3e3d 8006 8fbd 2dc5 6bbd b5fc e5bc
000002a0: afd2 56bd 8335 6ebc 340d 8abd 22fa 9f3d
000002b0: 7f4c 7e3d fcd9 65bd fda9 09bd 127a 49bd
000002c0: 4ef7 68bc 1ac3 163d eb78 67bd cdc3 013c
000002d0: 7b60 1cbc 3c9f 3cbd 628a 9a3d fa90 913c
000002e0: 9195 0ebe 6652 223d abd3 dfbc 0985 59bc
000002f0: 04cd 9b3d 922e 213d 4137 37bd 2bda 02bc
00000300: caa6 363d 4e35 f6bc bb67 7fbc 2724 633d
00000310: bc6a f0ba 253c 033e 3145 3abd db05 9dbb
00000320: 486a a2bd a7f4 7e3c 7f40 e03d e4d9 12bd
00000330: 712f 7ebd c385 183d b2b5 893b 1f66 e13d
00000340: 32c8 563c af75 a0bc 280c c83d fe81 78bc
00000350: 7a35 5e3d b8e9 bbbc 28b7 d0bc 3b37 d5bb
00000360: 31c7 b93c d10f 6abd 3a27 d23c aa75 013c
00000370: 356a 1cbd 7a34 233d e464 18bc a89d e03c
00000380: 2c3f 863d 9813 b3bd 59f3 953d 5393 903d
00000390: 4429 24bc d997 003d 0b86 0e3b 9c41 0bbd
000003a0: 6935 81bd 6b1d 5a3d 535e 923d 7846 a2bd
000003b0: 25c8 f0bb d033 2d3d 428a a4bc 3940 73bd
000003c0: 57c1 38bd ea65 a6bd e1ac 0a3c 0d71 92bc
000003d0: df04 4fbb b561 263d e459 213d 3bda 533d
000003e0: 464e 363c 5fe6 6d3d 308c 223d 14ab 1b3d
000003f0: 411b ee3c 0b4f 6dbd 8f87 35bc 5b9b 8f3d

actor_body.linear2.bias f4 [256]
0.05056079 0.039925687 -0.058258325 0.05133287 0.0520756 0.045319203 0.018459205 -0.048259083
-0.018018765 -0.06315056 -0.030372934 0.032418676 0.026255919 -0.02917382 0.058568727 0.044498798
-0.024904836 -0.035612058 0.032334372 -0.055809774 0.036523163 -0.016737621 0.026581913 -0.014564591
-0.009660242 0.0513847 -0.035508998 -0.024420634 -0.06246643 -0.015957924 0.05339215 -0.015037071
0.05434007 0.049220104 0.07099965 0.061293498 0.017861357 0.06726653 0.01470081 0.020762721
0.053653758 0.027323041 -0.02264675 0.022200713 0.012042531 0.03611224 0.030701527 0.03334011
0.01606718 0.05732188 -0.04192208 0.027057055 0.058150772 0.051597767 -0.032899387 0.054288827
-0.017829178 0.01672394 -0.046806816 0.04094475 0.06958869 0.05147737 -0.0651701 -0.05875181
-0.03591796 0.06460265 0.0082198735 0.05259835 0.05517737 -0.017998539 -0.0038581223 0.00320597
0.05202596 -0.053473726 -0.039537884 -0.023322707 0.018589258 -0.01433576 0.053613823 0.04390073
0.051124666 0.025688615 -0.0055323155 0.078712836 -0.023726987 -0.027559662 0.0446218 0.016541725
-0.007839162 0.015962014 0.032196242 -0.04070869 -0.0598151 0.057813223 -0.0073649916 -0.009629447
-0.03678483 0.05319216 -0.03573506 0.009595092 -0.045508724 -0.020447215 -0.013660191 0.029143931
-0.039253455 0.055085056 0.009202269 -0.030733837 -0.038119532 0.08820814 -0.04158234 -0.02149458
0.01939272 0.035610426 0.07476796 -0.00065440143 -0.0175141 -0.042306524 -0.07426261 -0.052019853
-0.039942004 -0.05502529 -0.03824354 0.07073566 0.022465052 0.0669371 0.044381596 -0.017105727
0.019640509 -0.06568012 0.075962186 0.010680382 -0.009229791 -0.059560593 -0.011321965 0.051458064
0.020885454 0.024545545 0.06375445 0.056449722 -0.01614687 -0.053880196 0.029400375 -0.00025283772
0.046258364 0.08397097 0.020549482 -0.009799788 0.033799488 0.0024153474 -0.023642212 -0.05030734
0.059959136 -0.032101344 -0.030895827 -0.05873413 -0.024981476 0.06139258 -0.0019043284 0.036807004
-0.01773196 0.0035461741 0.034070294 -0.006264238 -0.00070195383 0.050570153 0.014435274 0.05115714
0.015412534 0.005757006 -0.022008862 0.0067494083 0.015722917 -0.017425451 -0.021661436 -0.010281321
0.009903352 0.0006877161 0.048876163 0.025286764 -0.015522764 -0.038171243 -0.028164381 -0.05130729
-0.015420245 -0.0596048 0.03848738 -0.010373658 0.023459382 0.036677144 -0.00041467257 0.051682305
0.023279298 0.058816407 0.04906892 -0.049277354 -0.0007946971 -0.058179945 0.008257061 -0.008908639
0.0062915306 -0.002609026 -0.03833541 -0.040803924 -0.057543673 -0.0181801 -0.029459683 -0.04668025
0.017474923 -0.017811127 0.05270609 0.0336498 0.05207673 0.039716188 -0.025282685 0.07156047
0.03991362 -0.011701575 0.0049674357 -0.0321523 0.0045090043 -0.053538743 -0.004013727 -0.051049735
0.06873418 0.033878647 -0.032049764 0.004688718 -0.05156029 0.0271108 0.031519532 -0.051126108
-0.0034090823 0.03996283 0.009691539 0.0036990272 -0.061444387 0.041881304 0.075417444 -0.05394628
-0.008674809 0.03179202 0.005308648 -0.05430487 0.03870071 0.03651941 -0.0065220417 0.038490858
0.05079753 -0.013095634 0.004555932 -0.0040340708 -0.045788765 -0.0509692 0.015552031 0.051554866
00000000: d518 4f3d 1e89 233d 48a0 6ebd 6a42 523d
00000010: 394d 553d a1a0 393d c237 973c 51ab 45bd
00000020: 179c 93bc 1555 81bd a9d0 f8bc 72c9 043d
00000030: a716 d73c effd eebc c3e5 6f3d 5f44 363d
00000040: 3a05 ccbc f3dd 11bd 0c71 043d ca98 64bd
00000050: 5099 153d 561d 89bc 50c2 d93c 53a0 6ebc
00000060: fe45 1ebc c378 523d e271 11bd c80d c8bc
00000070: cddc 7fbd 31ba 82bc bab1 5a3d 0c5e 76bc
00000080: b193 5e3d 059b 493d 4468 913d e40e 7b3d
00000090: fb51 923c 09c3 893d abdb 703c 9516 aa3c
000000a0: 0bc4 5b3d 92d4 df3c ad85 b9bc 45de b53c
000000b0: 094e 453c 6eea 133d c581 fb3c a48f 083d
000000c0: 529f 833c 59ca 6a3d 7db6 2bbd c2a6 dd3c
000000d0: 812f 6e3d 2e58 533d 82c1 06bd f65d 5e3d
000000e0: 7f0e 92bc a500 893c 81b8 3fbd afb5 273d
000000f0: 8484 8e3d efd9 523d e777 85bd bda5 70bd
00000100: b61e 13bd 654e 843d a6ac 063c 5e71 573d
00000110: aa01 623d ac71 93bc 8dd8 7cbb 401b 523b
00000120: 2c19 553d 4407 5bbd 7af2 21bd 430f bfbc
00000130: 8048 983c 89e0 6abc 2b9a 5b3d 40d1 333d
00000140: 1968 513d ee70 d23c 6d48 b5bb 3234 a13d
00000150: 195f c2bc cdc4 e1bc 59c5 363d 8382 873c
00000160: d46f 00bc c5c2 823c 35e0 033d 28be 26bd
00000170: ae00 75bd 8fcd 6c3d 0756 f1bb d4c4 1dbc
00000180: b1ab 16bd 06e0 593d ed5e 12bd bc34 1d3c
00000190: 5b67 3abd eb80 a7bc fece 5fbc 41bf ee3c
000001a0: 3bc8 20bd dea0 613d 1dc5 163c 87c5 fbbc
000001b0: 3a23 1cbd 78a6 b43d 3e52 2abd 6715 b0bc
000001c0: 7bdd 9e3c 3ddc 113d f21f 993d 238c 2bba
000001d0: bb79 8fbc 9b49 2dbd ff16 98bd c512 55bd
000001e0: 3a9a 23bd 3362 61bd 42a5 1cbd dcdd 903d
000001f0: a108 b83c 5116 893d 7ac9 353d 4f21 8cbc
00000200: 22e5 a03c 4c83 86bd 1092 9b3d c5fc 2e3c
00000210: 8d38 17bc cff5 73bd c37f 39bc b1c5 523d
00000220: f917 ab3c bd13 c93c b191 823d d337 673d
00000230: 7146 84bc 7bb1 5cbd 0ed9 f03c 4e8f 84b9
00000240: 6979 3d3d f9f8 ab3d 6357 a83c 4a8f 20bc
00000250: 5571 0a3d ce4a 1e3b 50ad c1bc 120f 4ebd
00000260: b697 753d b37c 03bd 3f19 fdbc 3393 70bd
00000270: f4a5 ccbc c976 7b3d a89a f9ba f1c2 163d
00000280: 9e42 91bc ee66 683b 4b8d 0b3d 3d44 cdbb
00000290: 5303 38ba a622 4f3d ed81 6c3c 268a 513d
000002a0: da84 7c3c 44a5 bc3b ee4b b4bc 242a dd3b
000002b0: 59cd 803c d2bf 8ebc 5373 b1bc fc72 28bc
000002c0: ab41 223c d947 343a 5f32 483d 3026 cf3c
000002d0: 3153 7ebc 7359 1cbd fdb8 e6bc 9827 52bd
000002e0: 32a5 7cbc 2a24 74bd f1a4 1d3d 46f6 29bc
000002f0: e42d c03c c63a 163d 6968 d9b9 d3b0 533d
00000300: 3ab4 be3c 79e9 703d 7efc 483d 0dd7 49bd
00000310: 3853 50ba 184e 6ebd a048 073c 8af5 11bc
00000320: 2f29 ce3b 31fc 2abb 9705 1dbd 0422 27bd
00000330: eab2 6bbd 6fee 94bc 6f55 f1bc ca33 3fbd
00000340: 9227 8f3c a4e8 91bc 57e2 573d 5fd4 093d
00000350: 694e 553d 71ad 223d a21d cfbc 4c8e 923d
00000360: 777c 233d f6b7 3fbc dfc5 a23b 21b2 03bd
00000370: 45c0 933b 714b 5bbd 9585 83bb 8719 51bd
00000380: 81c4 8c3d 56c4 0a3d 9d46 03bd d1a3 993b
00000390: e230 53bd 7817 de3c a01a 013d 9c69 51bd
000003a0: e96a 5fbb 10b0 233d 43c9 1e3c 616b 723b
000003b0: 1cad 7bbd bb8b 2b3d 7674 9a3d c6f6 5cbd
000003c0: c920 0ebc 5938 023d 2bf4 ad3b c96e 5ebd
000003d0: a384 1e3d 6095 153d dab6 d5bb 97a8 1d3d
000003e0: 1211 503d 128f 56bc ed49 953b 3d30 84bb
000003f0: 008d 3bbd 14c5 50bd f2cd 7e3c 322b 533d

actor_body.linear3.weight f4 [4, 256]
0.085236326 -0.08101832 -0.043891788 -0.09673365 -0.025200874 0.10652545 0.07720503 -0.025058538
-0.048509765 0.07629375 0.1064938 -0.03133449 -0.06971733 -0.026574584 -0.06812792 0.04836875
-0.02922701 -0.08297252 0.013003669 -0.003108735 -0.05796573 0.013796173 -0.05064979 -0.042252533
-0.06615269 0.017457498 0.030857695 0.053229384 0.045379378 -0.0039252955 0.07113501 0.015560889
-0.0434905 0.037970565 0.056024507 0.08688386 -0.051975507 0.076347105 0.07274484 0.07649119
-0.049257245 -0.04324494 0.0652479 -0.039204042 0.069338806 0.06562368 -0.06726231 -0.07099568
-0.08793853 0.019196795 -0.03263071 0.12379692 0.115536265 -0.059285767 0.033837322 0.017523246
0.144669 0.055136375 -0.04903848 0.1110617 -0.04728888 -0.00042070504 0.030338947 0.052665364
-0.050966013 0.08007136 0.04956699 0.025704246 0.08017308 -0.043992903 0.012872555 -0.093278095
-0.07620633 -0.04426156 -0.02557482 -0.017950788 0.03763964 0.036698062 -0.09458298 -0.019088952
-0.053493455 0.055001047 0.037068427 -0.10237371 -0.008425494 -0.01839194 0.044446528 0.05559294
0.040895604 0.008180913 -0.02384315 0.00975435 -0.008692266 -0.041369848 -0.0094817225 -0.0031920315
0.072587706 -0.06787964 0.03049058 0.07600585 -0.09641881 -0.06074605 0.020810818 -0.026664563
0.017318437 0.06809982 0.0778747 0.06263638 -0.0036099353 -0.020602806 -0.064923525 0.061296083
0.006763194 0.062084492 0.07050015 -0.052557994 0.046450906 0.009484067 0.030415727 -0.12251101
-0.08028681 0.10851899 0.011312003 -0.029740145 -0.090123735 -0.031334028 -0.10983669 -0.061386693
0.075958095 -0.04664722 0.07131806 0.010668466 -0.08774691 0.04450395 -0.12830484 0.11805848
0.021776386 0.0068010427 -0.11856615 -0.074477926 -0.046048023 0.07914033 0.041193973 -0.011429989
-0.05719633 0.085286714 0.062395122 -0.004878873 0.07149549 -0.050697934 -0.060208727 -0.02798246
0.044035222 -0.1037664 -0.08315244 0.04998053 0.00947727 0.056888655 0.11717457 -0.04697223
-0.061785802 0.046417467 -0.07640638 0.05232007 -0.003437854 0.016137542 -0.0015216393 -0.067676015
0.0082595395 0.02175367 -0.013554054 0.0686784 0.14938295 -0.052644376 -0.03311472 -0.071398415
0.114839755 0.04835096 -0.0832119 0.038370106 -0.06401757 -0.03948907 0.07291987 0.025939124
0.039726097 -0.050156508 0.03320376 -0.04500464 -0.097760625 0.07018089 0.09574738 0.08855843
-0.04013833 -0.046424855 0.019667402 -0.096880935 -0.01015482 0.06715623 -0.050541688 0.046769246
0.09108709 0.023761716 -0.031328857 0.0359765 0.031828385 0.056765918 -0.06990611 -0.081981756
0.09285554 -0.02579381 0.045143973 -0.001285961 -0.08520845 -0.046499625 -0.028935887 0.12822773
0.029217066 -0.013051948 0.03608314 0.010273147 -0.041565772 -0.10713896 -0.06162412 0.012732974
0.0016415748 -0.10965699 -0.037602466 0.09109871 0.0074857883 0.07224911 -0.09308925 -0.0499031
0.05328375 0.005576334 -0.05547776 -0.019615497 -0.037699103 0.003257274 -0.032015357 -0.06130021
-0.021950556 0.03335942 -0.08755585 -0.106405005 -0.065810494 -0.02349029 -0.05106977 0.032082364
0.045090068 -0.019406866 0.058482286 -0.005827434 -0.043070238 0.1025239 0.046837308 -0.12875973
00000000: 6290 ae3d efec a5bd e0c7 33bd 4b1c c6bd
00000010: 1072 cebc 042a da3d ac1d 9e3d 9047 cdbc
00000020: 2db2 46bd e63f 9c3d 6c19 da3d 9858 00bd
00000030: f6c7 8ebd f1b2 d9bc a786 8bbd 4f1e 463d
00000040: 7c6d efbc 7fed a9bd 570d 553c ebbb 4bbb
00000050: 796d 6dbd 5809 623c 2776 4fbd fe10 2dbd
00000060: 107b 87bd 0703 8f3c 47c9 fc3c 0e07 5a3d
00000070: badf 393d c49f 80bb 3baf 913d 19f3 7e3c
00000080: 1823 32bd 0687 1b3d f479 653d 2af0 b13d
00000090: 45e4 54bd df5b 9c3d 3ffb 943d 6aa7 9c3d
000000a0: f7c1 49bd 9b21 31bd b1a0 853d 6b94 20bd
000000b0: 8101 8e3d b565 863d d2c0 89bd 2f66 91bd
000000c0: 1e19 b4bd 9942 9d3c c8a7 05bd 3d89 fd3d
000000d0: 479e ec3d a2d5 72bd 0199 0a3d e98c 8f3c
000000e0: 1c24 143e aed6 613d 93dc 48bd 5174 e33d
000000f0: fcb1 41bd 1392 dcb9 6289 f83c a3b7 573d
00000100: bdc1 50bd 74fc a33d c206 4b3d b691 d23c
00000110: c931 a43d e731 34bd 69e7 523c 9608 bfbd
00000120: 1012 9cbd 9c4b 35bd 4982 d1bc 880d 93bc
00000130: 062c 1a3d b550 163d b9b4 c1bd 6f60 9cbc
00000140: f41b 5bbd c748 613d 10d5 173d 4fa9 d1bd
00000150: 150b 0abc b2aa 96bc 900d 363d 6cb5 633d
00000160: 2682 273d 3c09 063c b652 c3bc b6d0 1f3c
00000170: 026a 0ebc 6e73 29bd 3a59 1bbc 6731 51bb
00000180: dda8 943d 7b04 8bbd 61c7 f93c f5a8 9b3d
00000190: 3a77 c5bd dad0 78bd 737b aa3c a46f dabc
000001a0: 65df 8d3c eb77 8b3d c57c 9f3d 8147 803d
000001b0: aa94 6cbb 37c7 a8bc a0f6 84bd 9a11 7b3d
000001c0: c99d dd3b 4f4c 7e3d 6262 903d 0d47 57bd
000001d0: 4e43 3e3d 0f63 1b3c 672a f93c 0de7 fabd
000001e0: 696d a4bd 343f de3d fb55 393c 9ba1 f3bc
000001f0: cb92 b8bd 1c58 00bd 0ff2 e0bd 9d70 7bbd
00000200: eb8f 9b3d 2811 3fbd 340f 923d caca 2e3c
00000210: a7b4 b3bd c649 363d 5862 03be a5c8 f13d
00000220: 6464 b23c 48db de3b cfd2 f2bd e287 98bd
00000230: da9c 3cbd 5314 a23d 03bb 283d d944 3bbc
00000240: b346 6abd cdaa ae3d 0792 7f3d f4de 9fbb
00000250: 3a6c 923d a3a8 4fbd 6d9d 76bd 793b e5bc
00000260: 475e 343d 7a83 d4bd d44b aabd 62b8 4c3d
00000270: 8d46 1b3c 1404 693d 39f9 ef3d f465 40bd
00000280: 1c13 7dbd 3e20 3e3d f37a 9cbd 924d 563d
00000290: 9e4d 61bb e132 843c be71 c7ba b999 8abd
000002a0: 0553 073c c134 b23c d311 5ebc 43a7 8c3d
000002b0: d8f7 183e a1a1 57bd 4da3 07bd 5539 92bd
000002c0: 1b31 eb3d a80b 463d 006b aabd f929 1d3d
000002d0: a51b 83bd 4bbf 21bd 0357 953d 497e d43c
000002e0: d5b7 223d e970 4dbd aa00 083d c956 38bd
000002f0: b936 c8bd 00bb 8f3d 3417 c43d 1f5e b53d
00000300: 1768 24bd fd27 3ebd 881d a13c 8369 c6bd
00000310: 6760 26bc 3589 893d cd04 4fbd 1c91 3f3d
00000320: de8b ba3d eea7 c23c b052 00bd 185c 133d
00000330: 7b5e 023d 6183 683d ef2a 8fbd 0de6 a7bd
00000340: 0c2b be3d 8a4d d3bc e3e8 383d b18d a8ba
00000350: c581 aebd 6476 3ebd f40a edbc 214e 033e
00000360: a158 ef3c d6d7 55bc eacb 133d b450 283c
00000370: df40 2abd ac6b dbbd 9369 7cbd f79d 503c
00000380: 1c2a d73a d893 e0bd 0b05 1abd f691 ba3d
00000390: 584b f53b 57f7 933d 94a5 bebd 3167 4cbd
000003a0: 1040 5a3d aeb9 b63b a63c 63bd aeb0 a0bc
000003b0: 606a 1abd fd77 553b 8922 03bd ee15 7bbd
000003c0: a7d1 b3bc e3a3 083d 7b50 b3bd deea d9bd
000003d0: a7c7 86bd b56e c0bc 892e 51bd cc68 033d
000003e0: 5db0 383d 26fb 9ebc 1f8b 6f3d 0ff4 bebb
000003f0: 6b6a 30bd 0df8 d13d 7ad8 3f3d 97d9 03be

actor_body.linear3.bias f4 [4]
0.026167931 0.0004423076 0.027922837 -0.023687748
00000000: 215e d63c 85e5 e739 6fbe e43c cf0c c2bc

critic_body.linear1.weight f4 [256, 33]
-0.16986074 -0.16411667 0.070069924 0.20967895 0.0023727228 -0.16402166 -0.12781543 0.18949434
-0.119803615 0.109742664 -0.06371291 -0.002985764 0.063938834 0.060779463 0.15684032 -0.025490167
-0.053412624 0.01751494 0.0046529374 -0.12509972 -0.097613074 0.017815987 0.11846147 0.09279861
0.032943208 0.04307623 0.006272848 0.009851084 0.16954152 0.026391461 0.12420076 0.07498489
-0.4734066 -0.096861444 0.17869444 -0.012901122 0.03139036 -0.06898669 -0.09839115 0.07764992
-0.06210277 -0.08049444 0.059054844 -0.039126657 0.0056407377 0.052367184 -0.12737013 0.09215335
0.119351186 -0.023698216 0.15849854 0.1645215 0.17967148 -0.004909975 -0.0022851804 0.067333646
0.0057977936 -0.06278421 -0.039870325 -0.14083746 0.16250303 0.042545557 0.16726062 -0.07857694
-0.040906847 0.0071484824 -0.038754478 -0.08687316 0.18533903 0.12840486 0.0887228 0.020982372
0.19824402 0.03294083 -0.083339095 -0.0133725535 -0.09839489 0.0652559 -7.0604125e-05 0.078864366
-0.03152451 -0.27234304 -0.13694973 -0.10471104 -0.00995018 -0.061442986 -0.031216735 -0.14313504
0.11193771 -0.0033718238 -0.0052951714 -0.041239135 -0.107030466 -0.15747699 0.18817979 0.11010781
-0.10120947 0.12852082 0.49224228 0.1509032 0.17272015 -0.007764642 0.09088498 0.08192137
-0.13958701 -0.08351723 0.10751769 -0.12939183 0.058847345 0.01857319 -0.027851803 -0.091238305
-0.14563285 0.029492632 0.21041055 -0.13667235 -0.27959096 -0.17411982 -0.00083431124 -0.03806984
-0.043589737 -0.067459285 0.09653625 0.096752904 0.06046039 0.044033557 0.1620379 -0.12393371
0.048271462 0.0016581665 0.15170303 -0.014369359 -0.17664047 -0.015222725 0.045173597 -0.15882617
0.095997386 0.04222151 0.21326126 0.16327804 -0.14089315 0.10598703 0.049422164 -0.03198356
0.057401355 -0.09004438 -0.047814753 -0.22201332 0.07891517 0.05961178 -0.0012944769 0.08624967
0.050240997 -0.012315931 0.027383886 -0.09240395 0.015484963 -0.1391026 0.20024988 -0.020013517
0.15356699 -0.11865527 0.019391159 -0.04617536 -0.30412745 -0.0415616 -0.025571184 0.120965876
0.1011041 -0.10333034 0.031476595 -0.100157574 -0.15847912 -0.18504465 0.09483681 0.10327077
-0.06846508 -0.06011859 -0.02834576 -0.006255488 0.1300536 0.10190499 0.02534047 0.08658523
-0.041094605 -0.013914555 0.018923232 0.087996714 -0.15962689 0.08168697 -0.01015993 -0.014146164
0.07633015 0.14252329 -0.16310054 0.025669428 0.06944473 0.43482387 0.14807959 0.09745295
0.1399968 0.104778945 0.05101667 -0.014535048 -0.036149796 -0.039112158 -0.12105865 -0.16702792
0.13483952 0.09677542 0.034446266 -0.02799372 -0.12256572 0.047272235 -0.13978036 -0.18425432
-0.0436952 0.06683505 -0.107024 0.15866576 0.04785466 0.058544017 -0.07377572 0.013903
-0.08985695 0.11933047 -0.012753817 -0.07966406 -0.10353144 -0.009201631 0.52839583 -0.15839116
0.027146881 -0.18175419 -0.05629228 -0.101811364 0.16596864 0.06621634 -0.0216114 0.05059007
0.10087709 -0.05308392 0.029062392 0.17534305 0.035580896 0.15684415 0.12984589 0.11253107
-0.055410415 -0.07679485 -0.08630299 -0.029439978 0.10179145 0.008039932 0.027779669 -0.07355814
00000000: f9ef 2dbe 330e 28be d280 8f3d 14b6 563e
00000010: af7f 1b3b 4bf5 27be 0ce2 02be ce0a 423e
00000020: 995b f5bd c3c0 e03d ea7b 82bd cfac 43bb
00000030: 5df2 823d e3f3 783d c09a 203e c1d0 d0bc
00000040: 32c7 5abd 7e7b 8f3c ab77 983b 241a 00be
00000050: 5de9 c7bd d5f2 913c ed9b f23d 330d be3d
00000060: 75ef 063d b370 303d 778c cd3b 7166 213c
00000070: 4b9c 2d3e e832 d83c f85c fe3d ae91 993d
00000080: 5a62 f2be 4b5f c6bd adfb 363e 3a5f 53bc
00000090: 2e93 003d e548 8dbd 4d81 c9bd ec06 9f3d
000000a0: 795f 7ebd 45da a4bd 7ee3 713d 4643 20bd
000000b0: f0d5 b83b f97e 563d 516d 02be e5ba bc3d
000000c0: 656e f43d c322 c2bc 714d 223e 5378 283e
000000d0: cdfb 373e dbe3 a0bb f7c2 15bb 39e6 893d
000000e0: 6bfb bd3b 0295 80bd 114f 23bd b237 10be
000000f0: 3267 263e 4044 2e3d 5e46 2b3e f2ec a0bd
00000100: f08d 27bd d13d ea3b 04bd 1ebd 8eea b1bd
00000110: 84c9 3d3e 907c 033e 4db4 b53d 39e3 ab3c
00000120: 7b00 4b3e f7ec 063d b0ad aabd 8e18 5bbc
00000130: 4383 c9bd e3a4 853d 4d11 94b8 a483 a13d
00000140: d81f 01bd 8c70 8bbe 8d3c 0cbe be72 d6bd
00000150: 1406 23bc a4ab 7bbd 3dba ffbc fe91 12be
00000160: 993f e53d d1f9 5cbb 1e83 adbb 5eea 28bd
00000170: ca32 dbbd a641 21be 34b2 403e 3480 e13d
00000180: e946 cfbd f69a 033e 2e07 fc3e 5e86 1a3e
00000190: 8ddd 303e 8a6e febb e821 ba3d 64c6 a73d
000001a0: e6ef 0ebe 150b abbd 3c32 dc3d 4b7f 04be
000001b0: ea09 713d cd26 983c 7729 e4bc 26db babd
000001c0: c720 15be 889a f13c dd75 573e d6f3 0bbe
000001d0: 8c26 8fbe 774c 32be aeb5 5aba 1fef 1bbd
000001e0: 278b 32bd 1828 8abd ccb4 c53d 6326 c63d
000001f0: 50a5 773d 885c 343d 43ed 253e f5d0 fdbd
00000200: 4cb8 453d d656 d93a 0a58 1b3e 766d 6bbc
00000210: 3de1 34be bd68 79bc f307 393d 54a3 22be
00000220: 479a c43d 76f0 2c3d 2961 5a3e 5c32 273e
00000230: 4b46 10be ba0f d93d e56e 4a3d 3201 03bd
00000240: af1d 6b3d 3069 b8bd 67d9 43bd 7657 63be
00000250: 479e a13d 7b2b 743d 70ab a9ba aba3 b03d
00000260: 81c9 4d3d c2c8 49bc 2c54 e03c 483e bdbd
00000270: a4b4 7d3c e970 0ebe 4e0e 4d3e 63f3 a3bc
00000280: aa40 1d3e 8901 f3bd 35da 9e3c 6022 3dbd
00000290: 98b6 9bbe 7f3c 2abd a97a d1bc f5bc f73d
000002a0: ab0f cf3d db9e d3bd 9aed 003d 6a1f cdbd
000002b0: 5a48 22be 587c 3dbe cd39 c23d a07f d33d
000002c0: 6b37 8cbd e93e 76bd 5e35 e8bc d6fa ccbb
000002d0: c52c 053e 90b3 d03d d196 cf3c 9953 b13d
000002e0: d152 28bd e0f9 63bc e504 9b3c 9f37 b43d
000002f0: 3b75 23be 804b a73d d675 26bc 50c5 67bc
00000300: fb52 9c3d a0f1 113e d403 27be b148 d23c
00000310: 0a39 8e3d 3ca1 de3e 2da2 173e 6a95 c73d
00000320: 525b 0f3e 5896 d63d dbf6 503d 6924 6ebc
00000330: cf11 14bd 1234 20bd 99ed f7bd 5e09 2bbe
00000340: 5f13 0a3e 3132 c63d 8717 0d3d 1653 e5bc
00000350: bc03 fbbd 88a0 413d 9522 0fbe 2aad 3cbe
00000360: bdf9 32bd d1e0 883d 662f dbbd 4779 223e
00000370: 3f03 443d dacb 6f3d ba17 97bd 69c9 633c
00000380: ec06 b8bd 8963 f43d 63f5 50bc e926 a3bd
00000390: 4b08 d4bd 70c2 16bc f344 073f 4b31 22be
000003a0: 2363 de3c c51d 3abe bc92 66bd 7a82 d0bd
000003b0: aff3 293e 6f9c 873d 640a b1bc 8937 4f3d
000003c0: a698 ce3d 866e 59bd 4114 ee3c 218d 333e
000003d0: 46bd 113d c19b 203e 52f6 043e b176 e63d
000003e0: 08f6 62bd 9e46 9dbd 9fbf b0bd 1c2c f1bc
000003f0: 0978 d03d ebb9 033c 3092 e33c a6a5 96bd

critic_body.linear1.bias f4 [256]
-0.007078803 -0.04885395 0.010221352 -0.08220526 -0.07823572 -0.107034884 -0.20058246 0.1326405
-0.08538458 -0.12141424 0.17698003 -0.10036519 0.007842703 -0.11843734 -0.1629068 0.14049757
-0.13901883 -0.100398846 0.2294102 0.082823694 0.14207485 0.18280233 -0.010322277 -0.15518443
0.15743221 0.05468574 0.09813963 -0.045069892 -0.022560388 -0.16759108 -0.1575086 0.09555957
0.11196199 -0.021649517 0.17318909 -0.2100543 -0.22171938 0.076967865 0.14788534 0.027075326
-0.0931338 0.15751033 -0.2419997 -0.0500677 0.0015979845 -0.16536738 0.20377713 -0.057909317
0.042621154 -0.1221958 -0.2567479 0.031609967 0.16067111 0.13656546 0.047150314 0.08780778
-0.057526946 -0.04691469 0.06960861 0.13339487 -0.10043638 0.01428784 0.06535724 -0.091696106
0.03960463 0.1038863 -0.15431595 0.03776636 0.16335137 -0.12809332 0.090644814 -0.14674428
-0.071107715 0.08334638 -0.10357072 0.03961766 -0.04538387 -0.12185639 0.07272506 0.17920972
0.012091731 -0.12667468 -0.03193956 0.020891035 -0.0014091094 -0.0637473 -0.18612467 0.022978846
-0.16222742 -0.029011855 -0.069957286 -0.018536212 -0.1249089 -0.081798844 -0.10589489 -0.014844892
-0.048186656 -0.017852293 -0.15154494 0.07445699 0.055993512 -0.0036334782 -0.028090624 -0.035334688
0.028323758 -0.0036300118 -0.04772015 -0.14121942 -0.049497582 -0.02873278 0.025610497 -0.15053202
-0.022465523 0.12248101 -0.14147557 -0.06685722 0.07923598 0.07677357 0.0067884033 -0.014916179
0.047344413 0.038200792 0.09363244 0.10995755 0.14979875 -0.051297527 0.046525296 0.15006046
-0.058060437 -0.02666001 -0.019318018 0.11339613 -0.027251555 -0.058168918 -0.15534045 0.06699012
-0.043279618 0.020091847 -0.12585546 0.15402094 -0.20201237 0.04060701 -0.03502363 -0.13086413
0.045898516 0.14410926 0.10211588 -0.16133916 0.09091561 0.08229513 0.04503831 0.044902455
-0.09118763 -0.1097873 -0.08019147 -0.08509794 0.1588996 0.0309222 0.050908163 0.13097507
-0.05397106 0.16487253 0.06298976 -0.1377094 0.10683837 0.11118653 0.067510076 0.20547928
0.1262417 0.1209588 -0.09653445 0.122489184 -0.104512885 0.05452377 0.077890396 -0.018152516
-0.07672295 0.1684345 0.02058153 -0.028193895 0.0014747748 0.02421497 -0.155098 -0.055124618
0.13657033 -0.100204796 0.19751756 -0.17078263 0.04361502 -0.0046268925 0.066192836 0.10319145
0.14396256 0.21384078 -0.004168161 0.036730867 -0.2337978 0.0982938 -0.04689433 -0.11002166
-0.067123145 -0.08071808 0.056590244 -0.15461463 0.0786696 0.07768633 0.08501328 -0.033998564
0.11978 -0.088163696 0.1310002 0.108124696 0.11264611 0.1901047 0.01378676 -0.11083275
0.12918663 -0.093056634 0.16458142 -0.0019898673 0.10192628 0.15491654 -0.109211415 -0.042129666
-0.20606774 -0.13850242 -0.13498965 -0.008371232 0.1794305 0.08800538 -0.081673004 -0.03887201
-0.1464646 0.005017281 -0.033362493 0.0020852517 0.076746084 0.1468296 -0.10344698 0.071143724
-0.14939635 0.017428728 -0.094333306 -0.038343247 -0.07029795 -0.04394499 0.21517687 -0.09450482
0.048071835 -0.06906744 -0.16854328 0.1391928 -0.076080464 -0.08994967 -0.118191935 0.06965167
00000000: 4ef5 e7bb 141b 48bd 7577 273c 3b5b a8bd
00000010: 0d3a a0bd 1b35 dbbd 7d65 4dbe e9d2 073e
00000020: 1cde aebd 07a8 f8bd 413a 353e 448c cdbd
00000030: ae7e 003c 478f f2bd 0ad1 26be 98de 0f3e
00000040: f45a 0ebe e99d cdbd 82ea 6a3e 789f a93d
00000050: 127c 113e 8930 3b3e c51e 29bc abe8 1ebe
00000060: e935 213e 28fe 5f3d 6efd c83d 359b 38bd
00000070: 90d0 b8bc ff9c 2bbe ef49 21be bcb4 c33d
00000080: 544c e53d 545a b1bc 7b58 313e 7918 57be
00000090: 680a 63be 54a1 9d3d 416f 173e 13cd dd3c
000000a0: efbc bebd 634a 213e c5ce 77be ca13 4dbd
000000b0: 7673 d13a 1156 29be f4aa 503e 5232 6dbd
000000c0: 8593 2e3d cb41 fabd 7674 83be 7479 013d
000000d0: f886 243e d1d7 0b3e b020 413d 91d4 b33d
000000e0: 60a1 6bbd 9e29 40bd f58e 8e3d aa98 083e
000000f0: 97b1 cdbd 8b17 6a3c 04da 853d 2bcb bbbd
00000100: 7738 223d 57c2 d43d 0005 1ebe e6b0 1a3d
00000110: 9545 273e e52a 03be fda3 b93d 2244 16be
00000120: eca0 91bd 82b1 aa3d e31c d4bd 2146 223d
00000130: 70e4 39bd d88f f9bd e0f0 943d c182 373e
00000140: 651c 463c 02b7 01be 0ed3 02bd ad23 ab3c
00000150: deb1 b8ba f28d 82bd 7797 3ebe 223e bc3c
00000160: f21e 26be 45aa edbc c445 8fbd 41d9 97bc
00000170: 3dd0 ffbd 2786 a7bd 6cdf d8bd fd37 73bc
00000180: 5f5f 45bd f93e 92bc 992e 1bbe e87c 983d
00000190: 7459 653d a61f 6ebb 4f1e e6bc 1bbb 10bd
000001a0: 3a07 e83c 7ee5 6dbb 3476 43bd d39b 10be
000001b0: fabd 4abd 0261 ebbc 1bcd d13c 1125 1abe
000001c0: 9e09 b8bc 53d7 fa3d f9de 10be 70ec 88bd
000001d0: 7946 a23d 763b 9d3d 4171 de3b fd62 74bc
000001e0: 37ec 413d 6f78 1c3d 5dc2 bf3d 6d31 e13d
000001f0: d864 193e 5b1d 52bd 4f91 3e3d 73a9 193e
00000200: c8d0 6dbd 1866 dabc d240 9ebc 3b3c e83d
00000210: a73e dfbc 8842 6ebd 9111 1fbe 1e32 893d
00000220: f845 31bd a897 a43c 41e0 00be aab7 1d3e
00000230: 55dc 4ebe 8953 263d f074 0fbd 3f01 06be
00000240: 1500 3c3d 6191 133e 2122 d13d 1836 25be
00000250: f731 ba3d 598a a83d 177a 383d a3eb 373d
00000260: 95c0 babd 2ad8 e0bd 6d3b a4bd d447 aebd
00000270: 94b6 223e 8e50 fd3c 1485 503d 541e 063e
00000280: c210 5dbd 58d4 283e c600 813d b103 0dbe
00000290: 13ce da3d c3b5 e33d b942 8a3d 2969 523e
000002a0: 8145 013e 3fb9 f73d dbb3 c5bd 9cdb fa3d
000002b0: da0a d6bd 5154 5f3d 0085 9f3d 96b4 94bc
000002c0: ec20 9dbd 187a 2c3e 999a a83c e2f6 e6bc
000002d0: 3b4d c13a 795e c63c 03d2 1ebe 5aca 61bd
000002e0: 18d9 0b3e 2c38 cdbd 0b42 4a3e a4e1 2ebe
000002f0: aaa5 323d 309d 97bb 1c90 873d 0a56 d33d
00000300: ec6a 133e 14f9 5a3e 1295 88bb 1b73 163d
00000310: b168 6fbe 434e c93d 4514 40bd 0953 e1bd
00000320: dc77 89bd 854f a5bd 2ccb 673d 4c53 1ebe
00000330: 871d a13d 031a 9f3d 711b ae3d 1442 0bbd
00000340: 374f f53d 2b8f b4bd eb24 063e 7b70 dd3d
00000350: 01b3 e63d ceaa 423e dde1 613c 48fc e2bd
00000360: 8049 043e 7a94 bebd 0888 283e 6f68 02bb
00000370: babe d03d 71a2 1e3e 3caa dfbd 2890 2cbd
00000380: 6c03 53be 94d3 0dbe ba3a 0abe 7e27 09bc
00000390: a1bc 373e 2a3c b43d 2d44 a7bd 4238 1fbd
000003a0: d1fa 15be 0168 a43b 1ca7 08bd b8a8 083b
000003b0: 0d2d 9d3d 805a 163e 03dc d3bd cdb3 913d
000003c0: 5bfb 18be b1c6 8e3c d231 c1bd cf0d 1dbd
000003d0: 5ff8 8fbd a9ff 33bd 5357 5c3e be8b c1bd
000003e0: f9e6 443d 3b73 8dbd 9c96 2cbe 8f88 0e3e
000003f0: 13d0 9bbd 8837 b8bd 9d0e f2bd 89a5 8e3d
