reacher-ppo/models/ppo-max-hiddensize-128.pth (torch_old, 171848 bytes, 12 tensors)

std f4 [1, 4]
0.8398584 0.8227548 0.29466474 0.47542536
00000000: f600 573f 0fa0 523f 4cde 963e f46a f33e

actor_body.linear1.weight f4 [128, 33]
-0.0046757204 -0.07630576 0.0701782 -0.11750439 -0.06686899 -0.17039125 -0.112241484 -0.12945782
0.12609868 0.0023932885 0.12341166 -0.17951113 -0.058368105 -0.07959257 -0.07989128 -0.052854043
-0.06103946 0.092916556 0.01311297 -0.06714397 -0.06361223 -0.15742913 -0.086976275 0.06440493
-0.08917264 -0.15208104 -0.08851782 -0.045876313 0.20753998 0.15700531 -0.17397228 -0.019885495
0.020928862 -0.022876035 -0.08329143 -0.12897085 -0.15704061 -0.044317827 -0.10010125 0.104141764
-0.06190474 0.13479337 0.18318287 0.047682602 -0.1523292 0.10483581 0.067926064 -0.20466816
0.1026187 0.080952175 0.059565686 0.08336815 -0.06415078 0.05743173 -0.07196424 0.17394955
-0.022985796 -0.039417025 0.16048619 -0.2044322 -0.0061085094 -0.037440017 -0.08319664 -0.110492624
0.12703788 -0.23572257 -0.19554731 -0.13197748 0.006077683 0.22856523 -0.2034401 0.04666422
-0.08171909 -0.1096678 0.025707722 -0.055539638 0.007179462 0.05215581 0.11815549 0.11557523
0.043565802 0.1443095 0.047135424 0.07071178 -0.11407524 -0.060896315 -0.0021795346 -0.09807773
-0.047179054 0.027642973 0.12565893 -0.012960125 -0.05205231 -0.03253406 -0.084050626 -0.05899954
0.20110092 0.0931586 0.09589497 -0.19454846 -0.03279845 0.05594963 -0.035813488 -0.20935233
0.14138696 -0.025842302 -0.073351055 0.07532726 -0.09138013 -0.17282932 -0.013790026 0.13239609
0.14325923 -0.054577786 0.20538439 0.08882587 0.11573667 -0.061532684 0.03743798 -0.0021283694
0.17704922 0.111087374 0.099035576 -0.16852708 -0.038687054 0.16195512 0.01315914 -0.16284719
0.053536743 0.05673493 0.07341276 0.37281412 -0.25214696 0.013633781 -0.018740054 -0.050803088
-0.14774147 -0.0795457 0.183206 -0.17321688 -0.0052623004 -0.04760197 -0.11251577 0.124682195
0.0071411156 0.10279202 0.13092744 0.12081245 0.13271277 -0.13934319 0.08260075 -0.08109981
-0.04373666 -0.06741883 -0.23208264 0.14346138 -0.010604876 -0.020399362 -0.0888464 -0.22468682
-0.02132545 -0.12479899 0.22646621 -0.16120349 -0.106524445 0.23629014 0.09939398 0.111248
0.098009646 0.10530751 0.11313545 0.17167898 -0.00372631 -0.077240184 0.03385399 0.027569367
-0.13465023 -0.011621366 -0.06111672 -0.2100601 0.055456463 -0.08832606 -0.113412894 -0.12407497
0.058778357 0.11434711 -0.05029648 0.01720306 0.00962022 -0.17147645 -0.056145575 -0.08341507
-0.06795537 -0.21132764 0.044209614 0.079462476 0.12752572 -0.21020412 -0.037154797 -0.047655102
0.040916093 -0.10644491 -0.14043714 0.12776901 -0.05669288 0.04398766 -0.11587891 0.18331602
0.048471898 0.10541316 -0.17402376 -0.0386691 0.13523814 -0.08124724 -0.0021828504 0.051065523
-0.100973524 0.09085829 0.007801371 0.030062508 0.16900024 -0.1311216 -0.003541502 0.08770992
0.1030687 0.081199065 0.016632345 0.007394254 -0.13400757 0.07327302 -0.013773512 -0.044413358
-0.090655915 0.014075306 0.1878813 -0.071628444 0.1620715 -0.009067525 0.11466783 0.04935583
0.007823102 -0.00027025474 -0.046107907 -0.1663507 -0.18522279 0.107049026 -0.0136158345 -0.14104113
0.16440417 0.01697458 0.051307905 0.1095979 0.060620327 0.08240021 -0.16072139 0.11840722
00000000: c936 99bb 3246 9cbd 97b9 8f3d 24a6 f0bd
00000010: 9cf2 88bd 0b7b 2ebe ddde e5bd 9790 04be
00000020: 0320 013e b8d8 1c3b 41bf fc3d c4d1 37be
00000030: 6513 6fbd 6e01 a3bd 0a9e a3bd 7b7d 58bd
00000040: 8304 7abd 094b be3d c8d7 563c c782 89bd
00000050: 2147 82bd 1a35 21be 9e20 b2bd bbe6 833d
00000060: 25a0 b6bd 22bb 1bbe d548 b5bd cde8 3bbd
00000070: 5c85 543e 00c6 203e ca25 32be e8e6 a2bc
00000080: 0173 ab3c 8666 bbbc b294 aabd ef10 04be
00000090: 41cf 20be 9c86 35bd e201 cdbd 4748 d53d
000000a0: d38f 7dbd 4607 0a3e 4a94 3b3e d54e 433d
000000b0: 30fc 1bbe 28b4 d63d d21c 8b3d 8894 51be
000000c0: c129 d23d 41ca a53d 26fb 733d ecbc aa3d
000000d0: 7c61 83bd 893d 6b3d fd61 93bd d51f 323e
000000e0: b54c bcbc bf73 21bd 7e56 243e ad56 51be
000000f0: e429 c8bb b45a 19bd 0063 aabd f549 e2bd
00000100: 3816 023e 4261 71be 8e3d 48be 1b25 07be
00000110: 4d27 c73b 010d 6a3e 9a52 50be fb22 3f3d
00000120: 575c a7bd 8399 e0bd 0099 d23c 887d 63bd
00000130: b141 eb3b 55a1 553d 81fb f13d b5b2 ec3d
00000140: 0e72 323d dfc5 133e 1311 413d 56d1 903d
00000150: 48a0 e9bd 6a6e 79bd 86d6 0ebb fadc c8bd
00000160: d33e 41bd 8473 e23c bcac 003e b456 54bc
00000170: ce34 55bd 6f42 05bd bc22 acbd 80a9 71bd
00000180: 66ed 4d3e f0c9 be3d 9564 c43d b637 47be
00000190: ab57 06bd 702b 653d 2ab1 12bd 7560 56be
000001a0: bec7 103e 3cb3 d3bc 1439 96bd 2e45 9a3d
000001b0: 8125 bbbd 2bfa 30be 90ef 61bc d792 073e
000001c0: 8cb2 123e f58c 5fbd 4950 523e 56ea b53d
000001d0: 5907 ed3d b209 7cbd 9158 193d 1d7c 0bbb
000001e0: 644c 353e c781 e33d 2ad3 ca3d 5d92 2cbe
000001f0: 5176 1ebd 90d7 253e 6f99 573c 6ac1 26be
00000200: 5849 5b3d e362 683d 6e59 963d 7ee1 be3e
00000210: 6819 81be 3960 5f3c be84 99bc e616 50bd
00000220: 8a49 17be dbe8 a2bd 5b9a 3b3e c45f 31be
00000230: 606f acbb 49fa 42bd ab6e e6bd 6159 ff3d
00000240: 0500 ea3b 9f84 d23d d811 063e 856c f73d
00000250: dbe5 073e fbaf 0ebe 952a a93d a817 a6bd
00000260: 3625 33bd e212 8abd 12a7 6dbe 8ae7 123e
00000270: 13c0 2dbc 901c a7bc 1af5 b5bd 4d14 66be
00000280: b6b2 aebc 9d96 ffbd c2e6 673e 8712 25be
00000290: 7d29 dabd 0bf6 713e 128f cb3d fed5 e33d
000002a0: 48b9 c83d 77ab d73d 8fb3 e73d 9dcc 2f3e
000002b0: 1c35 74bb 1a30 9ebd 7baa 0a3d 27d9 e13c
000002c0: c0e1 09be 8b67 3ebc 8755 7abd ff19 57be
000002d0: 5126 633d 4be4 b4bd 0545 e8bd 051b febd
000002e0: 93c1 703d d12e ea3d af03 4ebd 6fed 8c3c
000002f0: 219e 1d3c 8697 2fbe e7f8 65bd 85d5 aabd
00000300: 2f2c 8bbd 4666 58be 2415 353d 39bd a23d
00000310: 1a96 023e c03f 57be a12f 18bd ff31 43bd
00000320: a297 273d caff d9bd c1ce 0fbe e1d5 023e
00000330: cb36 68bd 682c 343d ec51 edbd 32b7 3b3e
00000340: 788a 463d dbe2 d73d 4933 32be 7d63 1ebd
00000350: de7b 0a3e f464 a6bd 270e 0fbb 152a 513d
00000360: 35cb cebd e913 ba3d a5a2 ff3b a645 f63c
00000370: 660e 2d3e be44 06be 8b18 68bb 42a1 b33d
00000380: af15 d33d b24b a63d 8e40 883c 804b f23b
00000390: 4839 09be 2a10 963d 4caa 61bc c8ea 35bd
000003a0: cfa9 b9bd 1d9c 663c f563 403e efb1 92bd
000003b0: 12f6 253e f58f 14bc f8d6 ea3d 5729 4a3d
000003c0: 782c 003c fab0 8db9 a5db 3cbd d757 2abe
000003d0: 0bab 3dbe 853c db3d f314 5fbc 166d 10be
000003e0: 9159 283e 460e 8b3c 3d28 523d dd74 e03d
000003f0: 054d 783d 71c1 a83d 2694 24be 7c7f f23d

actor_body.linear1.bias f4 [128]
0.03548921 -0.0034071433 0.0091818515 0.16885698 0.19364043 -0.06266773 -0.061919283 0.18934976
-0.17920391 0.005152059 0.017911268 0.046716623 0.06633889 0.13704395 0.17787169 0.11352517
0.12843408 -0.15891248 -0.14361446 0.03257703 -0.12536956 -0.0970351 -0.089939766 -0.14034481
-0.10605087 -0.011084747 0.09174435 0.055758156 0.18753159 0.16183631 -0.0011828487 -0.028392347
0.14000952 0.08196589 0.0807281 0.14374988 -0.08383392 -0.16635343 -0.042683687 0.20243302
-0.094287135 -0.04012257 -0.042980924 0.07251947 -0.095641755 -0.082142174 -0.08402551 -0.053560045
0.0023850729 -0.11374201 -0.070551656 -0.023462957 -0.07028365 -0.16534075 0.12008787 0.09745464
0.07549225 -0.11864779 0.043884482 -0.0057805954 0.017435685 0.037040416 -0.1470754 -0.0033398755
0.059760984 0.07382941 0.11284947 0.17137694 -0.006619027 0.017030152 -0.07630512 0.1591464
0.08885737 0.09044593 -0.038666703 -0.06948724 0.18966983 -0.15409854 -0.097864844 -0.101130016
0.14808662 0.102182195 0.100673474 0.10510081 -0.15636756 0.026898079 -0.1433478 -0.025648063
0.030609954 0.03805492 -0.075659186 0.1549656 0.052424904 0.112391576 0.076328166 -0.19557571
0.09151624 0.18996924 -0.12231203 0.079954974 -0.05795143 0.009963255 0.030938786 0.12178407
-0.026507197 0.12899669 -0.015140143 -0.11094232 -0.04003089 -0.13833101 0.13415486 -0.019371022
-0.22568843 -0.17996511 -0.024569621 -0.11960726 0.028050765 -0.081849374 -0.100595094 -0.05228389
0.06193072 -0.06152132 0.14130801 -0.054146297 0.0785856 0.08932008 -0.0750212 -0.08529029
00000000: 225d 113d 614a 5fbb 7a6f 163c d8e8 2c3e
00000010: ad49 463e f057 80bd 139f 7dbd e7e4 413e
00000020: 3b81 37be 9ad2 a83b a7ba 923c ee59 3f3d
00000030: afdc 873d 4055 0c3e ff23 363e e27f e83d
00000040: 3984 033e f4b9 22be ab0f 13be 7e6f 053d
00000050: e160 00be 57ba c6bd 5732 b8bd 8db6 0fbe
00000060: 3331 d9bd cc9c 35bc 76e4 bb3d aa62 643d
00000070: 4808 403e 6bb8 253e d109 9bba 1197 e8bc
00000080: a85e 0f3e bcdd a73d c654 a53d 2b33 133e
00000090: 1eb1 abbd 8e58 2abe 17d5 2ebd 9a4a 4f3e
000000a0: 9d19 c1bd 9057 24bd c40c 30bd 1685 943d
000000b0: d3df c3bd 283a a8bd 9115 acbd c761 5bbd
000000c0: e24e 1c3b 92f1 e8bd 637d 90bd 6335 c0bc
000000d0: e0f0 8fbd 164f 29be a1f0 f53d 4c96 c73d
000000e0: ae9b 9a3d 9dfd f2bd 37c0 333d 266b bdbb
000000f0: 48d5 8e3c b1b7 173d ef9a 16be d0e1 5abb
00000100: efc7 743d e033 973d 9f1d e73d 707d 2f3e
00000110: 6ce4 d8bb d182 8b3c dc45 9cbd 46f7 223e
00000120: dafa b53d b73b b93d fa60 1ebd 534f 8ebd
00000130: cf38 423e 02cc 1dbe 5d6d c8bd 411d cfbd
00000140: 05a4 173e e644 d13d e52d ce3d 183f d73d
00000150: d11e 20be 5c59 dc3c c4c9 12be e31b d2bc
00000160: bac1 fa3c 7adf 1b3d 34f3 9abd 4daf 1e3e
00000170: 7fbb 563d 8e2d e63d f151 9c3d 0045 48be
00000180: de6c bb3d 4c87 423e bb7e fabd 6fbf a33d
00000190: 7b5e 6dbd ec3c 233c 5673 fd3c ed69 f93d
000001a0: 9f25 d9bc b517 043e 5d0e 78bc ba35 e3bd
000001b0: 6ef7 23bd a5a6 0dbe e45f 093e faaf 9ebc
000001c0: de1a 67be c648 38be 3b46 c9bc a7f4 f4bd
000001d0: b8ca e53c a5a0 a7bd cd04 cebd a227 56bd
000001e0: 11ab 7d3d c8fd 7bbd 0cb3 103e 82c8 5dbd
000001f0: 7df1 a03d 72ed b63d b7a4 99bd adac aebd

actor_body.linear2.weight f4 [128, 128]
0.12623751 0.03679338 -0.051348686 -0.01746091 0.014003663 -0.13910969 0.0040758136 -0.01315659
-0.094099976 -0.037925545 0.08964838 0.06612303 0.043918725 -0.0457458 -0.027261302 -0.15264063
0.05549576 0.061576474 -0.08400296 -0.067628264 -0.050619036 -0.014033641 0.0851403 0.080016054
0.13939956 -0.035871174 -0.009926146 -0.032610077 0.11064503 0.005666498 -0.075992964 -0.016487617
0.06607482 0.07067438 -0.048789203 -0.14720145 -0.023311209 0.08668202 -0.01797893 0.113092534
0.10500186 -0.09506599 0.099942274 -0.027850514 0.07344904 0.045873404 -0.027433839 0.044161733
0.019127535 -0.09512828 0.07771713 0.070885465 0.053748928 0.1424552 -0.068125695 0.017952364
-0.07499233 0.034150884 -0.025112605 0.019091899 0.067802615 0.029931858 0.04140583 -0.005835602
-0.036760766 -0.02131162 0.06584255 -0.035996426 -0.1077462 -0.067764014 -0.099160776 0.062177327
0.033191558 0.095714554 -0.04215641 0.086325064 0.028142836 0.11269143 0.031733725 -0.027741576
0.02989216 0.020845495 -0.0140879685 -0.016865294 0.06782782 -0.013073137 -0.02083286 -0.0045708455
-0.02144116 0.0016177741 0.0024289316 0.05982773 -0.02123378 -0.0063756923 0.011203785 -0.008367725
0.028154941 0.0077509223 0.052029613 0.07781231 0.005745879 0.058980364 0.0026678867 -0.05105314
0.072092354 -0.06645382 -0.032534063 -0.12041231 -0.00284494 0.029043905 -0.033302102 0.033008054
-0.01183027 0.036263652 0.0014357644 -0.08020897 0.07366794 0.06732069 -0.048959646 0.12158145
-0.09289576 0.015726155 0.1434334 0.09962826 0.0063548633 -0.07407572 -0.06884485 -0.034118336
0.05471882 -0.0788821 -0.06484101 -0.03257583 -0.16526587 -0.03416453 0.057299055 0.13175464
-0.049541 0.07063276 -0.0628349 -0.10468794 0.010774396 0.07735056 -0.0642965 0.123786345
-0.0028595962 -0.009603521 0.13294445 -0.23949713 -0.14472106 0.014068817 0.098431036 -0.03165363
-0.027875181 0.032754123 -0.08301617 0.013541685 0.073972054 0.15148836 0.057372928 -0.055290595
-0.012088505 0.0013774835 -0.0069515514 0.08183998 0.020327773 -0.048846815 -0.13912344 0.14073719
0.102276504 -0.068206094 0.05601081 0.14756946 -0.07381857 -0.15642844 0.05498147 -0.11479246
0.070719056 -0.07784369 0.09781781 -0.0074364715 0.01322402 -0.05690193 -0.013706588 0.08662782
-0.07276415 -0.0850384 -0.08370867 -0.16904546 0.03741041 -0.06362476 -0.06740517 0.09136182
-0.08520546 -0.07920058 -0.08282463 0.02842402 -0.041992076 0.10555578 -0.1413204 0.052708957
0.051289435 -0.021816442 0.12873204 0.09016209 0.018810775 0.047730666 -0.1270614 -0.04810447
-0.02128419 0.06576151 -0.118112795 0.06670682 -0.063885465 -0.115935214 0.048986603 0.1801172
0.012732285 -0.0762596 0.11366668 -0.12743314 0.05920651 0.026287565 0.056864288 0.07698754
0.09386319 0.036652643 0.00050269364 -0.010840894 0.084556654 -0.07491176 0.15738107 -0.06588213
0.01347288 0.029915564 -0.011441406 0.0555521 -0.012530638 -0.08565667 0.079351544 0.271337
-0.01575816 -0.055489402 0.054961734 0.17772356 0.036661122 -0.051060427 -0.013390477 0.035649166
-0.012750611 -0.084261134 0.21081764 -0.0020084418 0.07946543 -0.011913268 0.009064641 0.15965822
00000000: 6844 013e a8b4 163d 0053 52bd 2f0a 8fbc
00000010: 9f6f 653c c572 0ebe 678e 853b bd8e 57bc
00000020: 7db7 c0bd d157 1bbd 9299 b73d 836b 873d
00000030: 1fe4 333d f35f 3bbd 1853 dfbc d34d 1cbe
00000040: 864f 633d 9d37 7c3d be09 acbd b080 8abd
00000050: e855 4fbd 5bed 65bc 0a5e ae3d 75df a33d
00000060: c2be 0e3e a7ed 12bd 46a1 22bc 2592 05bd
00000070: dd99 e23d 08ae b93b 33a2 9bbd 0a11 87bc
00000080: 3c52 873d bbbd 903d 30d7 47bd fabb 16be
00000090: 26f7 bebc 5886 b13d 8d48 93bc 0f9d e73d
000000a0: 370b d73d f5b1 c2bd 89ae cc3d c326 e4bc
000000b0: 736c 963d c0e5 3b3d eebc e0bc efe2 343d
000000c0: 59b1 9c3c 9ed2 c2bd 292a 9f3d 662c 913d
000000d0: d627 5c3d c7df 113e 7c85 8bbd d610 933c
000000e0: 9495 99bd cce1 0b3d f3b8 cdbc 9d66 9c3c
000000f0: 19dc 8a3d a833 f53c 2999 293d 9438 bfbb
00000100: 7592 16bd b595 aebc 75d8 863d fd70 13bd
00000110: 0aaa dcbd dcc7 8abd ce14 cbbd a7ad 7e3d
00000120: dff3 073d fe05 c43d 33ac 2cbd 32cb b03d
00000130: ce8b e63c c4ca e63d 39fb 013d 4d42 e3bc
00000140: 67e0 f43c 2cc4 aa3c 39d1 66bc 1629 8abc
00000150: 50e9 8a3d b630 56bc ada9 aabc 08c7 95bb
00000160: 5fa5 afbc 7e0b d43a b62e 1f3b ec0d 753d
00000170: 77f2 adbc 2feb d0bb 1590 373c c818 09bc
00000180: 31a5 e63c 73fb fd3b 011d 553d 0f5c 9f3d
00000190: ed47 bc3b 6595 713d b6d7 2e3b 191d 51bd
000001a0: 28a5 933d f118 88bd 7042 05bd bb9a f6bd
000001b0: 2c72 3abb 7ced ed3c c967 08bd 7433 073d
000001c0: c0d3 41bc 3289 143d 4230 bc3a 9a44 a4bd
000001d0: 38df 963d 6edf 893d e989 48bd b2ff f83d
000001e0: 2240 bebd 23d4 803c 35e0 123e e709 cc3d
000001f0: 753c d03b 03b5 97bd 87fe 8cbd abbf 0bbd
00000200: d720 603d f08c a1bd 5dcb 84bd 3c6e 05bd
00000210: 753b 29be 1bf0 0bbd 6ab2 6a3d b0ea 063e
00000220: 81eb 4abd e9a7 903d 96af 80bd a166 d6bd
00000230: 1887 303c f869 9e3d e2ad 83bd b283 fd3d
00000240: 1068 3bbb 1658 1dbc 9722 083e bc3e 75be
00000250: c231 14be e580 663c 3696 c93d 3da7 01bd
00000260: 7e5a e4bc 3029 063d 6204 aabd f2dd 5d3c
00000270: a97e 973d c41f 1b3e e0ff 6a3d 6478 62bd
00000280: dd0e 46bc ad8c b43a d7c9 e3bb b89b a73d
00000290: 6e86 a63c 9913 48bd 6076 0ebe 691d 103e
000002a0: 5876 d13d a3af 8bbd 976b 653d 731c 173e
000002b0: 312e 97bd c72e 20be 4034 613d 4f18 ebbd
000002c0: 27d5 903d 836c 9fbd b454 c83d a5ad f3bb
000002d0: 8fa9 583c 0012 69bd 9991 60bc ed69 b13d
000002e0: 5f05 95bd 9d28 aebd 746f abbd 411a 2dbe
000002f0: a83b 193d b34d 82bd b90b 8abd e81b bb3d
00000300: 3380 aebd ea33 a2bd f69f a9bd 7ed9 e83c
00000310: e2ff 2bbd a12d d83d 4cb6 10be 59e5 573d
00000320: df14 523d 65b8 b2bc 55d2 033e e7a6 b83d
00000330: 0e19 9a3c 3b81 433d 621c 02be 3109 45bd
00000340: 2e5c aebc f8ad 863d 1fe5 f1bd 969d 883d
00000350: 62d6 82bd 716f edbd 2da6 483d a570 383e
00000360: 139b 503c fe2d 9cbd 14ca e83d d57d 02be
00000370: 8782 723d 0559 d73c 87ea 683d a5ab 9d3d
00000380: 583b c03d 1521 163d 33c7 033a 019e 31bc
00000390: 0a2c ad3d 566b 99bd 8128 213e 36ed 86bd
000003a0: 5bbd 5c3c 7c11 f53c bc74 3bbc 998a 633d
000003b0: 4e4d 4dbc c46c afbd 1083 a23d afec 8a3e
000003c0: 4217 81bc db48 63bd 8e1f 613d 2afd 353e
000003d0: f929 163d bd24 51bd bb63 5bbc dc04 123d
000003e0: f0e7 50bc 1a91 acbd 94e0 573e 10a0 03bb
000003f0: c5be a23d de2f 43bc dc83 143c 727d 233e

actor_body.linear2.bias f4 [128]
-0.00019285455 -0.026245905 -0.03084162 0.08695044 0.012248493 -0.053475354 0.11318032 0.043115903
-0.030700168 -0.06517585 -0.0043980954 -0.0747072 0.027137216 -0.05405294 0.0648513 0.043676775
-0.021716798 0.051837448 -0.04774006 -0.1111223 0.016926209 0.0069953734 -0.006034092 -0.077315524
0.06597847 -0.06961138 0.0072581954 0.047806967 -0.029165575 -0.027159374 -0.034454305 0.014910504
0.07022984 -0.038309656 -0.07231282 -0.012588528 0.01520505 -0.027200364 0.07461861 0.070677206
0.00893584 0.0336136 0.066760965 -0.057249647 0.0066207116 -0.005316981 0.044858173 0.04524091
0.10166519 -0.074709654 -0.060928494 0.04366816 -0.0019289524 -0.05763886 0.05369477 -0.033064887
-0.016785191 0.028716873 0.09116786 0.021492913 0.008593031 0.05785038 -0.008498731 -0.111767575
0.012605374 0.035326146 -0.0818658 -0.013881003 -0.033133462 -0.051277027 -0.02564705 0.04993859
-0.028143292 0.05699815 0.08380906 0.015362779 -0.031303 0.012303352 -0.011471505 0.063217096
0.10965763 0.081592835 0.026520569 0.11054315 0.037071403 0.021786567 0.10437187 -0.045084123
0.056187987 -0.08089356 -0.06543519 0.029902881 -0.09810617 0.0022391558 -0.006884601 8.850565e-05
-0.092117414 0.04418361 0.10438035 0.04696707 0.053737603 0.056642734 -0.012021904 -0.043580472
-0.09093793 0.016708545 0.09948706 0.008138824 -0.048511673 0.04585998 -0.029269973 -0.051913116
-0.0097684385 0.044626374 -0.03052114 0.06042953 0.10973225 -0.058851074 -0.005041301 0.015679603
0.00032775535 0.057578046 -0.057741374 0.037125856 0.055368677 -0.061306525 0.05392884 -0.036748674
00000000: 0039 4ab9 a701 d7bc 91a7 fcbc 1313 b23d
00000010: e7ad 483c f908 5bbd 15cb e73d 4d9a 303d
00000020: eb7e fbbc eb7a 85bd e61d 90bb 1700 99bd
00000030: de4e de3c 9e66 5dbd c2d0 843d 6be6 323d
00000040: 6de7 b1bc 8153 543d 158b 43bd 1794 e3bd
00000050: d5a8 8a3c 7239 e53b a2b9 c5bb 9a57 9ebd
00000060: b81f 873d 6990 8ebd 28d6 ed3b 3dd1 433d
00000070: a5ec eebc 567d debc f51f 0dbd 304b 743c
00000080: aad4 8f3d 96ea 1cbd be18 94bd 1d40 4ebc
00000090: 9a1e 793c 4cd3 debc a4d1 983d 36bf 903d
000000a0: a167 123c 6aae 093d f9b9 883d 9b7e 6abd
000000b0: 8ef2 d83b 123a aebb 34bd 373d 884e 393d
000000c0: d735 d03d 6001 99bd 2890 79bd 62dd 323d
000000d0: e7d4 fcba ba16 6cbd 0cef 5b3d 0c6f 07bd
000000e0: 1981 89bc a63f eb3c 37b6 ba3d e811 b03c
000000f0: c9c9 0c3c 85f4 6c3d 433e 0bbc 66e6 e4bd
00000100: c586 4e3c 26b2 103d 42a9 a7bd 256d 63bc
00000110: f4b6 07bd dc07 52bd c319 d2bc 688c 4c3d
00000120: c38c e6bc e476 693d 16a4 ab3d 2ab4 7b3c
00000130: 9337 00bd 0094 493c fbf2 3bbc f777 813d
00000140: 2e94 e03d 251a a73d aa41 d93c 7264 e23d
00000150: 2fd8 173d be79 b23c ebc0 d53d 21aa 38bd
00000160: 6025 663d 86ab a5bd e302 86bd e3f6 f43c
00000170: e3eb c8bd cdbe 123b 3898 e1bb 1c9c b938
00000180: 0ea8 bcbd dff9 343d 5dc5 d53d 8b60 403d
00000190: f61b 5c3d 3602 683d 85f7 44bc 7081 32bd
000001a0: aa3d babd 5ce0 883c dfbf cb3d b458 053c
000001b0: 2db4 46bd add7 3b3d 95c7 efbc d9a2 54bd
000001c0: cd0b 20bc 25ca 363d 7807 fabc f484 773d
000001d0: 4dbb e03d d30d 71bd 7f31 a5bb 8372 803c
000001e0: 94d6 ab39 f5d6 6b3d 3882 6cbd 4811 183d
000001f0: 44ca 623d 8d1c 7bbd 7de4 5c3d c785 16bd

actor_body.linear3.weight f4 [4, 128]
-0.08706006 0.037988134 -0.1221401 0.05005871 -0.07522151 0.13248706 -0.042322673 0.1068017
0.12478251 0.004703313 -0.07555897 0.09698276 0.06413815 0.04009859 -0.11040204 0.13930635
0.08632264 -0.07806216 0.024600541 0.09484533 0.08601299 -0.07768754 -0.071921974 0.00694575
-0.04385509 0.12163876 0.17168601 -0.016995542 -0.05503849 0.09618383 0.07732546 0.14718269
0.09002303 0.1362222 0.083993256 0.03715282 0.13578545 -0.05827594 0.11147952 0.10129818
0.010637463 -0.041806158 -0.014205596 -0.024370512 0.119181894 -0.057478715 0.10889381 -0.12047809
0.13488051 0.12023206 0.11264327 0.050681878 -0.019091086 -0.16529006 0.10219743 0.03351725
0.027010448 0.1055724 -0.03732876 -0.14117609 0.017482765 0.1149101 -0.12452201 0.0074287145
0.009795167 -0.021825887 -0.09305026 -0.096594706 0.14430003 -0.11689374 -0.13075204 -0.17632705
0.027295018 -0.050086197 -0.028482277 0.050303858 -0.14092377 0.0784206 0.08007547 -0.0050212136
-0.19537373 0.08401401 0.062844396 0.087426394 -0.102361344 0.0041987277 -0.07525707 0.046680667
-0.083291866 0.1198785 -0.10586566 -0.043841388 -0.014901782 0.11618941 -0.006497414 -0.16421871
0.1798856 0.06909407 0.05971696 -0.08353058 -0.14814016 -0.10951941 0.021680024 0.22034319
0.04565391 -0.051022213 -0.025441105 0.020462452 -0.119890474 -0.08299697 -0.15602517 -0.09010792
0.093008764 -0.07459878 -0.08766734 -0.08014857 -0.0063345917 -0.07871655 -0.088978596 -0.08539408
0.05746583 -0.06295823 0.08736848 0.07089356 -0.032713346 -0.10816744 -0.059394035 0.032739967
-0.04335291 0.041730464 0.08578011 0.1804237 0.107069604 -0.041665748 -0.14796704 0.12722766
-0.084847815 -0.13132547 -0.06437383 -0.0062768254 0.06938835 -0.100676075 -0.05347966 -0.01594502
0.10087353 0.123257056 -0.035229143 -0.016595943 -0.05245327 -0.12280763 0.04265802 0.17051342
-0.07064639 0.1518125 0.0037488102 -0.1055674 -0.09276815 0.13508122 -0.05937064 -0.14574113
0.09225491 0.0016288334 0.093512625 0.08049118 0.010267535 0.07796515 0.12757318 -0.11665542
0.032247294 0.03093112 -0.15690818 -0.09464195 -0.09214005 0.005507845 0.041884523 -0.09232573
0.07165874 0.11077396 0.032796755 0.01573904 0.009086896 0.0018313073 -0.05951722 0.011582976
0.036598008 -0.15093896 0.104081385 -0.01736444 0.02201706 -0.11350872 -0.037497014 -0.03811914
0.08137973 0.10829263 0.03388602 0.020495769 -0.028698739 0.10773643 0.100542806 0.10459024
0.16965704 -0.008006762 -0.0038087496 -0.080462635 0.06825697 -0.08597722 0.05507115 0.0010022883
-0.030872757 -0.1975526 0.076872006 -0.10927641 -0.1372178 -0.10085263 -0.13681139 0.1223401
0.1640297 0.1360488 0.050470177 0.02828952 0.041112423 -0.100801036 0.1648517 -0.1180625
0.07996329 0.121164866 -0.09111959 0.123252556 -0.013887165 -0.044927616 -0.04050864 -0.123287894
-0.004951076 0.008574498 -0.14851335 0.068877585 0.05415164 0.054046467 0.021993889 -0.09305558
0.15363632 -0.09064114 -0.040884238 0.09434634 -0.099389754 0.07005593 -0.023059428 -0.12852508
0.16077933 0.059914365 0.14110233 -0.019644799 -0.055660702 0.059627503 0.11111481 -0.14757015
00000000: 8b4c b2bd 7299 1b3d 9724 fabd 5d0a 4d3d
00000010: bc0d 9abd b0aa 073e 8a5a 2dbd daba da3d
00000020: f98d ff3d 401e 9a3b a9be 9abd e69e c63d
00000030: dd5a 833d 6b3e 243d 771a e2bd 53a6 0e3e
00000040: edc9 b03d 0edf 9fbd 1387 c93c 453e c23d
00000050: 9427 b03d a51a 9fbd d44b 93bd 2d99 e33b
00000060: 65a1 33bd be1d f93d 75ce 2f3e 3c3a 8bbc
00000070: 0a70 61bd 07fc c43d d05c 9e3d 0fb7 163e
00000080: ff5d b83d d57d 0b3e a804 ac3d 8e2d 183d
00000090: 570b 0b3e c1b2 6ebd 604f e43d 6c75 cf3d
000000a0: c148 2e3c ef3c 2bbd 97be 68bc aba4 c7bc
000000b0: a315 f43d cd6e 6bbd b803 df3d 38bd f6bd
000000c0: 1e1e 0a3e 3a3c f63d 84b1 e63d cd97 4f3d
000000d0: e964 9cbc cc41 29be e34c d13d 6249 093d
000000e0: 0445 dd3c 5836 d83d 0be6 18bd 7790 10be
000000f0: 0438 8f3c fd55 eb3d 6505 ffbd 936c f33b
00000100: e87b 203c 34cc b2bc 2291 bebd 72d3 c5bd
00000110: 63c3 133e fc65 efbd dde3 05be 148f 34be
00000120: cd99 df3c 2f27 4dbd aa53 e9bc 6b0b 4e3d
00000130: 524e 10be fb9a a03d 9cfe a33d fe88 a4bb
00000140: 0d10 48be 8a0f ac3d 90b4 803d 9c0c b33d
00000150: d3a2 d1bd 7b95 893b 6120 9abd 3a34 3f3d
00000160: ed94 aabd dc82 f53d 18d0 d8bd 0793 33bd
00000170: 9b26 74bc b7f4 ed3d 42e8 d4bb f328 28be
00000180: ee33 383e 3181 8d3d c599 743d 1512 abbd
00000190: 0eb2 17be b64b e0bd 4e9a b13c a5a1 613e
000001a0: 98ff 3a3d abfc 50bd dd69 d0bc dfa0 a73c
000001b0: 2389 f5bd 51fa a9bd 10c5 1fbe 808a b8bd
000001c0: 617b be3d 3fc7 98bd ef8a b3bd ef24 a4bd
000001d0: 6892 cfbb 2436 a1bd 693a b6bd 17e3 aebd
000001e0: 4a61 6b3d 3ff0 80bd 3fee b23d a530 913d
000001f0: 6efe 05bd e486 ddbd 2947 73bd 581a 063d
00000200: d292 31bd 90ed 2a3d 7bad af3d fec0 383e
00000210: 4f47 db3d b4a9 2abd ac84 17be f847 023e
00000220: b1c4 adbd 2f7a 06be 6dd6 83bd d4ad cdbb
00000230: 7b1b 8e3d 422f cebd 7d0d 5bbd 219f 82bc
00000240: c896 ce3d 326e fc3d 6f4c 10bd 37f4 87bc
00000250: 3dd9 56bd 9182 fbbd 2dba 2e3d 129b 2e3e
00000260: 0eaf 90bd bc74 1b3e 99ae 753b b933 d8bd
00000270: 3afd bdbd bb52 0a3e a12e 73bd 2a3d 15be
00000280: 24f0 bc3d 947e d53a 8c83 bf3d 8fd8 a43d
00000290: 2a39 283c 31ac 9f3d 8ba2 023e 09e9 eebd
000002a0: bd15 043d 4363 fd3c 8aac 20be a4d3 c1bd
000002b0: ecb3 bcbd 277b b43b 1b8f 2b3d 4615 bdbd
000002c0: d1c1 923d 75dd e23d e455 063d 29ef 803c
000002d0: 34e1 143c 7a08 f03a 54c8 73bd 86c6 3d3c
000002e0: cbe7 153d be8f 1abe 9f28 d53d df3f 8ebc
000002f0: 1f5d b43c 4377 e8bd 7896 19bd d122 1cbd
00000300: 6aaa a63d 87c8 dd3d 11cc 0a3d bee6 a73c
00000310: 9e19 ebbc eba4 dc3d 63e9 cd3d 6833 d63d
00000320: 93ba 2d3e cb2e 03bc 379c 79bb 98c9 a4bd
00000330: 4fca 8b3d d314 b0bd 4992 613d 375f 833a
00000340: dde8 fcbc 3b4b 4abe 126f 9d3d 4fcc dfbd
00000350: d382 0cbe d38b cebd 4918 0cbe 728d fa3d
00000360: 67f7 273e 6050 0b3e d1b9 4e3d 6cbf e73c
00000370: 8065 283d c670 cebd e2ce 283e c1ca f1bd
00000380: cbc3 a33d 4925 f83d e89c babd d66b fc3d
00000390: fe86 63bc 0506 38bd 63ec 25bd 5d7e fcbd
000003a0: a33c a2bb 0d7c 0c3c e213 18be b10f 8d3d
000003b0: 1cce 5d3d d45f 5d3d 872c b43c ed93 bebd
000003c0: d752 1d3e 10a2 b9bd 3b76 27bd a738 c13d
000003d0: db8c cbbd 7c79 8f3d 20e7 bcbc 149c 03be
000003e0: 56a3 243e c468 753d 217d 103e 21ee a0bc
000003f0: 7afc 63bd f83b 743d 2990 e33d a11c 17be

actor_body.linear3.bias f4 [4]
0.023278175 -0.053937543 -0.060127858 -0.08462732
00000000: dfb1 be3c 9ded 5cbd a148 76bd 1751 adbd

critic_body.linear1.weight f4 [128, 33]
-0.035915196 -0.046064496 -0.1343346 -0.10582613 0.15146326 0.12621616 0.030695733 -0.15153573
-0.027023531 0.060761575 -0.031227512 -0.070846364 -0.12649365 0.028097207 0.05613748 -0.0929732
0.048783667 -0.0042230473 0.025252463 0.06690268 -0.03254712 -0.075036295 -0.006116023 -0.009238414
0.05697673 0.054169685 0.008051206 -0.14019558 -0.15626349 -0.12799163 0.09616724 0.15752307
-0.13621038 -0.0889921 -0.1503043 -0.109565966 0.1276817 0.17383377 -0.099485785 0.09365707
-0.010651839 -0.09786583 -0.04167333 -0.013853189 0.0761399 0.06653108 -0.17069827 -0.04735382
0.014436641 0.16887172 -0.025314324 -0.008585643 0.04405445 -0.05047602 -0.014615419 0.018111214
-0.04593372 -0.052201085 -0.10516277 0.20221813 -0.02840484 0.10819063 -0.12722413 0.22189356
0.17176676 0.59618694 -0.063621596 -0.019908454 0.110785015 0.06383791 -0.077845715 -0.057780337
-0.1282102 -0.012479481 0.12578449 0.07274717 0.046356104 -0.04545135 -0.11145169 0.09276433
0.018790012 -0.026793394 -0.009884959 0.11706086 0.14486843 0.06983491 -0.06895821 0.048303794
-0.14997143 0.13618453 0.059481557 -0.0901187 0.055877447 0.11414408 -0.1537873 0.16966712
0.071917504 0.17001152 0.108692594 0.284222 0.077589594 -0.14642377 -0.11198584 0.18774387
0.12417191 -0.06684304 -0.035841748 -0.11199084 0.074216105 0.040260073 0.018063072 -0.10721932
-0.123945735 -0.080765605 -0.043482434 -0.06603359 -0.060141373 -0.0069896607 -0.05854249 -0.1532333
-0.13907366 0.01666385 0.047633212 0.06719079 0.07971917 0.006612683 -0.14264438 0.0296962
0.14025539 0.03355969 -0.14198735 0.076423645 0.069967344 0.12170055 -0.14471443 -0.055594016
0.037248004 0.020117639 0.03359974 0.055864148 0.0910297 0.12655824 -0.027655391 0.014357921
0.045046303 -0.15066373 -0.08645177 0.018607356 0.08980837 0.07730831 0.12429338 0.003497387
-0.03538373 -0.014955836 0.057303302 -0.06781949 -0.013991244 0.08901916 0.045893602 -0.116724215
0.08048547 0.11474699 -0.042965803 0.03349769 -0.6894734 0.098586075 0.06788704 0.026224772
0.092749886 0.09402205 -0.074148126 0.14896585 -0.06414652 -0.08144566 -0.15856515 0.08700841
0.021331722 -0.022679055 -0.021914644 0.055723485 -0.017164228 -0.08926953 0.06811722 0.020149184
0.11674887 0.027348408 0.28759873 0.038194474 0.14625336 0.08393361 0.007959343 0.0446091
-0.12760489 0.09063683 0.0015580356 -0.056543924 0.024129093 -0.6499895 -0.024973327 -0.008781908
0.20170955 0.06731901 -0.031958852 0.2619818 0.09980339 0.068604074 -0.1524193 0.047618218
0.028357219 -0.021410625 -0.01362632 -0.1573498 0.19041714 -0.12613116 -0.10382919 -0.121440314
-0.12184473 0.13750546 -0.0726533 -0.052531034 -0.009637293 -0.05439146 0.03049532 0.03900965
-0.09136371 -0.13477491 -0.035788245 0.16610152 0.0013860546 0.0011384934 0.0698808 -0.15984333
-0.085549355 -0.11069663 0.13905454 -0.13101105 -0.08437866 0.054966174 -0.0011660818 0.02833974
-0.09602364 0.047593012 0.07174369 0.049973514 0.10270305 0.13607587 0.049308173 -0.15645558
-0.03475063 -0.0075879795 0.08807011 -0.049808584 0.070463516 -0.15262827 -0.026218105 -0.092752144
00000000: d01b 13bd 20ae 3cbd 028f 09be 5fbb d8bd
00000010: 2f19 1b3e cf3e 013e 9e75 fb3c 2f2c 1bbe
00000020: 7460 ddbc 21e1 783d d7d0 ffbc e617 91bd
00000030: 8d87 01be 1d2c e63c 6af0 653d bc68 bebd
00000040: 62d1 473d 7d61 8abb 41de ce3c 4604 893d
00000050: 2150 05bd a1ac 99bd eb68 c8bb b75c 17bc
00000060: 6e60 693d 08e1 5d3d 35e9 033c 6e8f 0fbe
00000070: 8903 20be 3d10 03be 54f3 c43d ba4d 213e
00000080: bc7a 0bbe 7d41 b6bd 5fe9 19be 1f64 e0bd
00000090: febe 023e 7b01 323e 34bf cbbd 47cf bf3d
000000a0: 0d85 2ebc e16d c8bd a7b1 2abd 7cf8 62bc
000000b0: 3cef 9b3d 7241 883d 87cb 2ebe 14f6 41bd
000000c0: a987 6c3c b5ec 2c3e fc5f cfbc ccaa 0cbc
000000d0: 7072 343d f1bf 4ebd 8375 6fbc f85d 943c
000000e0: ff24 3cbd ced0 55bd 945f d7bd 4512 4f3e
000000f0: 44b1 e8bc 0d93 dd3d 0b47 02be 1138 633e
00000100: a0e3 2f3e b59f 183f 0a4c 82bd 0e17 a3bc
00000110: 41e3 e23d 73bd 823d 936d 9fbd 13ab 6cbd
00000120: 8949 03be bd76 4cbc a6cd 003e 78fc 943d
00000130: e6df 3d3d 322b 3abd c940 e4bd 3afb bd3d
00000140: 83ed 993c d27d dbbc 86f4 21bc 9bbd ef3d
00000150: 6458 143e 9b05 8f3d f639 8dbd 33da 453d
00000160: 1c92 19be f573 0b3e efa2 733d 2790 b8bd
00000170: c0df 643d 5fc4 e93d 6b7a 1dbe 38bd 2d3e
00000180: 7c49 933d 8017 2e3e 399a de3d 8c85 913e
00000190: 4be7 9e3d 1df0 15be d558 e5bd ee3f 403e
000001a0: d84d fe3d 01e5 88bd ccce 12bd 745b e5bd
000001b0: 9dfe 973d bfe7 243d 02f9 933c ce95 dbbd
000001c0: 43d7 fdbd 7068 a5bd a31a 32bd 9e3c 87bd
000001d0: cd56 76bd 8609 e5bb 40ca 6fbd 31e9 1cbe
000001e0: 5369 0ebe a082 883c 0b1b 433d 539b 893d
000001f0: ce43 a33d 35af d83b 5e11 12be 7245 f33c
00000200: 1c9f 0f3e e375 093d 2265 11be 0084 9c3d
00000210: 0a4b 8f3d 233e f93d 0530 14be 8db6 63bd
00000220: 5d91 183d bfcd a43c e29f 093d ced1 643d
00000230: c86d ba3d 7c98 013e 8f8d e2bc 7c3d 6b3c
00000240: 7982 383d 9847 1abe a00d b1bd 746e 983c
00000250: 73ed b73d d253 9e3d 878d fe3d 6b34 653b
00000260: 88ee 10bd 5309 75bc deb6 6a3d f2e4 8abd
00000270: 883b 65bc ad4f b63d eefa 3b3d 1b0d efbd
00000280: 91d5 a43d 7800 eb3d e9fc 2fbd e034 093d
00000290: 5481 30bf 7fe7 c93d 5c08 8b3d 55d5 d63c
000002a0: a7f3 bd3d a28e c03d f9da 97bd 818a 183e
000002b0: 405f 83bd fbcc a6bd e75e 22be 7731 b23d
000002c0: ddbf ae3c 6dc9 b9bc 5786 b3bc 4f3e 643d
000002d0: ff9b 8cbc f1d2 b6bd 0b81 8b3d e70f a53c
000002e0: 081a ef3d c509 e03c 2440 933e cf71 1c3d
000002f0: 71c3 153e 62e5 ab3d e767 023c 08b8 363d
00000300: dbaa 02be cd9f b93d 0037 cc3a 9a9a 67bd
00000310: 60aa c53c b665 26bf dd94 ccbc fee1 0fbc
00000320: f38c 4e3e 8dde 893d 49e7 02bd 7a22 863e
00000330: b865 cc3d 4b80 8c3d ce13 1cbe 520b 433d
00000340: 664d e83c 5665 afbc ee40 5fbc 4e20 21be
00000350: b6fc 423e 8728 01be 66a4 d4bd b3b5 f8bd
00000360: bb89 f9bd 3bce 0c3e 41cb 94bd c82a 57bd
00000370: bde5 1dbc 94c9 5ebd 52d1 f93c 95c8 1f3d
00000380: e61c bbbd 6f02 0abe b296 12bd 8416 2a3e
00000390: 46ac b53a 8039 953a aa1d 8f3d f8ad 23be
000003a0: 8034 afbd eab4 e2bd 5064 0e3e c327 06be
000003b0: b8ce acbd 3624 613d 36d7 98ba be28 e83c
000003c0: 0ba8 c4bd e4f0 423d 5bee 923d 07b1 4c3d
000003d0: fa55 d23d 7957 0b3e 5ef7 493d e435 20be
000003e0: ad56 0ebd 96a4 f8bb 1a5e b43d 1604 4cbd
000003f0: 2d4f 903d 964a 1cbe 5ac7 d6bc d6f4 bdbd

critic_body.linear1.bias f4 [128]
0.15421909 0.12300367 0.048107326 -0.16749504 -0.10348809 0.07590617 0.065406665 0.1978513
-0.012584093 0.061487243 -0.026924588 0.034803644 0.116165414 -0.1649095 -0.226139 -0.08515463
0.1078615 -0.18074752 0.13017166 0.12561968 -0.060975835 -0.18140319 -0.17351152 0.13303943
-0.18214743 0.080683604 -0.033322673 0.17289467 -0.08289862 -0.008978471 0.05516857 0.09682731
-0.050706882 0.03131564 -0.010696043 0.12037938 -0.040064774 -0.11298212 -0.09555127 0.047780726
0.10125769 -0.19832133 0.015673958 0.030763008 0.1336236 -0.061827928 0.17068493 0.17544551
-0.035108782 -0.13253403 -0.08806586 -0.01919505 -0.12407857 0.024295049 0.16226752 -0.0838992
0.030811328 0.104275964 0.052809216 -0.14272097 -0.13736439 -0.121844456 0.17557323 0.20849855
0.10145435 -0.12456781 0.039015606 -0.13526429 0.036914114 -0.16089195 0.069712676 0.14519256
-0.07542474 -0.06918443 -0.07452144 -0.18162146 -0.24485195 -0.20504789 0.11330925 0.076930135
-0.2156001 0.02629205 0.12509103 0.11024387 0.029379232 0.111852795 0.13120066 -0.2072919
0.18674378 -0.14397575 0.03817297 -0.07105765 0.10846444 0.14678939 -0.0017325681 -0.17097764
-0.07427426 -0.111698955 0.08716674 -0.0047898116 -0.18653336 0.16208087 0.006839289 0.07388514
0.11427566 0.049335524 -0.17342618 -0.04046274 -0.03202566 -0.039891113 -0.13057308 -0.005769966
-0.07985653 0.17880319 0.13754663 0.12952964 -0.17917214 0.014092235 0.060864553 0.010168947
-0.036556076 0.100147985 -0.021325532 -0.10129503 -0.11731759 0.24087921 -0.1072556 -0.13627024
00000000: 9ceb 1d3e 59e9 fb3d 300c 453d d283 2bbe
00000010: 90f1 d3bd b274 9b3d eef3 853d 8899 4a3e
00000020: 832d 4ebc 0cda 7b3d f490 dcbc 448e 0e3d
00000030: 22e8 ed3d 09de 28be fb90 67be 8d65 aebd
00000040: 7de6 dc3d e115 39be b84b 053e 72a2 003e
00000050: ccc1 79bd c2c1 39be 01ad 31be 7d3b 083e
00000060: db84 3abe 723d a53d 5b7d 08bd 4d0b 313e
00000070: c0c6 a9bd 701a 13bc 70f8 613d 664d c63d
00000080: 05b2 4fbd d444 003d 753e 2fbc 7789 f63d
00000090: f61a 24bd 2b63 e7bd 62b0 c3bd b9b5 433d
000000a0: 3160 cf3d bf14 4bbe ac66 803c b402 fc3c
000000b0: a0d4 083e 483f 7dbd 08c8 2e3e fda7 333e
000000c0: 3ace 0fbd 00b7 07be e05b b4bd f03e 9dbc
000000d0: e81c febd 6906 c73c 7529 263e 58d3 abbd
000000e0: 0a68 fc3c a38e d53d 7a4e 583d 7225 12be
000000f0: 40a9 0cbe 9689 f9bd 78c9 333e a580 553e
00000100: 4cc7 cf3d 681d ffbd d4ce 1f3d b982 0abe
00000110: 4133 173d dcc0 24be 85c5 8e3d 5cad 143e
00000120: 4978 9abd 91b0 8dbd b29e 98bd fafa 39be
00000130: 78ba 7abe 13f8 51be ae0e e83d 8c8d 9d3d
00000140: 46c6 5cbe 6d62 d73c dd17 003e 8ac7 e13d
00000150: b7ac f03c 1413 e53d 7759 063e 5444 54be
00000160: c339 3f3e 616e 13be 435b 1c3d ac86 91bd
00000170: 9b22 de3d f54f 163e 5717 e3ba c314 2fbe
00000180: 1a1d 98bd 6cc2 e4bd 7a84 b23d daf3 9cbb
00000190: 9a02 3fbe 87f8 253e 1d1c e03b 1851 973d
000001a0: 5b09 ea3d 0c14 4a3d a296 31be 42bc 25bd
000001b0: 572d 03bd dd64 23bd f3b4 05be fc11 bdbb
000001c0: d28b a3bd 2f18 373e 06d9 0c3e 6ba3 043e
000001d0: e778 37be 1ee3 663c 1c4d 793d a89b 263c
000001e0: d3bb 15bd 631a cd3d e2b2 aebc c573 cfbd
000001f0: 3444 f0bd 0aa9 763e d3a8 dbbd 6d8a 0bbe

critic_body.linear2.weight f4 [128, 128]
0.079847276 -0.06731344 -0.003954845 0.034589615 0.08271666 -0.03875602 -0.08393518 0.03274787
0.047547538 -0.124471605 0.04731841 0.060933344 0.023059383 -0.10724159 -0.15906313 0.026439236
0.007568627 -0.06259941 -0.056551628 -0.05364561 0.025284968 -0.06194607 0.081031196 0.02674526
0.088773966 0.0387462 0.078355454 0.036125727 0.026505439 0.016084196 -0.0054242034 0.032966077
-0.0052492 -0.051792298 -0.023225417 0.06265629 -0.015907506 -0.09372644 -0.03550512 0.08956075
-0.0012720022 -0.06768438 -0.029182533 -0.03935736 -0.25783998 0.018882189 0.003751319 0.04193239
-0.09329113 -0.042172175 -0.06808779 -0.032247756 0.023992717 -0.08369311 -0.07916861 -0.022903677
-0.022195237 -0.0066555035 -0.092716634 -0.08374254 -0.04926611 -0.087465174 -0.056832183 0.0407364
-0.07953325 0.0046346136 -0.01510996 -0.17143951 -0.008913045 0.044846885 -0.023640713 0.055614013
-0.055306837 -0.046313208 0.087055355 0.057224803 0.020118773 0.06492141 -0.029299257 0.032889564
0.036830958 0.026458165 -0.0036201228 -0.1719825 0.064782456 0.105985224 0.07698949 0.037156835
-0.0017588552 -0.0152040105 0.02862848 0.0990198 -0.03293545 0.1335694 -0.080168165 0.049451254
-0.03831837 -0.011578238 -0.13574776 0.06119966 -0.018005574 0.07814827 -0.044640608 -0.064361356
0.016449787 -0.068957046 0.04289496 -0.15838937 0.06332511 0.061885074 -0.0656255 -0.022663128
-0.0040834984 -0.04022514 -0.020302309 0.043700542 0.0111385705 0.06957312 0.07813181 0.1041128
-0.03222864 -0.19528157 0.06617527 0.054099925 0.008526368 0.03638324 0.084333435 0.029619629
0.052115597 -0.024748066 0.039291363 -0.03031506 -0.030298453 -0.046463363 0.053671338 -0.059043784
0.009575408 0.020110613 -0.031720497 -0.095776215 -0.09094367 0.07463974 0.05055492 -0.092231154
-0.03604192 0.06764333 0.062725775 0.039547898 -0.06772285 0.06689732 0.05340967 0.061300073
-0.076379284 -0.046360314 -0.03655984 -0.025457608 0.053714715 0.07295501 -0.020853288 -0.053756118
-0.095723405 0.07598075 0.03725331 0.0502212 -0.010726296 0.07796955 0.059292234 -0.047798328
-0.07256834 -0.0739348 -0.0007064717 0.009658573 -0.032996945 -0.030855305 0.052728508 -0.034904063
0.074859396 0.07437286 -0.021359824 0.03549763 -0.026052726 -0.012234927 0.028580418 -0.061654605
0.03831688 -0.10303926 -0.038212605 0.049952667 -0.010193259 0.07030394 0.016136521 0.04818205
-0.017833304 0.00721045 0.056700043 -0.008854825 -0.032841172 0.03010187 -0.039287716 0.056591526
-0.0043522133 -0.07259787 -0.08703498 -0.056626283 -0.027694557 -0.028005632 0.0073091206 -0.027979963
-0.08550281 0.017591527 0.034890566 -0.06731821 -0.0034809913 -0.033832725 -0.06000876 0.007084445
0.0030353183 -0.0077476525 0.056706917 -0.080538966 0.02156396 -0.06805308 0.05736885 -0.05933576
-0.08258115 -0.0320073 -0.06829914 -0.04549409 0.07250324 0.0139338095 -0.028219054 -0.09596191
0.037429497 0.017862232 -0.027218772 0.007646011 0.062088028 -0.029953351 -0.034568008 -0.021591347
-0.07384929 -0.024047252 -0.013960636 -0.024224687 -0.0034363335 -0.06312109 -0.07752911 -0.017054701
-0.025201442 -0.06031467 -0.017585123 -0.06745907 -0.069531165 -0.06147705 0.057519943 0.026241526
00000000: f886 a33d a1db 89bd a597 81bb d7ad 0d3d
00000010: 5a67 a93d a2be 1ebd 35e6 abbd a122 063d
00000020: 35c1 423d f8ea febd f3d0 413d 3e95 793d
00000030: 08e7 bc3c 7ba1 dbbd 72e1 22be 1997 d83c
00000040: 3f02 f83b 1f34 80bd aea2 67bd 80bb 5bbd
00000050: 6c22 cf3c 2abb 7dbd aff3 a53d e018 db3c
00000060: 20cf b53d 56b4 1e3d d378 a03d 92f8 133d
00000070: ef21 d93c 01c3 833c 84bd b1bb 7007 073d
00000080: 7b01 acbb 2924 54bd 3b43 bebc f151 803d
00000090: 7550 82bc a6f3 bfbd d16d 11bd a06b b73d
000000a0: 50b9 a6ba 1c9e 8abd 3510 efbc 2f35 21bd
000000b0: 9a03 84be d2ae 9a3c b0d8 753b 4cc1 2b3d
000000c0: 6c0f bfbd bbbc 2cbd 9c71 8bbd 3916 04bd
000000d0: 608c c43c 4b67 abbd 2723 a2bd 7ea0 bbbc
000000e0: c9d2 b5bc 6916 dabb 38e2 bdbd 3581 abbd
000000f0: 43cb 49bd f120 b3bd ddc8 68bd 36db 263d
00000100: 54e2 a2bd f5dd 973b c48f 77bc d78d 2fbe
00000110: 0508 12bc 5eb1 373d 2baa c1bc 85cb 633d
00000120: 6c89 62bd ebb2 3dbd 144a b23d 8e64 6a3d
00000130: 20d0 a43c 84f5 843d ff04 f0bc 35b7 063d
00000140: 0fdc 163d cbbe d83c 953f 6dbb 2e1c 30be
00000150: aaac 843d c80e d93d aaac 9d3d c431 183d
00000160: 6389 e6ba 3e1a 79bc 4686 ea3c e5ca ca3d
00000170: 53e7 06bd 6bc6 083e 352f a4bd 668d 4a3d
00000180: b9f3 1cbd a6b2 3dbc 7601 0bbe 7fac 7a3d
00000190: 6d80 93bc 330c a03d 12d9 36bd e3cf 83bd
000001a0: b4c1 863c 5a39 8dbd a0b2 2f3d d330 22be
000001b0: 98b0 813d 347b 7d3d aa66 86bd 06a8 b9bc
000001c0: dece 85bb 1ec3 24bd 0751 a6bc 57ff 323d
000001d0: 8d7e 363c 5a7c 8e3d 9203 a03d 1739 d53d
000001e0: 2e02 04bd e4f7 47be e686 873d e297 5d3d
000001f0: 2eb2 0b3c 9806 153d 02b7 ac3d dda4 f23c
00000200: 2a77 553d 75bc cabc fbef 203d 4a57 f8bc
00000210: 7634 f8bc 5e50 3ebd 7ad6 5b3d e5d7 71bd
00000220: 2ce2 1c3c 03bf a43c 5aed 01bd 5226 c4bd
00000230: ad40 babd b8dc 983d ad12 4f3d b0e3 bcbd
00000240: b1a0 13bd 9688 8a3d 5f76 803d fafc 213d
00000250: 47b2 8abd 7601 893d 19c4 5a3d c915 7b3d
00000260: be6c 9cbd 50e4 3dbd c5bf 15bd 798c d0bc
00000270: f603 5c3d 7069 953d 84d4 aabc 602f 5cbd
00000280: a20a c4bd cc9b 9b3d ed96 183d bfb4 4d3d
00000290: 59bd 2fbc 80ae 9f3d 6adc 723d 2ec8 43bd
000002a0: b69e 94bd 216b 97bd 8332 39ba fe3e 1e3c
000002b0: ce27 07bd 44c4 fcbc d9f9 573d 90f7 0ebd
000002c0: e24f 993d cc50 983d ccfa aebc f665 113d
000002d0: 876c d5bc 0175 48bc 7b21 ea3c 8a89 7cbd
000002e0: 29f2 1c3d 3f06 d3bd d284 1cbd 2b9b 4c3d
000002f0: a101 27bc 83fb 8f3d bd30 843c 8b5a 453d
00000300: 2617 92bc a345 ec3b 4e3e 683d d413 11bc
00000310: 7784 06bd 3298 f63c 28ec 20bd 84cc 673d
00000320: 039d 8ebb 31ae 94bd 653f b2bd f6f0 67bd
00000330: b2df e2bc 116c e5bc 5981 ef3b 3c36 e5bc
00000340: 191c afbd 1b1c 903c 69e9 0e3d 21de 89bd
00000350: 5821 64bb 2f94 0abd bfcb 75bd a224 e83b
00000360: 31ec 463b 05e0 fdbb 8345 683d 9df1 a4bd
00000370: e7a6 b03c 6a5f 8bbd 99fb 6a3d 0e0a 73bd
00000380: 4e20 a9bd 161a 03bd 6be0 8bbd 0358 3abd
00000390: 947c 943d a24a 643c a52b e7bc ae87 c4bd
000003a0: ac4f 193d d153 923c e7f9 debc 648b fa3b
000003b0: 0450 7e3d bb60 f5bc 2f97 0dbd 56e0 b0bc
000003c0: 4c3e 97bd befe c4bc 27bb 64bc da72 c6bc
000003d0: 1c34 61bb a145 81bd 95c7 9ebd 4db6 8bbc
000003e0: 4173 cebc 840c 77bd ad0e 90bc fb27 8abd
000003f0: 5b66 8ebd 5ccf 7bbd 089a 6b3d 78f8 d63c

critic_body.linear2.bias f4 [128]
0.13053079 0.045780938 0.10068143 0.0089362385 -0.08711356 -0.12674686 -0.023293024 -0.015181576
0.041299924 0.036307096 0.08316141 -0.053185843 -0.00016679743 0.043011803 0.061091945 -0.13816625
-0.10989438 0.0140183745 0.04285363 0.08183493 -0.011337938 0.09688872 -0.11499988 -0.00028823243
-0.09927668 -0.09684774 0.031705838 0.007476736 0.09388555 0.019524196 -0.10598771 0.039921727
0.022184823 0.12666939 0.013417509 0.024023857 0.0036563687 0.073664926 -0.0027095191 -0.027136268
0.07914894 -0.014752491 0.036258895 -0.019088998 0.04563457 -0.081883624 -0.0041733366 -0.06488256
-0.096234865 0.045733105 0.0031001037 -0.04955709 0.058188837 0.13113707 -0.058952097 -0.003661739
0.14943972 0.012278721 0.1573242 -0.13291211 -0.11294643 -0.049348462 0.069360964 0.04468234
0.04808112 -0.016725665 -0.111818954 0.04017213 -0.04708665 -0.012638961 0.026313739 0.09316126
0.056361258 -0.13178284 0.081612095 0.009963896 -0.08712063 0.15141055 -0.021931667 -0.06372577
-0.009863259 -0.017117733 -0.087054625 0.02894547 -0.012600076 0.15845658 -0.06597462 0.11586115
0.015756134 0.054714732 0.12597883 0.010349104 0.0054727006 0.05944213 0.120030046 0.071497686
-0.035721265 -0.057087112 -0.013695844 -0.104742244 0.04553903 -0.044338685 -0.04417114 0.04830562
0.04041819 -0.12544 -0.016576687 0.07620731 -0.017880172 -0.02311948 0.039422207 0.051141404
-0.0113193 0.061027616 0.104888335 -0.15505624 0.10218208 -0.03150516 -0.057475377 -0.09121977
-0.080562554 0.05718903 -0.053977042 0.011466359 -0.012763863 0.025399901 0.08729901 -0.08218771
00000000: dda9 053e cb84 3b3d 1132 ce3d 4d69 123c
00000010: 9868 b2bd eec9 01be 03d1 bebc 25bc 78bc
00000020: 1c2a 293d c0b6 143d 8850 aa3d 66d9 59bd
00000030: 58e6 2eb9 252d 303d 8c3b 7a3d 747b 0dbe
00000040: 4e10 e1bd 53ad 653c 4a87 2f3d 1299 a73d
00000050: c2c2 39bc 986d c63d 0f85 ebbd e71d 97b9
00000060: 9251 cbbd 1c58 c6bd fbdd 013d 68ff f43b
00000070: 1147 c03d 35f1 9f3c 1610 d9bd f784 233d
00000080: f2bc b53c 9fb5 013e 1dd5 5b3c aecd c43c
00000090: b09f 6f3b a3dd 963d 3092 31bb e14c debc
000000a0: d718 a23d 6fb4 71bc 3584 143d 8860 9cbc
000000b0: 51eb 3a3d 9ab2 a7bd 7cc0 88bb 26e1 84bd
000000c0: c916 c5bd a352 3b3d 1c2b 4b3b 60fc 4abd
000000d0: 6b57 6e3d cc48 063e c177 71bd c9f9 6fbb
000000e0: ba06 193e b02c 493c 9819 213e 1d1a 08be
000000f0: 7550 e7bd 9d21 4abd 1f0d 8e3d d404 373d
00000100: b5f0 443d 4304 89bc 5601 e5bd 888b 243d
00000110: eedd 40bd a513 4fbc e98f d73c 55cb be3d
00000120: 10db 663d 15f2 06be 3e24 a73d 9c3f 233c
00000130: 4d6c b2bd 5e0b 1b3e 0aaa b3bc a882 82bd
00000140: 8299 21bc 7d3a 8cbc b249 b2bd 0d1f ed3c
00000150: 8d70 4ebc 7142 223e b41d 87bd 9c48 ed3d
00000160: 0213 813c 8e1c 603d 9800 013e 4a8f 293c
00000170: 5754 b33b 9779 733d 50d2 f53d 616d 923d
00000180: 7650 12bd 2dd4 69bd 8964 60bc 1a83 d6bd
00000190: 2287 3a3d 7b9c 35bd ccec 34bd 1ddc 453d
000001a0: 8b8d 253d 5873 00be d5cb 87bc 9412 9c3d
000001b0: 7079 92bc 1065 bdbc 2e79 213d a679 513d
000001c0: 9674 39bc 18f8 793d b2cf d63d 10c7 1ebe
000001d0: d744 d13d 8e0b 01bd 4d6b 6bbd 6ed1 babd
000001e0: fbfd a4bd 0b3f 6a3d 0817 5dbd 65dd 3b3c
000001f0: 861f 51bc 7413 d03c d3c9 b23d 0852 a8bd

critic_body.linear3.weight f4 [1, 128]
0.05051491 0.011880221 0.076353006 -0.17141598 -0.1532339 -0.05567351 0.013444564 0.09439164
0.07639402 0.07455743 0.13886161 0.014509913 0.0424618 0.03321381 0.029390125 -0.044195373
-0.08939134 -0.07300173 0.05547165 0.047444675 -0.18138567 0.037333723 -0.09793674 0.03126851
-0.12252816 -0.044769406 0.077100836 -0.07337502 0.06951641 0.035086013 -0.116409205 0.17792672
-0.0355673 0.033128425 0.04896237 -0.02820933 -0.05630997 0.06670308 0.14812711 -0.044294517
0.16931123 -0.08827979 0.08067181 0.037224945 0.121713586 0.09726617 0.05619107 -0.042753473
-0.053938314 0.10108117 0.05008977 -0.03887544 0.022576287 0.07683822 -0.038541842 0.018301442
0.049669687 -0.071049266 0.09303378 -0.17203096 -0.076115586 -0.03381849 0.03395554 0.07532476
0.086496636 0.026181921 -0.05447608 0.06724833 -0.042888273 0.004814854 -0.15791711 0.057650942
0.123934396 -0.058398142 0.07130122 0.03388778 -0.094437286 0.09644735 0.110967204 -0.078219675
0.042281684 0.07172258 -0.19218095 -0.018060958 0.044132903 0.06213688 -0.1150601 0.092920855
0.020468697 0.028455041 0.050355878 0.070068456 -0.026043884 0.10268689 0.034085754 0.0376478
0.014783901 -0.018837744 0.14015491 -0.052440487 -0.012087429 -0.075094506 -0.063552864 0.16688159
0.08265299 -0.14092626 0.009157341 0.08344979 0.02043773 0.14087792 -0.07639259 0.048377205
0.035094127 0.043170422 0.054589007 -0.06771112 0.05996774 0.016964927 -0.04916117 -0.06810655
-0.04482046 0.06309628 -0.04530672 -0.14876048 -0.0486143 0.14424428 0.06397341 -0.15353148
00000000: b9e8 4e3d 42a5 423c f75e 9c3d ac87 2fbe
00000010: 59e9 1cbe e809 64bd 9746 5c3c 6750 c13d
00000020: 7874 9c3d 91b1 983d bd31 0e3e fcba 6d3c
00000030: 6dec 2d3d 340b 083d 8fc3 f03c 3506 35bd
00000040: cf12 b7bd ee81 95bd 3e36 633d 5955 423d
00000050: 2abd 39be 3feb 183d 0f93 c8bd 6913 003d
00000060: 0bf0 fabd 2060 37bd 0be7 9d3d a445 96bd
00000070: 9f5e 8e3d 5ab6 0f3d f367 eebd 6c32 363e
00000080: 04af 11bd acb1 073d c48c 483d 4117 e7bc
00000090: 48a5 66bd a09b 883d a2ae 173e 2b6e 35bd
000000a0: ec5f 2d3e 09cc b4bd 4337 a53d 2f79 183d
000000b0: f944 f93d 7c33 c73d 9b28 663d 441e 2fbd
000000c0: 6cee 5cbd a503 cf3d ee2a 4d3d da3b 1fbd
000000d0: e8f1 b83c 5b5d 9d3d 0dde 1dbd e8ec 953c
000000e0: 7172 4b3d 4782 91bd 7f88 be3d e228 30be
000000f0: 7de2 9bbd 4285 0abd f714 0b3d de43 9a3d
00000100: 2625 b13d 787b d63c 4f22 5fbd 7eb9 893d
00000110: 9dab 2fbd ecc5 9d3b 06b5 21be 6523 6c3d
00000120: 51d1 fd3d e432 6fbd 6006 923d eacd 0a3d
00000130: 5668 c1bd 3086 c53d c642 e33d a331 a0bd
00000140: 8f2f 2d3d 4ae3 923d 15cb 44be 93f4 93bc
00000150: b4c4 343d 3e83 7e3d a1a4 ebbd 4a4d be3d
00000160: f8ad a73c 8c1a e93c f741 4e3d 0d80 8f3d
00000170: fc59 d5bc 814d d23d 819d 0b3d 9434 1a3d
00000180: 2d38 723c 9d51 9abc c584 0f3e d6cb 56bd
00000190: 5a0a 46bc 26cb 99bd 0128 82bd 02e3 2a3e
000001a0: f945 a93d f94e 10be ac08 163c b9e7 aa3d
000001b0: 076d a73c 4d42 103e b873 9cbd 2d27 463d
000001c0: dcbe 0f3d 78d3 303d b998 5f3d 21ac 8abd
000001d0: bca0 753d 08fa 8a3c 395d 49bd 727b 8bbd
000001e0: a995 37bd 9f38 813d 8a93 39bd ab54 18be
000001f0: ca1f 47bd c6b4 133e 7e04 833d 5b37 1dbe
