reacher-ppo/models/ppo-max-hiddensize-64.pth (torch_old, 54162 bytes, 12 tensors)

std f4 [1, 4]
00000000: 538a 5e3f a5fc 4d3f d717 a23e 46f6 e43e
0.86929816 0.8046363 0.31658813 0.44719142

actor_body.linear1.weight f4 [64, 33]
00000000: ae2d b73d 95cd 04bc e0d4 90be 1050 33bd
00000010: e308 bf3d 85a9 0abd 885b aabc 4ec3 383e
00000020: 847c 8a3d 1a14 86bd bca0 41be 6bf6 f83d
00000030: 9696 11be 684e 43bd af30 19bc 6ba6 11bc
00000040: e367 43bc c1b7 28bd 1f95 90bd d61e 18be
00000050: 78f7 b7bd b687 033d 2989 27bd 5542 143e
00000060: 0722 76bd e8cd 173e 70e1 513c 7363 47be
00000070: 66a5 213e d228 1b3e 7772 113e 68dd 783d
00000080: d272 86bd 9833 80be d9bf 523c 2159 babc
00000090: 7870 c3bc 3492 ccbe 4562 30be fc31 b6bd
000000a0: 6603 3c3e e636 0b3e 87a3 ca3d 6a1c 02be
000000b0: b818 813d 3e31 113d cc11 2a3e 1d33 72be
000000c0: 8e2a 3f3d 78b0 b13d 104b 073e 7e6b a1bc
000000d0: 75c4 0fbe 13c9 b73d 1643 ebbc 0233 05bd
000000e0: 8944 453d 2faa 2dbe 9f18 0ebd df83 a03d
000000f0: eaa0 3dbe 1f8e 3a3d f862 cc3c 9da9 c2bd
00000100: 90ec f2bc d112 0c3a 2c34 59be f43c 6c3d
00000110: fd42 6ebd 9ccc c43d 3377 63bd 2bbe adbd
00000120: e94d 06be 793a 3cbd b007 18bd fa86 a23d
00000130: 5ec4 7ebd 076a 4b3d 518f 98bd 3576 9f3d
00000140: 97cd 0abe 3319 603e 4836 46bd efc4 22bd
00000150: 2a8b d5bd efc8 443c 4a9f 533d 8c79 383d
00000160: 30b1 c9bd 8783 ec3b d7a4 7f3d 3ed5 2f3e
00000170: e908 4abe c044 063d 7b32 08be c3df 07be
00000180: 31e0 143e e65a 60bd c2ad 5bbe 0661 0d3e
00000190: 6697 9f3d 4b8d 3abe 0090 aa3d 92cc 533d
000001a0: 978a 4d3d dd63 513c d02f 6fbe 57ff b73c
000001b0: 5772 81bd 8f02 2a3e 9a05 35be aa8a e0bd
000001c0: 5158 99bc 34a4 1fbe 8b20 1d3e d367 30bc
000001d0: 6786 a73d 229e 293e 7ace 4d3e 56c6 0bbe
000001e0: 24f9 e6bd 81bf 0cbe 5c38 a2bd 3253 edbd
000001f0: 0836 023e 88fc 17be c5fe c2bd 56cd b0bc
00000200: 7f5e 2dbe 9ad2 d33d f003 0c3e 5305 ebbd
00000210: b336 4cbe d051 fdbd 2cbc 71bd 357f 89bb
00000220: cd8d 50be 8c21 56be f75c 1abd 675d 1d3e
00000230: 4e8f 013e 6b88 d6bd 403c 31be 721b 163e
00000240: dbc3 5ebd 04d8 d63d 0d0b e5bc 3a7e a2bd
00000250: 27dd 2a3e b914 94bd 9934 b13b ad3a 2fbd
00000260: 2f51 6a3e f18b 313e 0726 b0bd 1fa8 dabc
00000270: ceb5 d9bd 89fb 55bd c377 1d3c 9c00 d0bd
00000280: ecc8 403d 08e7 583d 2e65 aabc 1036 1d3c
00000290: 30ed 563c 7155 3a3e 0d96 3abe b066 2f3e
000002a0: 6e23 023e 2c87 663c e4b1 073c a57c de3d
000002b0: b5e3 8cbd 815e 17be 0aef 683d ac91 f13b
000002c0: cab9 ba3d 58f0 19be 1bbd 873d 13d9 06be
000002d0: 8bb5 6cbe c9c1 413e e8e4 0fbe c6be c83d
000002e0: ffb3 16be 8f1a b33c 746e 9abd a1e7 333e
000002f0: 4db7 cb3d 3c50 ae3d 7c78 503e 7486 0abe
00000300: 5f68 a73d 6c3f 08bd 40b1 363d 4f4a 963c
00000310: 686f 80bc 4cf1 2a3c f10e 563e 393c e4bc
00000320: 4995 3ebe 210d f93c 72d5 f6bc 3e95 1d3e
00000330: 8b64 2abc 0aae aebd a164 bd3c 3c26 833e
00000340: 8669 b2bd 3494 63bd 32e2 62bc 07d6 1fbd
00000350: 7080 14be 9f37 9d3e 6470 193d a39f f33d
00000360: 3add 0c3d 619d 2ebd d46c 47be eb49 273e
00000370: 8c59 8b3d 64f9 1c3e dc4d 0f3e d025 423e
00000380: 47f0 883c 49ce 83be 6c16 35be e165 2fbe
00000390: fc66 033d 72ae 2e3e 990b 883e 9b99 983e
000003a0: 2ea6 43be 388b 033e f1ac 283e 965c a93e
000003b0: f06c 623e a877 8d3d e812 a03d d0b5 58be
000003c0: 627f 11be 9582 063e d433 1ebe e4f4 d6bc
000003d0: 1bb0 5cbe 6ba2 a43c a5de 6cbd f934 a83d
000003e0: 86dc 8abd c84a 71bd ab9a 873c db53 e4bd
000003f0: 7e9e 10be c5e6 ba3d a96f 68bd 1d71 6cbc
0.089442596 -0.008105655 -0.2828741 -0.043777525 0.09327867 -0.033853073 -0.020795599 0.18043253
0.06762031 -0.06546803 -0.18908972 0.121563755 -0.142176 -0.047682196 -0.009349986 -0.008889775
-0.011926624 -0.041190866 -0.070596926 -0.14855513 -0.08982748 0.032111846 -0.04090229 0.14478429
-0.060091045 0.14824641 0.012810096 -0.1947153 0.15785751 0.1515229 0.14203821 0.060758024
-0.06564869 -0.25039363 0.012863123 -0.022747578 -0.02385734 -0.39955294 -0.17224987 -0.088962525
0.18360671 0.13595161 0.098944716 -0.12706152 0.06303543 0.03544735 0.16608351 -0.2365231
0.046671443 0.08676237 0.13212228 -0.019704577 -0.14039786 0.08973899 -0.028718513 -0.032519348
0.048161063 -0.16959451 -0.03469145 0.078376524 -0.18518415 0.045545693 0.024949536 -0.095050074
-0.029653817 0.000534338 -0.21211308 0.057675317 -0.058169354 0.09609339 -0.0555336 -0.08483537
-0.13115658 -0.0459542 -0.037116706 0.07935901 -0.06219899 0.049661662 -0.074492104 0.07786218
-0.13554989 0.21884613 -0.04839161 -0.03973859 -0.10426934 0.012010797 0.05166558 0.04503779
-0.09848249 0.0072178277 0.062413063 0.17171189 -0.19729961 0.03278041 -0.13300507 -0.13268952
0.14538647 -0.054774188 -0.21453002 0.13806543 0.07792549 -0.18217961 0.08328247 0.051708765
0.050180998 0.012780157 -0.23358083 0.022460623 -0.06320637 0.16602539 -0.17677918 -0.10963948
-0.01871887 -0.15589982 0.15344445 -0.010766941 0.08179932 0.16564229 0.20098296 -0.13649878
-0.112779886 -0.13744928 -0.07920906 -0.11588134 0.12715924 -0.14842427 -0.0952125 -0.021582287
-0.16930579 0.103429034 0.13673377 -0.11475625 -0.19942741 -0.1236912 -0.059017345 -0.0041960725
-0.20366593 -0.20911235 -0.037686314 0.15367661 0.12652323 -0.104752384 -0.1730814 0.14658907
-0.054386 0.104904205 -0.027959371 -0.07934232 0.16685925 -0.07230515 0.0054078815 -0.042780567
0.22882532 0.1733854 -0.08601003 -0.026691495 -0.106303796 -0.052241836 0.009611073 -0.10156366
0.047066614 0.052954704 -0.0208002 0.009595409 0.013118073 0.18196656 -0.18221302 0.17129016
0.12708828 0.014070313 0.0082821585 0.10863618 -0.06879369 -0.14782144 0.05686859 0.007372102
0.09117468 -0.1503309 0.06627866 -0.13168745 -0.23116128 0.1892158 -0.14052165 0.09802012
-0.147171 0.02186325 -0.075405985 0.17568828 0.09947071 0.08511397 0.20358461 -0.13527852
0.08174204 -0.03326361 0.044602633 0.01834598 -0.015678123 0.010433506 0.20904137 -0.027860748
-0.18611635 0.030401768 -0.030131076 0.15388963 -0.010399948 -0.08529289 0.023119273 0.25615108
-0.08711533 -0.05556126 -0.0138478745 -0.03902247 -0.1450212 0.30706498 0.0374607 0.11895683
0.034390666 -0.042630557 -0.19475108 0.16336791 0.06804189 0.1532951 0.13994545 0.18959737
0.016716136 -0.2574332 -0.17684335 -0.17128707 0.032080635 0.17058733 0.26571348 0.29804692
-0.19106361 0.12846076 0.16472222 0.3307845 0.22111869 0.06907588 0.07816106 -0.21163106
-0.14208749 0.1313575 -0.15449458 -0.02623982 -0.21551554 0.020096978 -0.057829518 0.08213229
-0.06780343 -0.058909208 0.016553244 -0.11148807 -0.1412296 0.09126047 -0.056747112 -0.014431265

actor_body.linear1.bias f4 [64]
00000000: 459d f23d dcf3 c73a 50c5 a33d 73b9 013e
00000010: 6f06 583d 4736 843c 0e7d dabb 1f1c c03c
00000020: 7700 9cbb fbe4 13bc c3ff 8f3d 319e 833d
00000030: 9ff7 003e d162 dd3d 108c 2f3e abd8 843d
00000040: b243 ae3d 672c 0dbe d68f a03d 9c97 0cbe
00000050: c83c 49bd 0a53 a6bd 7f60 21bd d366 01be
00000060: 2fa7 a2bd 6be6 2cba 76a7 13be f94a bfbd
00000070: 9543 a7bb 4a02 72bd d98e 8f3d 4d4d d43c
00000080: b276 043e 77ac 4cbd dc6c 643e 6ec6 183d
00000090: b653 5fbd eb0a 113e 21e9 913b fa00 983c
000000a0: 4985 863e 2c67 c63d b69e 0aba 7200 0cbe
000000b0: f7c6 493e 4b6c 043d 7c73 24be 658d c63c
000000c0: 37ab a4bd 652e 8bbc 0dc7 173e 7bfc 533e
000000d0: 438c 043e 7db8 b4bd 9384 083a 2ef0 e53d
000000e0: 9f9d 3ebc 1a15 16bd c753 45bd 6260 2a3e
000000f0: 1627 d6bd 4d19 863d 9603 873d cd46 fabd
0.11846403 0.0015255171 0.07996619 0.126684 0.05274051 0.016139163 -0.0066677397 0.02345091
-0.0047607976 -0.009026761 0.070312046 0.06426657 0.1259446 0.10809863 0.17143273 0.06486639
0.085090056 -0.1378647 0.078399345 -0.1372971 -0.04913023 -0.08121307 -0.039398666 -0.1263688
-0.07942044 -0.0006595614 -0.1441935 -0.09340472 -0.005104492 -0.059084214 0.07009668 0.025915766
0.12935904 -0.049969163 0.22307152 0.037298612 -0.054523192 0.14164321 0.00445284 0.018555153
0.26273564 0.09687647 -0.0005287932 -0.13672045 0.19704805 0.03232984 -0.16059679 0.024237344
-0.08040469 -0.016989896 0.14822026 0.20701782 0.1294413 -0.08824251 0.00052077434 0.11227451
-0.0116342595 -0.036641218 -0.0481756 0.1663833 -0.10456674 0.065477945 0.06592481 -0.122205354

actor_body.linear2.weight f4 [64, 64]
00000000: d120 d13d eb78 3cbd ef92 253e 616b 303d
00000010: c321 dfbd c2f7 f2bd bb2d 97bd 3e1a 26bd
00000020: 797b a7bb 75db 1fbe e74e 6e3e 5413 7cbd
00000030: 17c1 fdba 3dd1 26bd ec2d 9cbc 1fc8 a5bd
00000040: 5ca6 833d a6c5 dbbd 510b 6a3d 8a61 32bd
00000050: e44d aa3d 5561 7b3d cef5 11be 4c13 183e
00000060: d044 75bb 7aec 40bd 967e 5b3d bd87 02be
00000070: 2957 13bc 175b 8b3b a6d1 a3bd ffe9 59be
00000080: b191 623d ef77 59bd b3d4 71bd 1b33 593e
00000090: 86ad 7cbe e4eb 133e 56ed c93d fb07 303e
000000a0: b460 1abe ff19 36bd a33a 0f3e 2c7e b93d
000000b0: 0b23 b1bc 5d88 913e afce ad3c 2312 7f3d
000000c0: 0e4b 4fbe fadf 5abc 9429 1cbe 0df8 d1bd
000000d0: 96bd 453d 3af8 c73d ca12 c03d 8d33 08bb
000000e0: c369 973e 8091 bc3d 9d5e 3fbe d08f 65be
000000f0: 7b48 92bd 602c 66bd a5a9 ce3c 0667 1dbe
00000100: ae0b cbbd 82d6 e8bd 3eed f6bc 982e 03be
00000110: cc1d bebc 25f2 ac3d e8aa 283d 4b72 4a3e
00000120: 7824 39bc cd84 783d 03be 4f3b 2552 a43c
00000130: 0b0c d2bd 638b 563e 3d61 0d3c 16f3 743d
00000140: 9eca 46bd c6bc 45b9 8a05 343e 459a 22bd
00000150: 16ce 603d 1ed8 79be 81a0 84bd 56e1 51bd
00000160: dae0 9bbc a171 3d3d 4bec db3d 134f 0dbe
00000170: 5d7d 16be 6a16 683e 9209 23bd d631 d83d
00000180: 5a0a fb3d 2490 cb3c fb8b 283d 6030 ae3d
00000190: a46a 533e 66d2 34bd 631a 6d3d 7a0c 0c3e
000001a0: b7f6 5f3e 1168 4bbe 574e 7dbd b618 8d3d
000001b0: 1756 a93d 4798 4ebe 0a7a 203d 7f55 9c3c
000001c0: 8fac 61bb 2aa6 68bd 6cf4 c7bd 99d1 bdbd
000001d0: 7c8e 203e 8e2f 1d3d fdb9 2cbd 3c88 873c
000001e0: eb72 38be 7265 dfbd f2b2 b93d ba03 9c3e
000001f0: d8db 0b3e 1f5b 2e3d fc8c 01be 299e 873b
00000200: 77bf 983d b493 e9bd 263a 21bd 5aa6 1cbe
00000210: f7ed 4dbe 8627 46bd 7722 d5bd 1db4 9d3e
00000220: 96ad 833c cedd 0bbc 7b8a 29be f77b 863d
00000230: 804d 2dbd 55d0 3b3e b0b5 dfbd 5dd6 fabd
00000240: ec3f c5bd fa8a 4dbd 5a8b c43c f180 7cbd
00000250: 54ac a2bd 7160 643d f83d b8bc 4a27 2d3e
00000260: 004a 45bd a1db eebd 7e37 9bbd d9a7 74be
00000270: aa0c e5bd 78dc 1bbd cf1a bfbd 1cb4 68bd
00000280: c277 c3bd c64a 8f3d e7dc 383e 8a8e 1b3e
00000290: 2378 ec3d 95d9 1dbd d64f 9abd 8504 453e
000002a0: e736 9a3e 15c0 723b 85f3 823c 9222 083e
000002b0: 9c46 813d 06a9 603c cad7 febd 0c79 b83d
000002c0: ad26 8dbd 10a1 de3d 600b 843c 8420 30bd
000002d0: 9f77 473e 2263 093d 9a44 9fbc 1d1c b63d
000002e0: 8659 7a3d 0350 8b3c d8db 833e 810d 6d3c
000002f0: a120 0e3e 775d deba 4b00 a0bd 3327 3aba
00000300: f488 843d d3ca 3bbe 8320 07be 8261 04bd
00000310: e687 e4bc c9ba 913d 8172 013e 6c0a 933e
00000320: f41f 65bd a009 4a3d aaa7 7c3d 5acf 8cbd
00000330: e6fd 69be decf 743e eb52 91bd a283 553d
00000340: 27d7 0cbe 06db 46bd 762f 773e c2c1 1c3d
00000350: 0a26 76bd 33f3 ef3b 00eb 12bd 84d5 81bd
00000360: 8555 893d 9328 a83d 7d08 24be 7314 fcbd
00000370: 3108 16be c4dc 953d a2c5 253e 1de2 563d
00000380: fb86 59bd 775f 0bbe 66f1 0e3e b1f9 343e
00000390: ff9c 8a3e 6ff6 20be a8f0 68bd 739c 583e
000003a0: 0b8b 763e 7747 fbbc 12e9 ffbd c6bf 5d3b
000003b0: a95a 6a3d 0736 aa3d 72ba 913d 092d ab3e
000003c0: 19bf 0cbe 655d a53c 2dbc 033e b8df d33c
000003d0: 57d5 403e 871d b83c b95b 08bd 6870 1b3e
000003e0: 0eec d2bd 66af 39bd ab5a 563e 5351 953d
000003f0: 68ea c5bc 0e6b 013e 99f5 16be 01f3 e9bb
0.10211337 -0.046013754 0.16169332 0.043071155 -0.108951114 -0.11863662 -0.07381769 -0.04055237
-0.0051111546 -0.1561106 0.23272286 -0.06154187 -0.0019359913 -0.04072689 -0.019064866 -0.08094811
0.06428215 -0.10731058 0.0571397 -0.04355005 0.08315638 0.06137212 -0.14253923 0.14851111
-0.0037425049 -0.04710052 0.05358752 -0.12747093 -0.008992949 0.004252802 -0.07998972 -0.21280669
0.055314723 -0.053092893 -0.059040736 0.21210901 -0.24675569 0.14445454 0.09859721 0.17190544
-0.15075952 -0.044458386 0.13987212 0.090572685 -0.021623155 0.2842435 0.021216718 0.062273156
-0.20243475 -0.013359064 -0.15250236 -0.1025239 0.048276506 0.09764142 0.09378584 -0.002078268
0.29572877 0.092074394 -0.18688436 -0.22418141 -0.07142731 -0.056194663 0.025227377 -0.15371332
-0.09914337 -0.11369039 -0.030142423 -0.12810743 -0.023207568 0.08444623 0.041178614 0.19770162
-0.011300199 0.060673524 0.003169895 0.0200587 -0.10256203 0.2095161 0.00862914 0.059802137
-0.048533075 -0.00018857708 0.17580238 -0.039697904 0.05488404 -0.24398848 -0.06475926 -0.051240288
-0.019028116 0.046250943 0.10738429 -0.13799696 -0.1469626 0.226648 -0.03980405 0.105563805
0.12257834 0.024849005 0.04114912 0.085053205 0.20646149 -0.044145964 0.057886492 0.13676634
0.21871458 -0.19863917 -0.06184229 0.06889479 0.082683735 -0.20175277 0.039178886 0.019083736
-0.0034435128 -0.05679909 -0.09763417 -0.09268493 0.15679353 0.03837543 -0.04216956 0.016544454
-0.18012588 -0.10908021 0.09067334 0.30471593 0.13658082 0.04256737 -0.12651438 0.004138727
0.07458394 -0.11405125 -0.039362095 -0.15297833 -0.20110308 -0.048377536 -0.10406964 0.30801478
0.016073983 -0.008536769 -0.16556732 0.06566613 -0.042310238 0.18341191 -0.10923326 -0.12247918
-0.09631333 -0.050181367 0.02399223 -0.061646406 -0.07943025 0.055756036 -0.022490487 0.16909519
-0.048166275 -0.11662985 -0.07578944 -0.23892154 -0.11184056 -0.038052052 -0.09331285 -0.05681239
-0.09544326 0.06996684 0.18053018 0.15191093 0.11546352 -0.03853758 -0.07534759 0.19240005
0.30120012 0.003704076 0.01598526 0.13294438 0.06312296 0.013712173 -0.12443502 0.09007463
-0.068921424 0.10870564 0.016118705 -0.04299976 0.19479226 0.033541806 -0.019441891 0.08892081
0.061120532 0.017005926 0.25753665 0.014468552 0.13879634 -0.001696511 -0.07812556 -0.0007101178
0.06471434 -0.1833909 -0.13195996 -0.032319553 -0.027896833 0.071157046 0.12641336 0.2871889
-0.055938676 0.049325585 0.061683334 -0.06875487 -0.22850761 0.2390742 -0.070958935 0.052127488
-0.13753949 -0.04854872 0.24139199 0.03827072 -0.06009487 0.007322693 -0.035868645 -0.06339553
0.06705765 0.08210864 -0.16018863 -0.12308588 -0.14651562 0.07317498 0.16188672 0.052461732
-0.053107243 -0.13610636 0.13959274 0.17673375 0.27072904 -0.15719007 -0.056870133 0.2115343
0.24076478 -0.030673726 -0.124956265 0.003383623 0.057215367 0.08311086 0.0711564 0.33432797
-0.13744773 0.020186136 0.12864752 0.025863513 0.18831383 0.022475017 -0.0332906 0.15179598
-0.1029893 -0.04533329 0.20933025 0.07290902 -0.024159625 0.12638494 -0.14742126 -0.007139564

actor_body.linear2.bias f4 [64]
00000000: dfe7 523d f60d bf3d d748 fd3d 466b 39bd
00000010: d064 babc ea44 5cbd 24e3 0b3e 502e dbbc
00000020: 1eb9 e9bc 6dc5 e23c 1708 febd e756 c3bc
00000030: d975 9a3d 9f5c 293e 95e0 053e 6f56 0f3e
00000040: c7d2 f2bc d45b 32bd 58fb 9ebd e2ff b53d
00000050: e531 003e 7ae0 ab3d 1ce2 bcbc f801 b7bc
00000060: 4942 72bd 3d8d 4bbd 9aad 423d c766 133e
00000070: 9f99 9b3d cf91 7d3d c76d 263e 6461 fb3d
00000080: d38a 143e 5e08 a73d c76d 203b 3ef2 fc39
00000090: 1e73 803d d3b2 603d 5767 db3d 6764 9b3c
000000a0: 7c0b bfbd 30a3 073c f0f8 13bd 4733 d9bb
000000b0: 2589 ad3c 58ff 12bd 79a5 103e 70a0 a3bd
000000c0: e916 1e3c 8f45 cc3d 50c1 a03d f8b9 61bc
000000d0: 68e5 313d 26b2 8a3d 6e8f 5cbb c68b 023e
000000e0: c428 bb3d 2f50 97bd 38df 893d b6d2 0ebd
000000f0: 1708 2e3e 518d 993d 165c 523d 4ca9 92ba
0.05149066 0.09328835 0.12367409 -0.04526832 -0.02275315 -0.05377666 0.13660866 -0.026755482
-0.028530654 0.02768203 -0.12403887 -0.02384515 0.07542009 0.16539238 0.13073952 0.13997816
-0.029641522 -0.043544605 -0.07762784 0.088866964 0.12519033 0.08392425 -0.023057036 -0.022339806
-0.059145246 -0.049695242 0.04752884 0.14394675 0.0759766 0.061906632 0.16252814 0.12274435
0.14506082 0.08155893 0.0024479495 0.0004824567 0.06271957 0.05485804 0.1071307 0.018968774
-0.09328362 0.008278653 -0.036126077 -0.006628427 0.02118356 -0.035888046 0.14125623 -0.079895854
0.009649017 0.09974205 0.078493714 -0.013777249 0.04343167 0.0677226 -0.0033654827 0.12748632
0.09138635 -0.07388341 0.06732029 -0.03486892 0.16995274 0.07497657 0.05135735 -0.001118937

actor_body.linear3.weight f4 [4, 64]
00000000: 1a77 4d3e d9e3 16bd fd84 f0bd 0fa4 153c
00000010: f43c 9a3e b33e 4ebd 01a6 633e 9e88 16bd
00000020: e124 26be fbfa 41be ba92 adbd 4519 d23c
00000030: ea96 473d 6775 3dbd e2a8 35bd c902 573d
00000040: 80d2 bcbd f88d ae3d e5fd 25be fed3 033e
00000050: 1397 6dbe dbb4 e13d acb0 29be 5628 8b3c
00000060: 6419 3abd c709 503d 6e47 083e 6116 6ebd
00000070: 52d0 19bd c015 17be 9dea 543e ba4d 2f3e
00000080: cdb2 763d c807 cdbd e745 bf3c 32d9 90bd
00000090: c123 50be d5e1 14be efe7 a2bd f1e8 5b3b
000000a0: 3562 333e 6b7d 2d3e e42f 71be 4093 8f3e
000000b0: 426d 023e 7625 b93d 7bf0 c3bc 1837 9d3d
000000c0: 675f 49bd 256d 81be 1e1f da3d d7af 143d
000000d0: 539c 8abd 9552 1f3e 3bfc 98bd ec9a 103e
000000e0: aee0 e0bd 1792 1dbe 49d9 5a3e 95e0 383d
000000f0: 9147 bc3c 44b5 45be ea35 083e 7b0d e0bd
00000100: bf1c 7cbd 4c52 5a3e f565 fe3d 373c 343e
00000110: 6c8f 01bd 1a65 14be e9ab 043d 58d3 b6be
00000120: 84a4 26bd 67dd 743d 796b 11be aa26 573e
00000130: 04c3 ecbd 9c79 64be 4de0 7dbe e952 1dbe
00000140: 8544 053e 6020 703e b500 2b3b 1082 7a3d
00000150: 017f 40bb fb5f 3bbd e8a6 ccbd f0aa 703e
00000160: a897 0e3e 6a3c 653b f443 3cbe 3fc1 043d
00000170: 74ef 8f3d eedb 4f3e ee25 f1bc 28b5 e23d
00000180: be70 b7bd b53f 69be 34c1 2cbd 8d79 c93d
00000190: 1d63 2dbe ec57 873d 67d3 ab3d d750 373e
000001a0: b785 143e e90a 033e 0985 4fbd 00ec 50be
000001b0: f434 03bd 07af 393e 38ea 453d 8b9b 49bd
000001c0: bc12 ca3b 2452 6a3b e663 aebc 516d 0abe
000001d0: 305b 7c3c 96dd d4bd 213a e0bc 8e36 943d
000001e0: 7d7e a93d 4a97 1ebd 0e7a 8ebd 5cba 23be
000001f0: 613c c2bd 805e 123c b0de 43be cfe9 953d
00000200: 63ea 84be dcb3 3b3e ecc1 eb3c f766 8338
00000210: 340e 843d 2e9e 33be ecef f2bd b3a6 e43d
00000220: e049 c2bd 94fd da3c df33 97be 91ae 843e
00000230: 9e5d 763e 51fb f7bd ef88 793e faef e9bd
00000240: bdfe 83bd c6bf c43d 9049 08bc 871f 57be
00000250: 6f90 263e c4d0 ff3d 8268 02bd 6d1b e0bd
00000260: f1c7 0f3e e3c2 96be 1fc9 fd3d 0a92 1dbe
00000270: 94d1 473e 1951 a5bc a703 48be 1182 aabd
00000280: e5ed 90be 29d0 74be 95ad 6d3d 35ee 88bc
00000290: 6a64 0d3e 261a 7e3e 8f5b 21be fe47 04be
000002a0: 1214 753c 845d 35ba b9cf 413d b890 f13c
000002b0: 539b 173d 3ab0 be3d 7aec 9a3e 16e3 11be
000002c0: b408 6e3e 6446 443e d9e0 9f3c 81e4 8dbe
000002d0: 2037 64be 5f17 21be 8d79 803e b02b 9cbe
000002e0: 3bda 17be 79bd 863e 909e ae3e 77f9 14be
000002f0: ab18 f0bc 2f4f 16bd 2317 4bbe 32fc 53be
00000300: 0c08 723e 06fa 83be b129 cdbe 030e f3be
00000310: b3d8 c63c 9049 203e 60c9 82bb da56 11be
00000320: 6427 87be 8495 523e 83eb b83d 2952 343e
00000330: 6460 30bd 7ae4 d7bd da6e 0c3e 3b51 233d
00000340: ba15 a33d c860 e03d 0d36 a03e 0d42 bb3c
00000350: f809 3e3d 6690 1fbe 08e2 fc3d 3936 22be
00000360: 75f3 b5be 5904 8dbe 520b 0ebe 99b9 723e
00000370: 1998 d33e 3c2c 023d c12f 423d 3184 0b3e
00000380: a51e 13be 8886 f3bd a589 e33c 2f08 3a3e
00000390: 4ff5 163e 893a 8f3d 8439 1dbe 7022 9dbe
000003a0: bb6d 193e 3d93 a7bd 6e73 92bd 1fd1 273e
000003b0: aabc dc39 7ff6 f5bd 126d 6c3e ede9 94be
000003c0: 5eb3 183c 5748 10bd dcec 28be 63da a33d
000003d0: 046c 3ebe 4c96 653d abcf 5abd 8add 813d
000003e0: a96e 03be 4a14 5a3e e5eb 8f3d 66c2 ddbd
000003f0: ff64 f33e 87e1 073e 421c eabd ff3e 8dbd
0.20064965 -0.036838386 -0.117441155 0.009133353 0.3012463 -0.050352763 0.22231294 -0.036751382
-0.16225006 -0.18943398 -0.084752515 0.025646815 0.048727907 -0.04625454 -0.044350512 0.05249289
-0.09219837 0.08523172 -0.16210134 0.12873837 -0.23202161 0.110208236 -0.16571301 0.016987007
-0.04543437 0.050790574 0.13308498 -0.05812681 -0.037552185 -0.1475439 0.20792623 0.17119494
0.06022911 -0.1001125 0.023348762 -0.07072677 -0.20326139 -0.14539273 -0.07954394 0.0033555592
0.17517932 0.16942374 -0.23553425 0.2804203 0.12736991 0.09040348 -0.023918381 0.07676524
-0.04916325 -0.25278583 0.106504664 0.036300506 -0.06768098 0.15558846 -0.07469984 0.14121598
-0.10980354 -0.1538776 0.2137195 0.045136053 0.022983344 -0.19307429 0.13301817 -0.10940071
-0.061550852 0.21320456 0.124217905 0.17601095 -0.03163092 -0.14491692 0.03239051 -0.35708117
-0.040684238 0.05978146 -0.14201154 0.21010843 -0.11560634 -0.22312015 -0.24792595 -0.15363659
0.1301442 0.2344985 0.002609295 0.061159194 -0.0029372575 -0.04574583 -0.09992772 0.23502707
0.1392504 0.0034978637 -0.18385297 0.032410856 0.07028094 0.2029874 -0.029437032 0.11069709
-0.08957051 -0.22778209 -0.04217644 0.09837637 -0.1693234 0.06608567 0.08389931 0.17901932
0.14504133 0.1279713 -0.05066398 -0.20402527 -0.032032922 0.18133174 0.04831907 -0.049220603
0.006166784 0.0035754526 -0.02128787 -0.13518263 0.0154026 -0.10393827 -0.027371468 0.07236968
0.08276079 -0.0387185 -0.06956874 -0.15989059 -0.094841726 0.008933663 -0.19127917 0.07319986
-0.25960073 0.1833033 0.028778993 6.2657455e-05 0.064480215 -0.1754081 -0.11862168 0.11164608
-0.09486747 0.026732244 -0.29531762 0.25914434 0.2405915 -0.12108482 0.24368642 -0.11422725
-0.06445072 0.096068904 -0.00831832 -0.2100812 0.16266035 0.12490991 -0.031837948 -0.10942731
0.14041115 -0.29445562 0.123918764 -0.1538774 0.19513541 -0.020180272 -0.19532643 -0.083255894
-0.283065 -0.23907532 0.05802687 -0.016715148 0.13807836 0.24814662 -0.15757583 -0.12918088
0.014958398 -0.0006918537 0.04731724 0.029487953 0.037013363 0.09310956 0.30258542 -0.14246783
0.23245507 0.19167477 0.019516395 -0.27713397 -0.22286654 -0.15731572 0.25092736 -0.3050208
-0.14829342 0.2631643 0.3410535 -0.14548288 -0.029308638 -0.03669661 -0.19833045 -0.20701674
0.23635882 -0.2577669 -0.4007087 -0.47471628 0.024273252 0.15653062 -0.003991291 -0.14193287
-0.2639724 0.20564848 0.09029295 0.17609467 -0.043060675 -0.10541625 0.13714162 0.03987239
0.079631284 0.109559596 0.31291237 0.022858644 0.046396226 -0.15582427 0.123477995 -0.15840997
-0.35537305 -0.2754238 -0.13871506 0.23703612 0.4132698 0.031780466 0.047408823 0.13624646
-0.14367159 -0.11890894 0.027775595 0.18167184 0.14742015 0.069935866 -0.15353972 -0.30690336
0.14983265 -0.0818238 -0.07150923 0.16388367 0.00042102236 -0.12009906 0.23088482 -0.2908472
0.009320108 -0.03522524 -0.16496605 0.08000638 -0.18595892 0.056051537 -0.053420704 0.06341083
-0.12835182 0.21296802 0.07027415 -0.10828094 0.4753799 0.13269626 -0.11431171 -0.06896781

actor_body.linear3.bias f4 [4]
00000000: f2c2 b83d 3515 a23d 70aa 9dbd 4e9e 1b3d
0.09021558 0.07914201 -0.07698524 0.037992768

critic_body.linear1.weight f4 [64, 33]
00000000: 8d43 27be 27b8 0ebe 1ce6 243e 6f8d c13d
00000010: 2016 ffbd 7198 203e deee e1bd 6e45 6f3d
00000020: f620 58bc 125c 58be 908a 8e3d 8364 bdbc
00000030: ca11 903c b2b0 0d3e 3375 953d dd38 82be
00000040: 9c17 50bd 5410 923d e82f ebba dfd8 ff3c
00000050: 6c5c 0dbd 14af 6a3d e895 91bd b5c2 5f3d
00000060: 7b64 efbb a9b0 cd3c 2460 4abe 80d2 64be
00000070: 7ede a83d 6066 8dbc a103 3a3e 00f8 21bb
00000080: 113b 003f cf13 e83d 372c 893d 1b59 e9bc
00000090: 0cf1 a3bd 266f 9a3d 527e 87bd 0f79 373e
000000a0: f657 03be 4627 5a3e 1057 bcbc 2377 133d
000000b0: 98a9 953d 15e8 92bd 06b6 1bbe e246 013d
000000c0: 2fb3 13bd f55c 543c 7976 aa3d 4f60 c2bd
000000d0: c820 303d 45ee 543d 0426 9bbd d654 aa3c
000000e0: 6726 c93c 6a35 73bd ca96 793d 64cc 073d
000000f0: 188f d73d f424 743e aa6d 183e e36f 81bd
00000100: 8e5d 1e3e 56a3 0fbe 5b9d 113d 2762 35be
00000110: 37de 5d3e bfce 963d 5655 67bd 826e 5cbd
00000120: 83c6 fb3d 9492 f43c 8949 52be 0daf 3b3e
00000130: 1be3 72bd 92c2 9fbd 61b4 b8bc 137d 4a3d
00000140: cc3f d13d 321b 2fbe 3d41 99bc bb8b d93c
00000150: 90ea b4bd 906b 12bc f6eb 843c 5b63 a0bd
00000160: 3de9 00bc 52ef 033c cfe2 2b3d c990 a9bd
00000170: ae6a 31be b733 adbd 1d69 df3d 086c 8ebd
00000180: a7d7 bf3c 5cf6 603d d154 123f 0ab8 063e
00000190: 5cf0 3dbe 78c6 1c3e 3ddc e5bd 84c1 643e
000001a0: 55e9 283e c2da f7bc b94c 1a3e 7fc9 6dbd
000001b0: 47f5 e2bb 0317 d3bb 248f a03c df74 213c
000001c0: 53e9 06be 87ca ab3c c0e4 d8bd a366 db3d
000001d0: 151c 163d 52b6 cbbc 1e85 393b 2c47 0cbc
000001e0: 943f 59bc 6f15 053d 7c11 993c 5f7a c8bd
000001f0: b15a 8e3c faed 03be 25f6 593d 5fe7 a0bd
00000200: 6cdd 44bd c13e 163e 5a16 2a3e 0327 9cbe
00000210: f748 2b3e 31a9 4c3e 6d98 ba3d 75d2 013e
00000220: e337 313e ee97 25bd d354 933d 537c 863d
00000230: 0f13 9abd 070f 4a3d 9400 5f3c 93f7 833d
00000240: 74d9 5b3c 784d 2dbe 2b83 05be 2c72 10be
00000250: cb02 933d 8036 e3bd 83eb f53d fa39 95bd
00000260: fa4c 1dbd cb23 193c ea33 433c c1c9 e5bd
00000270: f33f 90bc 4bd3 68bd fc2f 003d e9de 053d
00000280: 1b2a 763e 54e2 b6bd f57f a13d f939 c4bd
00000290: f0f5 dd3e 1d2c 56bc cb7e 84bc 81d4 d63d
000002a0: 0003 d43d 599b 9a3d 271c 82bc 8193 353e
000002b0: 1782 41bd 9707 e23d 5cf3 ddbc 2456 1a3b
000002c0: aa30 b4bd 8581 0739 5cae 1b3e 6838 253e
000002d0: 83c7 2c3d 87e3 c4bd 0106 843d ce20 29bd
000002e0: 9785 acbd f4d6 e03b dc08 863d 01e9 5dbd
000002f0: c06a 503d aa95 933c 7d27 49bd 0c4a 323e
00000300: cf33 f7bd cb1c 373e a5fb 95bd 149c c7bc
00000310: ccfb df3d 7a85 00be bd7e a4bd 3071 3fbd
00000320: 7e2a 94be c23c 72bd 82e3 0cbe 6391 c23d
00000330: 1cbb 59bd ccae a73c 80ea 80bd 30aa ab3c
00000340: 32e1 0cbc caaa 8c3c 597e 243d eee5 fa3d
00000350: 9af2 d93c 3bfe f63d 78c2 3ebd fbe6 33bc
00000360: c2a9 e73c 4e04 823d 490b 9dbc 170d 16bd
00000370: 961f 1c3a 80bf 943c 19bc 21bc 98ef 143d
00000380: 03f4 07be fc58 abbd 23e3 b33c 5a4a 883d
00000390: 31a2 72bd 2cfc ff3d d2c2 7bbf 611b 8e3d
000003a0: c785 ee3b 10ea 96bc c9f4 a53d e8aa 94bb
000003b0: be9f cdbd d698 22be df45 7dbd 98b6 ccbd
000003c0: a1be 0c3e 4b5b 0bbd 0242 f4bb 4929 9abc
000003d0: 9c6a de3d e5dc 393d 52b1 0cbe 5dd6 843c
000003e0: 8cb0 79bd 9d99 0e3d 2b6e e53d 700e 0fbc
000003f0: 1257 383d 9c47 3e3d a3a0 133c 7c14 e1bc
-0.16334362 -0.13937436 0.16103405 0.094508044 -0.12455392 0.15683152 -0.110318884 0.058415823
-0.013191452 -0.21128872 0.069600224 -0.023119217 0.017586607 0.13836935 0.072977446 -0.25434008
-0.050803766 0.071320206 -0.0017943354 0.031231342 -0.03451197 0.057295874 -0.071086705 0.054629046
-0.0073056794 0.025108652 -0.19763237 -0.22345924 0.08245562 -0.01726073 0.18165447 -0.002471447
0.5009013 0.11331903 0.066978864 -0.028484872 -0.080049604 0.07540731 -0.066158906 0.17917274
-0.12826523 0.21304044 -0.022990733 0.03600229 0.07307738 -0.071731724 -0.15206155 0.03156174
-0.036059555 0.012961616 0.08323378 -0.09491026 0.043000013 0.051985044 -0.0757561 0.020792406
0.024554444 -0.05937711 0.06093482 0.033153906 0.1052534 0.23842221 0.14885584 -0.06320169
0.15465376 -0.14027151 0.035550456 -0.17713223 0.216668 0.073636524 -0.056477867 -0.053816326
0.122937225 0.02985505 -0.20535864 0.18328495 -0.059298616 -0.07800783 -0.022546949 0.049435686
0.102172464 -0.17100218 -0.018707866 0.026555886 -0.08833802 -0.008936778 0.016225796 -0.078314506
-0.007868108 0.008052664 0.04196435 -0.08279569 -0.17325851 -0.084571294 0.10908721 -0.06954199
0.02341826 0.054922447 0.5716067 0.13156143 -0.18548721 0.15310085 -0.11223648 0.22339445
0.16495259 -0.030255679 0.1506833 -0.05805349 -0.006926212 -0.006441952 0.019599505 0.009854524
-0.13174944 0.020970596 -0.105905056 0.10712936 0.036647875 -0.02486721 0.0028308104 -0.008561891
-0.013259787 0.032491144 0.018685095 -0.097889654 0.01737723 -0.1288375 0.053213257 -0.078566305
-0.048062727 0.14672376 0.16610089 -0.30498514 0.16727053 0.19986416 0.09111104 0.12677939
0.17306475 -0.040428095 0.07193913 0.06566682 -0.075231664 0.049330737 0.013610978 0.064437054
0.013418544 -0.16924083 -0.13038318 -0.14106053 0.07178267 -0.110943794 0.12007811 -0.07286449
-0.03840349 0.009346913 0.011914233 -0.11220122 -0.017608618 -0.05684213 0.03129576 0.032683287
0.240395 -0.089298874 0.07885734 -0.0958137 0.43351698 -0.013072041 -0.01617374 0.10489751
0.10352135 0.075491615 -0.015882565 0.1773205 -0.047243204 0.11036604 -0.027093582 0.002354988
-0.087983444 0.00012922853 0.15203232 0.16134799 0.042182457 -0.0961371 0.06446458 -0.04129105
-0.08423918 0.006861562 0.065446585 -0.054177288 0.050883055 0.018015701 -0.049109925 0.17411059
-0.120704286 0.17882077 -0.07323388 -0.024366416 0.10936698 -0.12550917 -0.08031986 -0.046738803
-0.2893867 -0.059139974 -0.13758662 0.095003866 -0.053156957 0.020469092 -0.06294727 0.020955175
-0.008598613 0.017171282 0.040159557 0.12250887 0.02660494 0.12060209 -0.04657218 -0.010980363
0.028279189 0.06348477 -0.01917042 -0.036633577 0.00059556344 0.01815772 -0.009871506 0.036361307
-0.13276677 -0.08366582 0.021958893 0.066548064 -0.05923671 0.1249927 -0.9834415 0.06938816
0.007279131 -0.018422157 0.0810333 -0.004536975 -0.10040234 -0.15878615 -0.061834212 -0.099957645
0.13744594 -0.03402261 -0.007454158 -0.018818514 0.10860178 0.045376677 -0.13739517 0.016215498
-0.060959384 0.034814466 0.112026535 -0.0087314695 0.04500491 0.04645501 0.009010467 -0.027475588

critic_body.linear1.bias f4 [64]
00000000: 4085 1c3d 2b90 d43d 5138 053e 1371 553e
00000010: 2bb1 eb3d fed4 493d 96d7 223e 8700 593d
00000020: 2db4 b03d 8836 03be bca2 86bd e6ad 533e
00000030: 2f97 873c d44e b5bd c1be ba3d 0301 67be
00000040: bd65 cfbb a68d 2f3e 8455 4dbe c1b7 81bd
00000050: 8c08 77bc 85f5 57bd d813 9d3d 9ae2 5fbd
00000060: c074 80bd 6ee6 a13d 81e6 833d b827 403e
00000070: 0c03 32bd 416e 37be f349 0d3e ad44 0fbe
00000080: 01d7 2e3e ba23 0dbd c456 c2bd 42da 493d
00000090: e6c1 e9bd a600 463d 1fcc bd3d 3b49 263d
000000a0: 34eb 10bd 3985 14be d041 ad3d d1e9 5abe
000000b0: ad3c c03d f7e5 3d3e 96cb 843c 98ac 263e
000000c0: d09e ed3c de1b 9f3c 2271 9a3d 380f 423b
000000d0: c867 a7bd 598c 453e c4bd b13d f1d9 fa3b
000000e0: 3940 51be b017 26be c476 123e d497 513e
000000f0: a7f3 c53c a401 933d cc68 df3d 815f f43d
0.038213015 0.1037906 0.13009764 0.20843916 0.115084015 0.04927539 0.15902552 0.05297902
0.08628116 -0.12813771 -0.06574008 0.20671806 0.016551582 -0.08852926 0.09118415 -0.2255898
-0.006329267 0.17143878 -0.20052153 -0.063338764 -0.015077721 -0.05272438 0.076698005 -0.054659463
-0.06272268 0.07905279 0.064404495 0.18765152 -0.043459937 -0.17913152 0.1379774 -0.13991041
0.17074205 -0.0344579 -0.094892055 0.049280412 -0.11413936 0.048340462 0.09267449 0.04059718
-0.035380557 -0.14503945 0.08459818 -0.21378256 0.09386573 0.18544756 0.016210359 0.16276777
0.029006392 0.019422468 0.075411096 0.0029611122 -0.081740916 0.1929182 0.08678773 0.007655375
-0.20434655 -0.16219974 0.14303118 0.20468074 0.024164034 0.07178047 0.1090866 0.119322784

critic_body.linear2.weight f4 [64, 64]
00000000: 4d4e 283e 2258 11bd 8fcc 033d 276d 163e
00000010: 616c 663d 6b42 0c3e c8d2 203e ed68 93bc
00000020: 04da 2ebe 0336 ba3d de22 59bd 12ec febd
00000030: b2a3 303e edf4 bd3d 8569 88bd aa88 65bd
00000040: 277f f2bc dad6 b33d c8e5 d93d c694 d03d
00000050: 5fc9 8f3b e499 c0bd 40b1 e1bd b9b1 d3bd
00000060: 23fa 883c 8c5f 43bd e531 8bbd 758c a93d
00000070: eba7 153e 595b ae3c 4b3f 033e 4c95 f43d
00000080: e7b3 3a3d 3dc6 58bd 9dcb e6bd 8d77 073e
00000090: df60 fcbc b905 953c c79f 36bd e5cc 213d
000000a0: 9d96 dfbb 6718 98bc 35eb 2bbd 946f febd
000000b0: 6685 abbd 15b7 593c 81bb df3c 0589 3d3d
000000c0: 6dea 5abd 0373 33bd a4c0 e53d 1ccf 573d
000000d0: b4cd 79bd aa2b 853d 55b1 ad3d b50f f83c
000000e0: dceb de3a db32 fbba a162 ed3d 0ffd 4d3d
000000f0: 5e7d 04be a44c 9fbd b3d4 193e 152e bcbd
00000100: d772 9c3d 57fe 2139 4cfa 2a3d 7712 19be
00000110: 012e 193e ef78 163d 2375 aebb 29ac c03d
00000120: 63c5 23bd 68c5 2b3e 91ca 55be d817 adbd
00000130: c88a edbd a286 243e 16bb 54bd 5128 1fbd
00000140: 5253 b9bd 7685 0dbb e9ce 85bd 2580 393d
00000150: b3fa 9cbd 1562 fe3c 1ec0 e53c 1593 11be
00000160: dcef f93d fbb2 eb3c 41f4 22bc 9d77 483c
00000170: e932 81bc 4604 49bc d4cf c4bd 1c50 1d3b
00000180: 0374 773b 58b8 bb3d df45 adbd 87be 85bd
00000190: 2525 1e3e bb81 883d 476d 553d 049c da3c
000001a0: 594b fe3a 45f4 ce3d e575 c13c c65f f7bd
000001b0: 2696 4a3c 5499 2a3d 2fa2 9bbc e5ab 1dbe
000001c0: 7366 8dbd 7dfd 413d 6e86 823b 7e93 b13d
000001d0: 46ca 4dbd ce9e 443d 61df d5bd c9c7 7d3c
000001e0: aa9e 0a3e 5d54 f03d dea2 b9bc 42f1 613d
000001f0: b16c 0dbe dedf 9dbc 003c 2f3e 070a ffbd
00000200: 9a20 8ebd 0c12 36be b91b 32bd 2eff 123c
00000210: 1e44 25be fad5 7b3d 5440 fe3d 56e1 b4bd
00000220: feb3 3dbc 11e1 753c 0e0a 5fbd bf5a 3a3e
00000230: 1ad4 47bd 0858 0f3c 5d4a c5bd d2e8 6ebd
00000240: cb3f 093e 65db 823c 5c33 e9bd 547a fb3d
00000250: 0ac5 a43b 5edb 3b3e 12c9 193d 523d 0dbe
00000260: 2ee2 4ebd 65c0 84bd 919f 063c 3449 8c3c
00000270: c41c 503d f167 8d3c 0593 62bd 6d00 5b3d
00000280: fa3a cbbc 0b05 8d3c 9df1 283d abca 083e
00000290: b159 593d 0ef6 a7bb 6aed b93d c8be 3f3d
000002a0: 82f3 493c ea0c f23d 7cbf 0abc 1341 76bd
000002b0: 86d9 893d 3198 433d e616 823d 860b 4abd
000002c0: f244 9abd afc1 abbc ea80 65be 28c7 7fbc
000002d0: dbb2 0a3e 7ee5 243d 4c3a e23d da24 873d
000002e0: 1929 0c3d 46b4 6fbd 9ec3 673c 6560 26be
000002f0: 2b34 03bd 38b7 90bd 936f 00bd 0219 1d3e
00000300: 7b90 e83d 9c76 97bd 93e6 8f3d 3d0b febd
00000310: b8d2 5abc 814f f03d 5439 12be b440 b13d
00000320: 55ec bd3d 1df7 cfbd de65 3abd a049 3d3d
00000330: 7ba8 b8bc d679 e6bd f92c da3c 8317 a4bd
00000340: dd2e 13be 5d65 4d3d 46b6 e73d 932b 693c
00000350: 7e20 2d3e f2a5 f03d 86bb 08bd eb25 1e3e
00000360: 5b7c 663d cbc6 003d 12d7 57bd 0adc c3bd
00000370: a64f 04be b18c 1a3e ef9b 6cbd 7c27 39be
00000380: 27cb 45be 5b3f 96bd ee74 04be 6b7e 46be
00000390: 776e 11bd 28cc 9a3d 689a 4abd 0c90 263e
000003a0: 6f2c 3c3e 4850 80bd 0680 b73c 44fd 103d
000003b0: 7ab6 803d 4431 633d 11ca ac3d 81ab 67bd
000003c0: 9915 bdbd 72b9 d63d a2bf 123d 4097 5ebd
000003d0: e22e dbbd 7dc0 b8bd 727d a8be 0128 5ebd
000003e0: a8b9 903d a5ff 6abc 2540 3cbe 55ad c33c
000003f0: 92a6 9abd 7429 1cbd a60f dd3d e988 17bd
0.1643612 -0.03548444 0.032177504 0.14690076 0.056255702 0.13697211 0.15705407 -0.017994368
-0.17075354 0.09092333 -0.053011768 -0.124473706 0.17249945 0.092752315 -0.06660751 -0.056038536
-0.029601647 0.08781214 0.106395304 0.10184626 0.004388019 -0.09404352 -0.11020136 -0.10336632
0.016720837 -0.047698542 -0.06796626 0.08278743 0.14614837 0.021283792 0.12817113 0.119425386
0.045581724 -0.05292343 -0.11269305 0.13229199 -0.03080791 0.018191205 -0.04458597 0.039502043
-0.0068233744 -0.018566323 -0.041972358 -0.124236256 -0.08375053 0.013288279 0.027311089 0.04627325
-0.053446222 -0.043810856 0.11218384 0.05268775 -0.06098719 0.06502469 0.08481089 0.030280927
0.0017007547 -0.0019164936 0.115910776 0.050290164 -0.12938449 -0.0777829 0.15022545 -0.09188477
0.076390915 0.00015448905 0.041742608 -0.1494845 0.14958955 0.036736425 -0.0053240224 0.09407837
-0.039983165 0.16774523 -0.20878054 -0.084518135 -0.11598736 0.16066983 -0.05193623 -0.038856808
-0.09049095 -0.0021594441 -0.065336056 0.045288224 -0.076650046 0.031052629 0.02804571 -0.14216264
0.12203953 0.028771868 -0.00994593 0.012235549 -0.015771346 -0.012269085 -0.096099526 0.0024004048
0.0037758357 0.0916602 -0.084605925 -0.06530481 0.15443857 0.06665369 0.052106168 0.026685722
0.0019401117 0.101051845 0.023615787 -0.12078814 0.0123649 0.04165013 -0.018998234 -0.15397604
-0.06904306 0.047360886 0.0039833104 0.0867071 -0.05024173 0.04800301 -0.10442997 0.015489527
0.13537088 0.11734841 -0.022660669 0.055161722 -0.13810994 -0.019271787 0.17112732 -0.124530844
-0.06939812 -0.17780322 -0.04348347 0.008971972 -0.16139266 0.06148336 0.12414613 -0.08832042
-0.011578558 0.015007273 -0.05445295 0.1819868 -0.04878626 0.008749016 -0.09633324 -0.058327504
0.13403241 0.015973756 -0.11386749 0.122791916 0.0050283717 0.183454 0.03754527 -0.13792923
-0.05050867 -0.06482009 0.0082167545 0.01712475 0.050808683 0.017261477 -0.05531599 0.053467203
-0.024808396 0.017214319 0.041246045 0.13358562 0.053064052 -0.0051257676 0.09078486 0.046812803
0.012326123 0.118188694 -0.008468505 -0.060120653 0.067309424 0.047752563 0.06352024 -0.049327396
-0.075326815 -0.020966379 -0.22412458 -0.015611447 0.1354479 0.040257923 0.110462755 0.06598826
0.03421888 -0.05852153 0.01414576 -0.16247709 -0.032032173 -0.07066196 -0.031356405 0.15341571
0.113556825 -0.0739567 0.070264004 -0.12404487 -0.013355903 0.11733914 -0.14279681 0.08654919
0.092735924 -0.10154555 -0.045507304 0.046212792 -0.022541275 -0.11253707 0.026632773 -0.08012297
-0.14373346 0.050145496 0.11314063 0.01423158 0.16906926 0.117504016 -0.03338196 0.15444152
0.05627094 0.031439584 -0.05269534 -0.095634535 -0.12921008 0.15092732 -0.057765897 -0.18081468
-0.19315778 -0.07336303 -0.1293523 -0.19384162 -0.035505738 0.07558471 -0.04946366 0.16265887
0.18376325 -0.062653124 0.022399914 0.035397783 0.06284805 0.055466905 0.084369786 -0.056560043
-0.09232635 0.1048459 0.035827287 -0.054343462 -0.107023016 -0.09021089 -0.32908207 -0.05423737
0.07066661 -0.014343177 -0.18383844 0.023886362 -0.07551302 -0.03812547 0.10794 -0.036995802

critic_body.linear2.bias f4 [64]
00000000: 350d 163e b27b fb3c 2d11 473e 0721 30be
00000010: 0bbb 483e 2506 34bd 2cb4 eabd ce71 4f3e
00000020: 3876 953c f62d 4d3e c313 603e 9bc1 613e
00000030: 7443 5639 3153 7b3e cf64 b2bd 43f3 093e
00000040: 810a cf3d ad6f aabd 55f2 253e c1c2 08be
00000050: d8d2 b03c ce66 5eba af0d a8bc 0adf fe3d
00000060: 1bc3 ecbd 1970 b33d f6ba c93d 933c 543d
00000070: 1ba3 6b3e 8e7f c0bd 3d1e 8a3d 8c19 8d3d
00000080: 12db 633e 96aa d1bd a9f1 97bd 948a 1fbe
00000090: 01ff 8bbc 017d 083d b265 49be 45be 34be
000000a0: 884b 08be 6d82 85bc d89d 383e 5a12 063e
000000b0: 04bd 493e 8457 413e 5222 db3c 2248 8cbd
000000c0: b2a9 62bd 3fd2 443e ae43 e63b 2e29 2ebc
000000d0: a8e1 11be 96f8 49be 3541 27be d528 803c
000000e0: e7eb d6bd fc00 1bbe 4b60 373e 2c73 f73a
000000f0: 5569 033e df41 0bbe 7f74 993c 2613 8e3d
0.14653476 0.030698631 0.19440146 -0.17200099 0.19602601 -0.043951172 -0.11460146 0.20258257
0.018244848 0.20037064 0.21882538 0.22046511 0.00020433759 0.24543454 -0.08710634 0.13471703
0.10109425 -0.08322082 0.16205724 -0.13355543 0.021584913 -0.0008483947 -0.020514337 0.12444885
-0.11560651 0.08761615 0.09850113 0.05181558 0.23011439 -0.09399329 0.06744049 0.06889638
0.22251537 -0.10237615 -0.0741914 -0.15580207 -0.017089369 0.033322338 -0.196677 -0.17650707
-0.13310063 -0.016297543 0.18028963 0.13092938 0.1970101 0.18881041 0.026749764 -0.06849696
-0.055337615 0.19220828 0.007027111 -0.010629935 -0.14246237 -0.19723734 -0.16333468 0.01564447
-0.104942136 -0.15137094 0.17907827 0.0018878928 0.1283315 -0.13599347 0.018732307 0.06937246

critic_body.linear3.weight f4 [1, 64]
00000000: 906e b13d 6525 e93d be01 af3d a765 4fbe
00000010: cac7 2c3e 98d2 cc3d c921 07be 6e0c d53d
00000020: ec01 633d 4e63 1b3e 8963 363e bc37 cf3d
00000030: 5ebb ef3d d09d a43d 6d47 97bd 08b0 e23d
00000040: 445c 913e c7ff 2fbe 80dc df3d 9080 2abe
00000050: 6626 113e acdd 353e 46d0 12be bea0 353d
00000060: d109 2abe dfe5 813e 1f96 b23d 4a91 04be
00000070: 162f d73d d506 b9bd 900e fb3d c070 81bd
00000080: 2088 263e 9d3a 84be 0622 53be fdd4 eabd
00000090: 16d2 f1bd cb26 3ebe a178 e4bd 39c0 a7be
000000a0: be1d 36be d62a 0abd 6169 e43d 0127 d53d
000000b0: dd5e 223e f3c1 d73d 177f 23be 39df dcbd
000000c0: 3572 a4bd 20d6 053e 5620 b4be 2a6a 20be
000000d0: 21c2 2bbe 69af d3be cfa2 55be e7dc ecbd
000000e0: b08e 0ebe 1e26 efbd 3841 443d 4b95 43be
000000f0: e52b a93d fd33 2bbe 2f23 7bbd 50ff c8bd
0.08663666 0.113840856 0.08545254 -0.20253621 0.16873088 0.10001105 -0.13196482 0.104027614
0.055421755 0.151746 0.17811407 0.10118052 0.11705659 0.08037913 -0.0738667 0.110687315
0.28390706 -0.17187415 0.10930729 -0.16650605 0.14174804 0.17760342 -0.14337263 0.04434275
-0.16605307 0.2537069 0.087200396 -0.12946048 0.10507028 -0.09034506 0.12258637 -0.063203335
0.16262865 -0.25825968 -0.20618448 -0.114664055 -0.11807649 -0.18569486 -0.11155821 -0.32763842
-0.17784783 -0.033732258 0.11152912 0.1040783 0.158565 0.1053504 -0.1596645 -0.10784764
-0.08029596 0.13069963 -0.3518092 -0.15665498 -0.16773273 -0.41344765 -0.20862888 -0.11565571
-0.13921618 -0.11677192 0.04791376 -0.1909992 0.08260325 -0.1671905 -0.06131285 -0.09814322
