reacher-ppo/models/ppo-max-hiddensize-224.pth (torch_old, 470970 bytes, 12 tensors)

std f4 [1, 4]
00000000: 9a44 6d3f 5067 553f b03b 7d3e 5daa e53e
0.926828 0.8336077 0.247298 0.4485654

actor_body.linear1.weight f4 [224, 33]
00000000: 1f42 ea3d d6c7 103e 2399 1a3e e317 9ebd
00000010: 19a1 adbd e173 c9bd 2985 dc3d 0bbf c73b
00000020: 0b82 43be 8602 13be 0632 04be b374 d43d
00000030: 0482 833d c816 1ebe d884 803c 7180 f8bd
00000040: 6d6f 0bbe d01b c83d d448 083e b3a8 933c
00000050: 0334 99ba eebf 613e f92e 14bc ce49 dabd
00000060: 1d7d cbbd 671e 51bd 3f07 ecbd 8b66 9b3d
00000070: bc45 25be 001f 993b c005 34be 9e10 2cbe
00000080: 133b 68be c66b 07be 8dc4 663d 969e 8f3d
00000090: 7bfd 3e3e 09ab 35be 0ab9 cc3d 6ec4 5cbe
000000a0: e55c 733e d2d9 493e 815f c23c ac2f 1fbe
000000b0: 040b 713e 6b91 9bbe 4479 f93d 42e2 273e
000000c0: 559f 82bd 7717 2dbd 3ff4 d2bd db2e 243e
000000d0: e6a8 febd a071 f33d ac40 0e3e 72a7 cdbd
000000e0: e2f2 d73d 50c5 133d 0329 233e d1b7 d8bd
000000f0: b910 f93d fe7e 41bd ff9a 03be 935c d0bb
00000100: 988a 1c3d a6d0 c83c c39d 483e dde2 d4bd
00000110: b8ad abbd f2b7 293e 1ae3 cd3d 1734 02be
00000120: c246 f3bd 4d23 083e b9c7 79bd 8a21 be3d
00000130: 81e8 583e 8d72 bdbd 7787 8fbd eaaa 4ebd
00000140: 92e0 da3d 7a9a 2c3d 08e9 82bd 313c 003e
00000150: 8a4b 613d 1658 24be 2932 0b3e d43d 04be
00000160: be02 4c3e cc89 cebd 215a 18bd 53d1 293e
00000170: 772a 64bd b835 bc3a f785 f63c 204c 273d
00000180: 522e 31bc 5002 e23d 8996 793e a57c 533e
00000190: 0583 26be 3b3c 0c3e c36d 413e 1ef8 273e
000001a0: a9da 38bd 276e ff3d 4e2e 60bc d5d9 8ebc
000001b0: c6f8 b9bd 1aab 1d3d d750 1f3c 40d3 e13c
000001c0: c635 3abe 8db5 123d a65b 0f3e 7c5d 91bd
000001d0: a109 38bd c7d4 643d f6f3 f5bd 9cb6 f23c
000001e0: 2669 6abc d93c a9bd f25e b43d d269 7d3d
000001f0: 8d42 4d3d 7c5f 223d 8cb9 8dbd 41e6 1bbe
00000200: 80f5 3bbb ed8b 933d bd1b 1bbe b112 23be
00000210: fb90 21be 1026 a73d 04b3 2ebe 4c8d 35bd
00000220: 0d7e 21be 4c49 183c f690 1e3e 1734 463c
00000230: acfe 1d3e 89fe ca3d 93fa f1bd 0de8 553d
00000240: 6856 52bd 0997 013e a22f f1bd c3e1 1e3e
00000250: 3b39 10be 5ddd afbd 2922 4cbd 7506 b73d
00000260: b181 283e 46e1 2d3c 7c9b d9bd 7a56 0d3e
00000270: 3ddb 52be c812 afbd 5601 473e 4ad3 a4bd
00000280: a41f 2ebc fc7b 54bd 32ab 053d 40c4 c53d
00000290: 7496 e53c e461 34be e1a8 033d b030 9cbb
000002a0: 6baf 4fbe 696e b0bc 97d6 2dbd 31aa 063d
000002b0: d367 403d 0d96 703d 4c29 aa3d fa60 af3d
000002c0: eded c13d 3215 dabd 03f3 8f3d d54e 723d
000002d0: 0eb9 323e e04f 5dbd 40ca 12bd 3f7f 313e
000002e0: b3b8 893d 48bc 02be d9c8 243d e707 0bbe
000002f0: e21e 0abe 0a90 b7bd c17b adbc de74 25be
00000300: 3f74 dabd 0fd2 eb3c 602f 2bbe 5beb 8fbd
00000310: 44b3 18be 0a56 cfbe 8d5a 92bd 1f76 30be
00000320: 5714 003e 7e2b 68bb a013 2c3d 3a8f 673c
00000330: 7ac4 f7bd 958c ae3d 8430 78bd 8c7a 613d
00000340: 1178 cfbd 31c8 a4bd 57b1 9dbd b3a7 41bd
00000350: e648 ca3c f328 e8bd 51ac 1f3d a581 28be
00000360: cbda 0fbe 6371 9d3d 7c38 923d 57c1 f2bd
00000370: 71e8 59bd 36dd c73d b540 f1bd a4c5 9cbd
00000380: 4ac8 493d cd00 443e b03b 483e 75be a0bd
00000390: 286c 933d 541b 31be 2d93 2fbe 4b6d 8f3d
000003a0: edac 39be f6ea c03d ea16 2b3e f6d2 01bd
000003b0: 2b6a 1dbe eea8 31bd 5e68 2bbe 7108 18bd
000003c0: 687f 773e 0ab1 ef3d 6802 993d 92bd 9b3d
000003d0: 8f8a ec3d edb3 f83d 2391 72bd 2ead 35be
000003e0: fa80 bc3b 65fe 583d f053 743d 1489 71bd
000003f0: b66e 6b3d 253c d2bc dbc2 d0bd 5a51 a03d
0.11438393 0.14138731 0.1509748 -0.077194 -0.084779926 -0.09836555 0.10767586 0.006095772
-0.19092576 -0.14356431 -0.12909707 0.10373821 0.06421283 -0.15438378 0.015688345 -0.12133873
-0.13616724 0.0977093 0.13309032 0.018024778 -0.0011688474 0.22045872 -0.009044402 -0.106586084
-0.09935973 -0.051054385 -0.115248196 0.07587918 -0.16139883 0.004672885 -0.17580318 -0.16803214
-0.22678785 -0.13224706 0.05633979 0.0701267 0.18651383 -0.17741026 0.09996231 -0.21559307
0.23765905 0.19711998 0.02372718 -0.15545529 0.23539358 -0.30384383 0.12181333 0.16394904
-0.063780464 -0.042258706 -0.103004925 0.16033499 -0.124345586 0.118869066 0.13891858 -0.10041703
0.10544373 0.036076844 0.15933613 -0.10581935 0.12161393 -0.04724025 -0.12852095 -0.006358692
0.03821811 0.024513554 0.19591431 -0.10394833 -0.083827436 0.16574076 0.10053082 -0.12715183
-0.1187873 0.13294716 -0.060981486 0.09283741 0.21182443 -0.092503645 -0.0700826 -0.050455965
0.10687365 0.042139508 -0.063921034 0.12522961 0.05500368 -0.16049227 0.13593353 -0.1291421
0.19922921 -0.100848764 -0.03719533 0.16583757 -0.05570456 0.0014359271 0.030093176 0.040844083
-0.010814266 0.11035597 0.24373831 0.20653017 -0.16260917 0.13694851 0.18889527 0.16403243
-0.045130406 0.12472182 -0.013682915 -0.017437855 -0.09080653 0.038493253 0.009723864 0.027566552
-0.18184575 0.03581767 0.13999805 -0.07097909 -0.044931058 0.055866983 -0.120094225 0.02962809
-0.014307296 -0.08263559 0.08807172 0.061868496 0.050112296 0.039641842 -0.06920156 -0.15224554
-0.0028680265 0.07204423 -0.151473 -0.15925099 -0.15777962 0.08161557 -0.17060477 -0.044324204
-0.15770741 0.009294819 0.15484986 0.01209738 0.15429181 0.0991183 -0.11815371 0.052223254
-0.051351935 0.12655272 -0.11776663 0.15515809 -0.14084332 -0.085871436 -0.049837265 0.089367785
0.16455723 0.010612791 -0.106253594 0.1380252 -0.20591445 -0.08548504 0.19434103 -0.08048113
-0.010627661 -0.051876053 0.032633968 0.09656572 0.028025843 -0.17615467 0.032143477 -0.004766546
-0.2028176 -0.021537023 -0.042440977 0.03287715 0.046974014 0.05873685 0.08308658 0.08563419
0.09469209 -0.10648574 0.07028773 0.05915721 0.17453405 -0.054031253 -0.035837412 0.17333697
0.06724682 -0.12767136 0.040230606 -0.13577233 -0.13488343 -0.0896302 -0.021177175 -0.16157863
-0.106667034 0.028786687 -0.16717291 -0.07027312 -0.14912134 -0.4049533 -0.071461774 -0.1723256
0.12507759 -0.0035426314 0.042010903 0.014133269 -0.12098022 0.08522908 -0.060593143 0.05504851
-0.10130323 -0.08045996 -0.076998405 -0.04727907 0.024692964 -0.113359354 0.038982693 -0.16455705
-0.14048307 0.076876424 0.0713968 -0.11853283 -0.05320019 0.097589895 -0.1177992 -0.076548845
0.049263276 0.1914093 0.19554019 -0.07848827 0.071983635 -0.17295581 -0.17145987 0.07003268
-0.18132372 0.09419815 0.1670796 -0.03169533 -0.15372531 -0.043373995 -0.16739032 -0.037117425
0.24169695 0.117036894 0.07471162 0.07604517 0.115498655 0.12143693 -0.059220444 -0.17741844
0.00575268 0.052976985 0.05965036 -0.05896862 0.05747863 -0.025663445 -0.10193416 0.078280166

actor_body.linear1.bias f4 [224]
00000000: da9b 023d 1d94 0c3e 6b60 393e 9de3 cabc
00000010: 99d0 0dbe c094 f1bd 1bff a8ba 5d64 e33d
00000020: c613 033e 5394 c8bd f5e5 9fbd 40e8 f6bd
00000030: 9f35 053e 2801 1d3c 777c 183c 6198 293e
00000040: cc20 36be 5e23 b0bd dad1 d1bd d464 03be
00000050: 45a8 0abe 9d5b cc3d 04a7 cf3d 0ab7 85bd
00000060: 2530 07bc e990 e0bc 60ec 5dbd 5d23 a7bc
00000070: 6dab 093d 0f6d 72bd a80a ce3d 8a76 993d
00000080: f945 1bbc 01eb 023e 8dc5 893d f9d2 bcbc
00000090: 05f1 303e c009 18be af40 9abd 173b 49be
000000a0: d02a 0fbe b3f7 9d3c 137c 013d 8389 34be
000000b0: f8d1 39be 8c1f 83bb 15d0 f53d bf2a 123e
000000c0: efa7 c83c d04b 8cbd 660c 053d 15ba 11be
000000d0: 48c9 8abd 46e5 443c ab2f 02be dae5 ffbc
000000e0: 0e7a 773d 0e77 1b3e 398b d3bd 1a2b 4a3e
000000f0: d4e7 df3d 43db febd 8f6a a6bd dc4d 8d3d
00000100: 0e60 5a3d d981 0dbe add8 1ebe 94c4 0ebd
00000110: 537c 8fbd 4b66 6d3d 3e03 a33d c2c6 e23c
00000120: 0a30 b03c 64e4 503d 1e8e efbd 5213 99bd
00000130: 22e6 e9bd f882 e23c 27ff 73bd 4517 673d
00000140: 6e64 45be 9ebb d3bd ccd3 e8bd 3dd8 683d
00000150: b44e e3bd 68ac 953d e273 cdbd 7416 313b
00000160: eaa6 9cbc e018 3e3c c779 1fbd aa5c 33be
00000170: 2989 ef3d 37d7 87bc ff39 3dbe c1df b33c
00000180: 5938 063e b532 20bd f98c f0bd efca d6bd
00000190: c5d7 863b a486 fe3d 7de8 ae3b 936b 3ebd
000001a0: 739d 99bd f770 d03d cde1 29be 5788 63bd
000001b0: c455 893a 1580 0f3c e7c1 ec3d f7cf 053e
000001c0: 11d2 6eba b598 28bd e6a7 f8bd f6e3 bcbd
000001d0: 68d0 b93c 65d3 783d 5b41 e9bd dfd7 10be
000001e0: ee5b bb3d 6b75 34bd 1701 bfbd 6c51 a03c
000001f0: 3697 31be cc6d 96bc 8800 2fbe 62de 1bbe
00000200: 5399 b7bd 27f1 99bd c779 1dbd 08f8 d8bd
00000210: 3be6 543e 82f8 c7bc da90 06be 551d dc3c
00000220: ae61 61bd 88a8 d93d 0999 2ebe 0319 4b3d
00000230: c53c 77bc bc62 ebbd 4f88 263e be65 123e
00000240: 5db2 b73c 16b7 17be 4f4b f43b 972c 4cbe
00000250: d4df 93bd 1965 50be 04c9 a8bd 53ae e43d
00000260: f08d 52bd 70d4 a6bd b1f0 fc3c 61f0 2ebe
00000270: 7e9d 2dbd d22e da3d 4f79 433c d299 093d
00000280: e3d5 cebc 4be9 ff3d c727 97bd 26e2 313d
00000290: 8500 a9bd 92cf 7f3d b24e d23d af6a 2bbe
000002a0: 9614 fc3d 8619 5e3c 37b5 0b3e 0375 823d
000002b0: d2f4 b9bd 304e 353e 1080 13be dded 303d
000002c0: 8c0e f63c b1b9 a0bd 2b9d 173e 892a 2d3e
000002d0: 504c 0d3e 8302 403e cf99 083d 924a 913d
000002e0: 0924 20be 70ba 13bc f919 2dbd 8053 02be
000002f0: 2411 27be a59a 80bd 7140 183e 1fc8 0cbe
00000300: 8ab3 083e c690 073d 9e5e 223d cb0c 263e
00000310: d65b 2dbd 6e1e 04bd 7d72 dc3d 6922 f83d
00000320: f4f3 113d 6493 043e 4f65 62bd 185e e2bc
00000330: 8430 07be e316 4c3e 94a9 90bd a896 9b3d
00000340: b1f0 16be 74f4 9fbd c61e b1bc 3ef1 bfbd
00000350: 82e5 dcbd 28c2 3ebe ca7c c63d 6ddb 77bd
00000360: 53e1 cf3d 7fbb 223d e0de 873d 9967 8b3c
00000370: 614a 1cbd 2b0f c2bd 2115 00be fcd3 57be
0.031886913 0.13728376 0.18103187 -0.024766738 -0.13849105 -0.1179595 -0.001289341 0.11103127
0.12800512 -0.097939156 -0.07807533 -0.12056017 0.13008736 0.009582795 0.0093070185 0.16562034
-0.17785949 -0.08600496 -0.10245104 -0.12831432 -0.13540752 0.09978411 0.101392776 -0.065290526
-0.008251225 -0.027412849 -0.054180503 -0.020402605 0.03361075 -0.059186038 0.10060626 0.07493313
-0.009477132 0.1278496 0.06727133 -0.023049818 0.17279442 -0.1484747 -0.07531869 -0.19651447
-0.13981175 0.019283151 0.031612467 -0.17630582 -0.18146503 -0.0040015634 0.12002579 0.14274119
0.02449414 -0.068503976 0.032482527 -0.14231141 -0.067766726 0.012017554 -0.12713496 -0.031237531
0.060419135 0.15182135 -0.10329289 0.19743004 0.109328896 -0.124441646 -0.08125793 0.06899616
0.05331426 -0.13819064 -0.15512343 -0.03485544 -0.07006135 0.057958882 0.07959603 0.027682666
0.021507282 0.05099906 -0.116970286 -0.07474388 -0.114208475 0.027650341 -0.059569504 0.056418676
-0.19276592 -0.103385195 -0.11368522 0.056846846 -0.11098996 0.073082745 -0.100318685 0.002702144
-0.01912256 0.01160261 -0.038934495 -0.17515817 0.11696083 -0.016582115 -0.18479155 0.02195728
0.13107432 -0.039110858 -0.117456384 -0.10487925 0.004115077 0.124280244 0.0053377734 -0.04648931
-0.07500734 0.10177796 -0.16590042 -0.055549946 0.0010477831 0.0087585645 0.115604214 0.13067614
-0.0009110282 -0.041161258 -0.12141399 -0.092231676 0.022682384 0.060748477 -0.11389419 -0.14144848
0.091483936 -0.04405729 -0.0932638 0.019570075 -0.17342839 -0.018362902 -0.17090046 -0.15221551
-0.08964791 -0.07516699 -0.038446214 -0.10594183 0.20790951 -0.02441049 -0.13141194 0.026869455
-0.055024795 0.10627848 -0.17050566 0.0495844 -0.015090172 -0.114934415 0.16262935 0.14296624
0.022423917 -0.14815935 0.0074552665 -0.19938885 -0.07220426 -0.20351066 -0.08241466 0.11166062
-0.051404893 -0.08145988 0.03087649 -0.17083885 -0.042386524 0.106534615 0.011930778 0.03359396
-0.025248474 0.12495669 -0.07380634 0.043428563 -0.08252052 0.062453814 0.10268916 -0.16739915
0.12308614 0.01355589 0.13643347 0.063699745 -0.09079899 0.17705607 -0.1440432 0.043195594
0.030036233 -0.07847918 0.14806049 0.16910757 0.13798642 0.18750958 0.03334981 0.07094301
-0.15638746 -0.009016618 -0.042261098 -0.12727165 -0.16315132 -0.06279496 0.14868332 -0.13748215
0.13349739 0.03309705 0.039641015 0.16215818 -0.04232391 -0.032255583 0.107640244 0.12115938
0.035633042 0.1294685 -0.055272397 -0.027632758 -0.13202101 0.19930606 -0.070635945 0.07597095
-0.14740254 -0.078102976 -0.02162112 -0.09372185 -0.10785963 -0.18628752 0.096917704 -0.060511995
0.10150399 0.03972959 0.06634307 0.017017173 -0.03815687 -0.09475549 -0.1250806 -0.2107696

actor_body.linear2.weight f4 [224, 224]
00000000: 1574 e7bb 0069 ecbc 3c13 423d fab3 ab3d
00000010: 2097 ae3a a9a8 663a 2fdd 4abb b7c5 37bd
00000020: 7c50 59bc 7bda 683d e5cf 7e3d e606 bb3d
00000030: d421 8c3c f29b 4bbc cd00 843d dd05 a23b
00000040: d002 7abd f33f 1e3c 9d05 553d ebc0 8abc
00000050: 66be 79bd c8e9 09bc 6f7c 2ebd b406 03bd
00000060: bdf2 d03c 4195 b3bd 061d b4bc 2a8b a6bc
00000070: fd0b 99bd 0d8f 10be 9a54 b2bd b39e 08be
00000080: 4b58 59bd 7043 56bd 6b52 d33c aa0b 10bc
00000090: 593a bf3d aa77 c43b 4f30 173e 2936 43bd
000000a0: 656d d33c de41 f23c 0188 96bd 746f ad3c
000000b0: 0ee1 043d 6e78 9c3d 83c9 b2bd 707d 6c3c
000000c0: 8019 98bc 0370 efbc e108 3bbd c924 0ebd
000000d0: fce2 04bd f5b7 a23d bd2b 143b 30a7 dabc
000000e0: adfe 7dbd 812c 9e3d e895 03bd 2129 19bb
000000f0: 7085 613c 3465 473d 7d5a 933c da7d 2c3d
00000100: 294d 413b b8c4 c5bc bd33 edbd 83cf 70bd
00000110: 5ac1 d03c 54ac c5bd bcb3 123c 6311 d93c
00000120: 0654 253b c3de 4e3d 779d 1d3d 76a7 aabd
00000130: 09a3 4d3d eda5 ab3d 743e 87bc a29b 1dba
00000140: 9c09 373c bbd1 ed3c e6ae 633d 3260 b23d
00000150: 9d66 46bb e47f 1d3d 8df6 123c c7c9 233d
00000160: 8537 6fbc 8a42 cf39 5a82 303d c110 1abd
00000170: 2474 9abc 1e8d 353d 0e2e ed3b 1941 d23d
00000180: bd29 02bd abb0 8fba 1a48 9abd 5e88 743d
00000190: 169d d8bd 3640 ba3b 7047 c63d 5259 873d
000001a0: 17e9 8e3c aa49 acbb c3d5 37bd cb48 5abc
000001b0: 0564 053e a92d 70bd 47b5 01bd fa2d 0fbc
000001c0: 8b02 bd3c 3126 5cbd d8db 8e3d fdf9 bcbc
000001d0: ab3a a3bd 489d 91bd 8045 c2bc a5bb 57bd
000001e0: 18d2 96bc b6ed 013c 6cd7 b93d e974 a0bd
000001f0: be81 35bd b877 913b 228f 3abd 93de 3a3d
00000200: bba7 20bd 4f0b d8bd fc96 72bd b3fc a83a
00000210: 0dfe e23d 53ce 803d e2a8 593d 480f 16bd
00000220: 45bc 4cbc 4d50 773d 08a8 2a3c ff6c 653c
00000230: 95bb adbd be70 00be 0c8d cebb b176 753d
00000240: 0e58 113d 9683 e73c d27c a8bd fbcd bcbd
00000250: b044 c53c 4687 a1bc e480 dd3d 92dd b53c
00000260: abb5 84bd f358 963d c85f bfbd 9d52 27bd
00000270: bafb 04bd 4ec6 eabd d3be 6a3c 8249 a1bb
00000280: 60cd 66bc ac8a 873c 90a2 55bd 4db2 f8bc
00000290: ad24 883d 63f4 cc3d 345a 2a3c 278e 0dbc
000002a0: 91a1 353d fc7e 473c 0262 2d3d be39 9bbb
000002b0: 0385 88bc cf86 d9bd 2e37 d63b f042 cd3d
000002c0: 4c30 353d 050f f13c 6b8d 2c3d a2ed b8bc
000002d0: 05b1 6abd 4a42 943b 04c5 11bc f093 01bd
000002e0: a718 233c 8651 9d3d 39bb 93bb b4de 763d
000002f0: 1db1 fb3d a87d 963c c40a 593c 088e dcbd
00000300: 5386 a03b ed85 c1bd 2e9c 20bd 872c ebbd
00000310: a141 a0bc efef 52ba 8c64 1e3d f434 153d
00000320: 6ff2 e43c a6fb 5abc 51a3 bd3d 97b8 43bd
00000330: 1450 393d e1fd 9fbd b59d 8fbd 1bd3 613c
00000340: 7d7c 81bc 86e2 66bd f7c7 c7bc 0104 8bbc
00000350: cb23 23bd 6e76 3ebd 8428 f93c 0330 afbd
00000360: 56dd 70bd bcae 983d 42b3 c8bc ad7b c43c
00000370: 4916 89bc e103 17bc 137a 8dbb 6fc2 afbd
00000380: b5ca 96bd 87dd 81bd 2ebb 99bd a0a0 913b
00000390: d555 b23c c81d febd 631e efbc 07b0 c3bd
000003a0: 779e 40bd 5a22 873d 2e65 87bc d1f2 30bc
000003b0: 84f9 febc 1231 a1bc 9424 4bbc fe40 62bd
000003c0: 05bb a8bc 8bdf 7ebb 52b5 81bd f9d7 c83b
000003d0: fcb3 7fbd 7118 1d3c 9d45 5fbd 24e4 f8bc
000003e0: d674 2d3b 8e8d 47bd 0596 dd3c e103 b63c
000003f0: 335d 2cbd b476 e1bd fbab 693b a3a9 e8bd
-0.0070633986 -0.028858662 0.047381625 0.08383937 0.0013320185 0.0008798936 -0.003095459 -0.04486629
-0.013263818 0.056848984 0.062209982 0.09132175 0.017105974 -0.012427317 0.06445465 0.0049445466
-0.06103784 0.009658801 0.052007306 -0.016937694 -0.060972594 -0.008417554 -0.042599138 -0.031988814
0.025506372 -0.08768702 -0.021986496 -0.02033003 -0.0747299 -0.1411707 -0.08707543 -0.13341789
-0.05306272 -0.052310407 0.025796136 -0.008791843 0.09337301 0.0059957104 0.14764522 -0.047659073
0.025809 0.029572424 -0.073501594 0.021171309 0.03244119 0.07640158 -0.087298416 0.0144342035
-0.018566847 -0.029228216 -0.045662764 -0.03470305 -0.03244303 0.07945243 0.0022609078 -0.02669105
-0.062010456 0.07723332 -0.032125384 -0.0023370462 0.013764724 0.0486805 0.017987484 0.04211221
0.0029495454 -0.024141654 -0.11582134 -0.05879165 0.025482822 -0.096520096 0.008953985 0.026497548
0.0025227084 0.05050541 0.03848025 -0.08332722 0.05020431 0.08381257 -0.016509272 -0.0006012266
0.011171725 0.029030671 0.055586718 0.08709754 -0.0030273565 0.038452044 0.008969915 0.03998735
-0.014600639 0.00039531692 0.043093063 -0.037613634 -0.018854208 0.044324033 0.007238156 0.10266323
-0.031778086 -0.0010962685 -0.075332835 0.059700362 -0.10576837 0.005683924 0.09681594 0.066088334
0.01744513 -0.005257805 -0.044881593 -0.013323019 0.13026436 -0.058637295 -0.03166702 -0.008738989
0.023072502 -0.05374736 0.069755256 -0.023068422 -0.079701744 -0.07110077 -0.02371478 -0.052669186
-0.018410727 0.00793021 0.090742916 -0.07834799 -0.044313185 0.0044393204 -0.04554666 0.04562242
-0.03922246 -0.10549032 -0.05922602 0.0012892693 0.110836126 0.06289353 0.053139575 -0.036635667
-0.012496059 0.060379315 0.010416038 0.0140030375 -0.08483044 -0.12543008 -0.006303435 0.059927646
0.035484366 0.028260987 -0.082269326 -0.09218975 0.024080604 -0.019717824 0.108155996 0.02220038
-0.06479963 0.073411845 -0.09344441 -0.04085027 -0.032466628 -0.11463605 0.014327723 -0.004922093
-0.014087051 0.016545616 -0.052156985 -0.030358458 0.0664762 0.100075506 0.010397483 -0.008639849
0.044343535 0.0121762715 0.042329796 -0.004737108 -0.016664987 -0.10621416 0.0065373397 0.10022533
0.044235513 0.029426107 0.042127054 -0.02257425 -0.057297725 0.004524504 -0.00889707 -0.031635225
0.009954608 0.07681565 -0.0045084027 0.06027098 0.12289641 0.018370464 0.013247196 -0.10769278
0.004898825 -0.094493724 -0.039211445 -0.11483102 -0.019562544 -0.0008046617 0.038670108 0.036427453
0.027947633 -0.013365662 0.09259666 -0.04778346 0.045242384 -0.078120954 -0.07012502 0.013783242
-0.015806431 -0.056368373 -0.024387343 -0.016969683 -0.039829057 -0.046499662 0.030414827 -0.085540794
-0.058804832 0.07455203 -0.02449954 0.023984754 -0.01673426 -0.009217233 -0.004317531 -0.08582007
-0.07362882 -0.06341081 -0.07506405 0.004444197 0.021769444 -0.12408024 -0.029189294 -0.09555059
-0.047026124 0.06598349 -0.016527738 -0.010800079 -0.031124838 -0.019676719 -0.012398858 -0.055237763
-0.02059699 -0.0038890566 -0.06333412 0.0061292616 -0.062427506 0.009588347 -0.054509748 -0.030382223
0.0026467345 -0.04871898 0.027049074 0.022218646 -0.04208107 -0.11008969 0.0035655487 -0.11360481

actor_body.linear2.bias f4 [224]
00000000: d531 f83c c0f6 50bd b4c3 10bd 6b57 13bd
00000010: 967a cfbc 4f89 14bd f16d 1c3d 2c3a e43c
00000020: b141 62bd 8edf 283d 114f 65bd ebd5 c03c
00000030: 97a2 30bd 0dba 2ebd 37df 97bd fdb6 7fbc
00000040: 0a4a 17bd 94b9 ecbc 5f30 6bbd ec02 d5bc
00000050: af97 a3bc 4054 31bd d3f6 803d 0c33 82bd
00000060: 98bf 6dbd f36a 0b3d 4678 973d 298e 0f3d
00000070: 2cc1 373b 0dae a9bd a1f7 483c bf64 4e3d
00000080: 170b 5f3d a08e 65bd 5780 163d 2930 f73c
00000090: 2170 57bc ff6b 7a3d 6b66 f33c b2b2 b1bb
000000a0: eb94 313d cb22 203c b1ec 95bc 8650 143d
000000b0: a608 4b3c c623 e73b cf83 653d 5246 053d
000000c0: 828b afbc 3aca 07bd abf7 11bd 70f9 0a3d
000000d0: 70e5 463c 02b4 9d3d 670a 5dbd dd86 5c3d
000000e0: a89d 273d d502 a83d 2ae1 033d 6cad c43a
000000f0: 1276 163c bcb9 2b3d 3813 e83b c272 a73d
00000100: 3c89 4bbc 109e dabc b4d9 bf3c 276c 72bd
00000110: ba8b 85bc 04ad 0cbd 752f f73c 66c1 ebbc
00000120: 73b2 603d da01 b83c 9a37 39bd 0494 dfbc
00000130: a190 c1bc edc5 b8bc b8cd 15bd 491f 47bd
00000140: da96 dabc ad0d 4e3c b1bd 703c 7967 823c
00000150: 0df9 2dbd 3505 463d 266b 0e3d d527 2a3c
00000160: c626 733d f3fa 973d e358 cd3a 6415 d9bc
00000170: 5db8 80bc 6327 3ebd 2516 54bd d9fe a83c
00000180: 0671 b43b bf7c 673d ce95 b93c b637 173c
00000190: f93d 5a3d c15d 40bd ae2c 5ebd b84e 6ebd
000001a0: ebea 763c 09e4 d0bb 9c98 21bd 217f 463d
000001b0: 6026 d23c ed2e 90bd 396d 7f3d 79e4 45bd
000001c0: e7ce b0ba 163a 473d 735c b73c 07b0 d83b
000001d0: 5176 953d 3681 16bd 148a 8dbc 9bc3 3f3d
000001e0: 2ec9 1d3d 8ce6 61bd 215c e13c afa0 313d
000001f0: 17ed d23c 435a 263d 4f07 093c db3b 26b9
00000200: 51bc 76bc 987b 71bd 5568 4bbd 7c99 0e3d
00000210: 76f2 5a3d 9ab2 e73c f702 bbbc 2094 9abc
00000220: 9bda 003d a609 a5bd 3b63 503d 9ae0 053d
00000230: 0f72 6b3d 188d ccbc e3e2 0b3d 72d4 afbc
00000240: 6973 e4bc e647 333d 5b03 893d ed89 5d3b
00000250: fa1c 933a 6bee d8ba 0041 903a 8c85 e33b
00000260: 80fa 8abc fc12 623d 3368 1bbd cf10 4cbd
00000270: ca22 acbc 534b d8bc b01f 003c f3d3 383d
00000280: 710a 2f3d 755f 08bd c92a 443c 7a79 fa3c
00000290: 30b9 7f3d d779 803d ccb0 433d 5a2c 783d
000002a0: 0fe5 343d 16af 1abd ea44 8ebd 3246 44bd
000002b0: 87a1 2abd b72e abbc 2b9c a13d c1a0 e2bc
000002c0: 5a11 43bd 596d 2bbd 27d7 8fbd c257 35bd
000002d0: 7aa4 c13c 575b 403d 786f 9cbd b4f7 21bd
000002e0: 1125 f5ba 06dc c33c d6f7 a7bb 14ff d83c
000002f0: a127 e03c 157d 813d c56d 57bd c030 83bd
00000300: 5e47 1ebd 3165 c93c 8ca4 2d3d f005 1d3d
00000310: b4b2 c9bc 4b66 893d f2f0 24bd ff04 723d
00000320: 6a8a 543d 3d6e 793d 83fb f8bc 62c8 cebc
00000330: d249 063c 5135 643b d7da f63c 901c 253d
00000340: 9117 bd3c 3570 143c 3f80 723d 89af 2b3c
00000350: bd92 803d 8b1b abbd d1c3 283d 0996 963b
00000360: 3fc0 71bd ee7a 613b 4054 763d f284 debc
00000370: d195 99bc f202 d3bc 3240 c2ba 1c83 453d
0.0302972 -0.05101657 -0.035342887 -0.03597204 -0.025327008 -0.03626376 0.038190786 0.02785977
-0.05523843 0.041228823 -0.055983607 0.023539504 -0.043123808 -0.0426579 -0.07415622 -0.015607593
-0.036935844 -0.028897084 -0.057419177 -0.02600237 -0.01996979 -0.043293238 0.06297078 -0.06357393
-0.058044046 0.03403754 0.07395987 0.035047684 0.0028038723 -0.08285151 0.012266071 0.050389048
0.054453935 -0.05604422 0.03674349 0.030174332 -0.013149292 0.06113815 0.029711923 -0.0054229135
0.04335491 0.00977392 -0.01830134 0.036209606 0.012392199 0.007053825 0.056033906 0.032537766
-0.021428827 -0.033151843 -0.035636585 0.03392929 0.012139663 0.077003494 -0.053965 0.053839553
0.040921837 0.08203665 0.032197155 0.0015005297 0.009183424 0.041925177 0.007082369 0.08176185
-0.012422856 -0.026686698 0.023419239 -0.059185173 -0.016301978 -0.034344688 0.030173996 -0.028778743
0.054857682 0.02246182 -0.04521904 -0.027292259 -0.023628535 -0.022555316 -0.03657314 -0.04861382
-0.02668326 0.012576503 0.014693663 0.01591848 -0.04247384 0.04834481 0.034770153 0.010385473
0.05936315 0.07420912 0.0015666749 -0.026499458 -0.015712911 -0.04642428 -0.05177893 0.020629333
0.0055066375 0.05651545 0.02265444 0.009229591 0.053281758 -0.04696441 -0.05424183 -0.05818054
0.015070657 -0.00637484 -0.03945218 0.048461083 0.025653064 -0.070402004 0.062360022 -0.04831359
-0.0013489396 0.04863938 0.02238295 0.006612781 0.07297958 -0.03674432 -0.017277755 0.046817403
0.038521938 -0.055151507 0.02750975 0.04336613 0.025747819 0.040613424 0.008363559 -0.00015853292
-0.015059547 -0.05895576 -0.049660046 0.034814343 0.053453885 0.028283406 -0.022828562 -0.01886946
0.03145848 -0.08058481 0.050875884 0.0326849 0.05748182 -0.024969622 0.034151923 -0.021463607
-0.027887063 0.04376974 0.06690093 0.0033804134 0.0011223846 -0.0016550546 0.00110057 0.0069434103
-0.01696515 0.055193886 -0.03794117 -0.049820717 -0.021012682 -0.026403105 0.007820055 0.045124006
0.042734567 -0.03329416 0.011973091 0.030575503 0.062432468 0.06273239 0.04777603 0.060589172
0.04416376 -0.03776463 -0.06946738 -0.047918506 -0.04165795 -0.020896299 0.07891115 -0.027664544
-0.04762397 -0.04185233 -0.07023459 -0.044273145 0.023637999 0.04696211 -0.076384485 -0.03954287
-0.0018703063 0.023908626 -0.00512598 0.026488818 0.027362647 0.06322686 -0.05259492 -0.06405783
-0.03864228 0.024584385 0.042393252 0.03833574 -0.024621345 0.06708964 -0.040268846 0.059086796
0.051889814 0.060896147 -0.030393368 -0.025242034 0.008196311 0.0034821818 0.030133648 0.040310442
0.023082526 0.009059955 0.059204336 0.010478863 0.06277988 -0.08354863 0.04120237 0.0045955223
-0.05902123 0.0034405547 0.06013894 -0.027163003 -0.018748196 -0.02575824 -0.0014820157 0.04822074

actor_body.linear3.weight f4 [4, 224]
00000000: ed86 93bd 84d4 97bd 74c4 f83b 965a a4bd
00000010: 66db d3bc 1197 fbbc 8230 123d fc78 75bd
00000020: 44c6 97bd f22d 8b3d 8f9d 14bd 4756 0a3d
00000030: 589b 40bd bb5e 973d dee4 8a3d a1fd d73d
00000040: f8d6 99bd 4879 a2bd 24a0 3abc 8463 a8bb
00000050: 29e1 e1bb fa4a 4a3b 7c4b ca3d 1b83 0bbe
00000060: 7672 9f3c ca0c ce3c a6ad b13d c6b5 533d
00000070: 4246 8abc 81b8 7abd 393c 8dbc 843d 063c
00000080: 0bdb 0abd 12b3 98bd d9ca 383d 271b 6bbd
00000090: a665 fabc b9c2 3c3d f340 813c b5da e13c
000000a0: 7d29 193c 96eb bbbc eb90 76bd 42e3 30bd
000000b0: fc57 ee3c 1be7 b9bb 3a4e b7bd 4666 123d
000000c0: 766d 74bd 4183 d1bd 4c41 dcbd 1e0e a6bb
000000d0: 79ec 85bc 6a6a 7ebc 327e c93c d8cc c4bc
000000e0: d8f3 e33b c5c9 383d 8abd 4bbd 18c6 893d
000000f0: c0a3 b93d 3510 623d b782 4dbd b621 63bc
00000100: f974 9ebd 3bb7 04bd ef79 bf38 baa2 b13d
00000110: fd85 383d 065c 93bc 9a1b fdbb 98c3 71bc
00000120: 2f9c 833d 53d8 0cbe 9785 8ebd 662a 893c
00000130: 9993 13bd 78a8 943d 688e 5bbd f61e 9cbd
00000140: 08c5 a4bd a3c8 2cbd efab b7bd a675 c23d
00000150: 3767 91bc 6ce8 c2bc 488a 97bd 289d b53d
00000160: b570 6c3d 0a92 a2bd 9de3 323d 3fb6 eabc
00000170: 6870 9a3d 6cd2 d9bb 0528 c4bd 9d8c 95bd
00000180: a1ad a3bd a4e7 6dbd 715a 8fbd 6176 37bd
00000190: d10d 24bd 89ed 7bbd bbb0 1f3d 793e cdbd
000001a0: 426c 143c 7138 ee3c 084a a13d da60 cd3d
000001b0: 1594 b5bc b1e8 1b3b 8830 423d 7acc eb3c
000001c0: 6e46 cc3d b1da 373d 1572 cfbd 2a3c afbd
000001d0: eed5 f63c b905 0ebd ffcb 48bc 7243 7a3d
000001e0: 0539 d83d 4b9b 63bd 9ad9 813c 67c7 99bc
000001f0: 570e 4d3d 360f 5ebc dbe6 073d ac2b 073d
00000200: 9561 76bc ca44 54bd b8ab c9bd cd06 6bbd
00000210: a675 823d 8d0b 20bd 529f acbd b950 bd3d
00000220: 600a f13a fcfe 9bbd 98b9 87bd 9979 bb3d
00000230: 38a9 bfbd 4405 07bd 4373 b3bd e1f1 753c
00000240: fb70 a13c 7183 35bd be22 d33c ebaf af3d
00000250: a25d be3d 084d 163d 3aff 063d 31b5 313c
00000260: 931c b7bd b173 57bd 67e7 993c 0b55 efbd
00000270: 959b 253d ccb5 ad3d e4f2 8fbd 08e6 883d
00000280: 18ca 863d ff18 573d 77d6 a1bb 482e b23d
00000290: a7e4 913d 5d6d a3bb ff73 043e d7a3 a2bb
000002a0: b384 f73d 7345 e43c a077 18bd fe0f 3d3d
000002b0: d7da c0bc 7c1d ae3b cbcc 603d 4a9e 623d
000002c0: 3ae9 31bd 06a6 bd3d 572c 32bd 049b 7ebd
000002d0: 594f 383d 8b5e 03bd 8318 363d 0e6a eabc
000002e0: aba4 0d3b 687a 2b3c c8a8 653d 6363 9cbd
000002f0: 4b24 903d 6a2c e5bc 540c 2dbd 1fcc bf3b
00000300: 8b4b a4bd f3f9 033e 562f 733d 002e 333d
00000310: 0a85 c53d 8177 db3c a0e5 f3bb bf00 82bc
00000320: 4629 da3d 28a3 633c 33e5 d23d c6fe aa3d
00000330: 92b6 c9bc 570c 0f3d df8e 2d3b 6603 bb3d
00000340: 7c24 913d e7d2 76bb fd96 553d ab14 d13c
00000350: ce4f 08be 276f 92bc f5cc 4bbd bb51 59bd
00000360: 4758 00bc cfbc 2abd c321 b83d 60bf aabd
00000370: 896b d4bc 1c12 053e 7544 d8bd 39dc 27bd
00000380: 54b0 db3d 4a42 b93d 3306 41bd 3b76 c2bc
00000390: 6ed9 1f3e c88a adb5 f32a c2bd 55c3 4fbd
000003a0: 6c7b 8f3c 6da4 acba 0b04 5bbc e748 c6bc
000003b0: 5761 63bd a6dd 8cbd b6c4 843d 9437 95bd
000003c0: 0fdc ce3d 766f e63b 4ca4 f73d 8843 093b
000003d0: 7c01 70bd 7734 333d ce2d 5fbb 9ff0 fbbc
000003e0: f22e 66b8 125b fe3c f123 a03d 2013 ca3d
000003f0: a9c0 b2bc 3528 1abd 929c d93d cab1 bf3d
-0.072034694 -0.07413581 0.0075917784 -0.080250904 -0.025861453 -0.030711683 0.035690792 -0.059929833
-0.07410863 0.06795873 -0.036283072 0.033773687 -0.047023147 0.07391115 0.06781934 0.10546423
-0.07511705 -0.07933289 -0.01139072 -0.0051388163 -0.0068932963 0.0030867443 0.09877679 -0.13624232
0.019463759 0.025152583 0.08675699 0.051687025 -0.016879205 -0.061211113 -0.01724063 0.008193377
-0.033900302 -0.0745603 0.045115326 -0.05739894 -0.030566048 0.04608414 0.01577804 0.027570108
0.0093482705 -0.022939485 -0.0601968 -0.04318548 0.029094689 -0.005673302 -0.089504674 0.035742067
-0.059674703 -0.10230113 -0.10754642 -0.005067601 -0.01634811 -0.015528301 0.024596307 -0.024023458
0.0069565587 0.045114297 -0.049741305 0.067272365 0.09064436 0.055191237 -0.050173488 -0.013863018
-0.077371545 -0.032401305 9.1303016e-05 0.08673616 0.045049656 -0.017988216 -0.0077242376 -0.014756106
0.06426274 -0.13754396 -0.06959074 0.01674385 -0.036029432 0.07258695 -0.053602606 -0.07623093
-0.08045393 -0.04218353 -0.089683406 0.09495096 -0.017749412 -0.023792468 -0.07399422 0.08867866
0.057724673 -0.07938011 0.0436741 -0.028651355 0.07540971 -0.0066473987 -0.095779456 -0.073022105
-0.079921015 -0.058082238 -0.06999672 -0.04479063 -0.04005224 -0.061505828 0.038986903 -0.10021681
0.009059014 0.029079648 0.078754485 0.100282386 -0.022165338 0.0023789818 0.047409564 0.028784025
0.09974371 0.044886295 -0.10129181 -0.08556397 0.030131306 -0.034673426 -0.012255668 0.061099477
0.105577506 -0.05556802 0.01585083 -0.01877184 0.050062504 -0.013553431 0.033179145 0.033000633
-0.015037914 -0.051823415 -0.09847206 -0.057379533 0.06370096 -0.039073516 -0.084288254 0.09243912
0.0018389933 -0.07616994 -0.06627196 0.09154052 -0.09358448 -0.032964006 -0.08762219 0.015011282
0.019707194 -0.044314805 0.025773402 0.085784756 0.09295203 0.036694556 0.032958247 0.010846422
-0.08940997 -0.052600566 0.018787099 -0.116861425 0.040431578 0.084819406 -0.070287496 0.066845
0.06581515 0.052514073 -0.0049388963 0.08700234 0.0712369 -0.0049874024 0.12934874 -0.004963379
0.12085857 0.027865147 -0.03722346 0.04615783 -0.023541851 0.0053135734 0.054882806 0.055326737
-0.043435313 0.09260182 -0.043499317 -0.062159553 0.044997547 -0.032072585 0.04445697 -0.028615024
0.0021613042 0.010466196 0.056069165 -0.07636144 0.07038172 -0.02797528 -0.042248085 0.0058531906
-0.08022221 0.12888317 0.059371315 0.04374504 0.09644516 0.026790382 -0.007443145 -0.015869496
0.106524035 0.01389388 0.102976225 0.083493754 -0.02462319 0.034923878 0.0026482863 0.091315076
0.07087037 -0.0037662329 0.052145947 0.02552255 -0.13311693 -0.017875267 -0.04975601 -0.05305646
-0.007833547 -0.04168397 0.089908145 -0.08337283 -0.025930183 0.1299519 -0.10559932 -0.040981505
0.10726991 0.09045847 -0.047125053 -0.023738017 0.15610287 -1.2929895e-06 -0.09480848 -0.050723393
0.017514907 -0.0013171561 -0.013367663 -0.024204684 -0.055512752 -0.068782136 0.06482832 -0.07285991
0.101005666 0.00703233 0.12091884 0.0020944793 -0.058595166 0.043751206 -0.0034054401 -0.030754386
-5.4879994e-05 0.031049285 0.07819355 0.09866929 -0.021820383 -0.037636 0.106255665 0.093600824

actor_body.linear3.bias f4 [4]
00000000: d95a 493d e321 633b af68 653d c1ec 76bd
0.049158905 0.003465765 0.056008037 -0.06028438

critic_body.linear1.weight f4 [224, 33]
00000000: 8d9e 623d 9de4 c73d 6f3a 533e 695f a63d
00000010: cce2 44bd ea52 a03c 5c89 0abc 7224 6f3d
00000020: 12ef 13be 9e97 bd3d dc32 94bd beeb 44bd
00000030: 3287 0bbe 2fce 0dbe cc7c ca3d 0856 b1bd
00000040: d4b5 053e ebff d73d b65f 22be c6da e83d
00000050: cb17 70bd f7e4 bb3d d34b 1d3e 7bc1 253c
00000060: 973a 37bc 5f15 783c 31b5 29be 8d7f cabc
00000070: 658f fbbd 8441 17bd f027 0dbe 68d4 dc3c
00000080: 6101 8dbd 8836 18be 620f 43be dc19 ce3d
00000090: aea5 173e 37b1 b13d e6ec 07be ac72 5fbd
000000a0: dd6f 86bb 14db dcbc a9ec bd3c 0644 c03d
000000b0: 9023 f33d 820d c63c fb91 2e3c b542 e43c
000000c0: 4ce7 99bc b0e8 523d 96b1 873c 64b1 a93d
000000d0: 336f 0bbe c8c7 893d 5777 bbbd a530 d5bd
000000e0: b30f 78bc 7843 073d 0c7a 79bd 952e 9b3d
000000f0: dac2 1d3c 1aa6 a83d d912 cbbd 6094 2b3e
00000100: 5cd9 fbbd f78c fdbe ded6 29bd 385d b03d
00000110: 46e5 b8bd 028d 403c 74b1 72bd 29b5 1cbe
00000120: 56ce 08bb ad9a cebc b180 fe3d 4f90 e23b
00000130: 3776 21bd 85de 3f3d 146c 14bd e3a2 8ebd
00000140: f046 11bc 735e 883d 9c07 303d bf90 f93d
00000150: 22e0 213d 2afa 21be bd69 b03c 0557 b03d
00000160: 581e 2e3e e5f5 bc3d eae9 083d dc2a 243d
00000170: 65df 18be e890 26be af94 323d ecfa 80bd
00000180: 8e48 0bbe 10f5 f7bd 011d ccbb a3b6 00bd
00000190: 42a0 ac3c ba44 00be 5107 97bc 797f fb3d
000001a0: b8b6 4e3e 5e31 7b3e 4057 143e c29b 2f3c
000001b0: e00c d43d 19bd b4bb 12b2 a23b 191b 3dbd
000001c0: 9e82 63be 7bd5 edbd f49a 90bd c520 083e
000001d0: 8444 ecbc 21f9 2cbd 46fa 173d b814 03be
000001e0: 8983 df3d b8f1 47bd cc33 0ebd 053e 653c
000001f0: 447a 7b3d 88ad 193e f393 32bd 68d3 273d
00000200: 9098 ec3d 7112 49be 4051 f7bd 56fa 26be
00000210: bde9 e13d 7dba 1cbc ae52 bb3c a658 1b3e
00000220: e6c6 54bd e1f6 9e3d feff f23d e8b7 0fbd
00000230: 6fa4 3e3d 888a 943d 4b04 abbd 1cf9 e0bc
00000240: d6ee 61bd 91a3 0fbe 117e 5dbd 1609 f1bd
00000250: 90bb 833c bf24 da3d eb30 393d d239 a03d
00000260: b519 243c 4257 e73d bf5d 773c 5ba3 583d
00000270: 4635 173c 89c3 753d 7833 a13d e6cc 46bc
00000280: b920 5e3d 1988 cfbd 286a 92bc 573d 2dbe
00000290: 5155 32bf 7329 273e 917a 2a3e 033a 123e
000002a0: eb0f 3c3e e268 063d 2312 253c 4809 0f3e
000002b0: 6fde 3d3e 1dac 1a3e f8e3 e8bd 1fa6 cfbc
000002c0: b9b4 6cbd cba8 c13c a720 80bd 34e4 cb3d
000002d0: bea0 ddbc 6d71 7dbd 95b5 bb3d f00d 4d3d
000002e0: 2f1a a5bc ae0e 313d 1399 3bbd d37b 773d
000002f0: ae1d 163d 7bf8 06bd ed7a 46bd fdf0 673c
00000300: 8745 39bd 91ea 3ebe 000f 273e 21a3 023e
00000310: aa78 253e 9984 acbe 3560 2c3d d083 c43d
00000320: 55ba 623d c285 a6bd 9898 2f3e fcd2 70be
00000330: 8fd2 f63d 3dac 83bd 33b9 083e 6ca8 d6bd
00000340: 2e2f 993d 2ad6 8abd afbb 58bd 86d6 49be
00000350: dc4d 8cbc 500f 023d db76 a2bd 4458 8c3e
00000360: bc20 173d 8c72 583d 0dc9 fcbc 07f5 163e
00000370: b41a 16be 8753 abbc c47b b13d 37a0 bb3d
00000380: d831 e73d 3f41 b5bd 6e0f 4ebd b81e 173e
00000390: cf59 e2bd f0f5 3b3d c4f3 b2be 9659 79bd
000003a0: fcce 2bbc 0763 143e 3c24 0bbd 2d20 f53d
000003b0: 408d 8c3c dd19 1e3d c5ee c93c f22f 48bd
000003c0: 6887 ccbd 05ab 9bbd 6692 c83d 5eac fc3d
000003d0: 42b4 f4bd a254 26bd ff6b 27be ccba a63d
000003e0: 7aaf 03bd c72b fb3d bbc9 023d d86c bb3d
000003f0: 86ed cebc a76a 9a3d 89ca f23d fa69 eabd
0.055326987 0.097604014 0.2062776 0.08123667 -0.048067853 0.019570787 -0.008455601 0.058384366
-0.14446667 0.09257434 -0.07236263 -0.048076384 -0.13625792 -0.13848184 0.09887084 -0.08658987
0.13057643 0.10546859 -0.15856823 0.11369853 -0.05861644 0.09174531 0.15360956 0.01011693
-0.0111834025 0.015141814 -0.16573025 -0.024719024 -0.1228321 -0.036927715 -0.13784766 0.026956752
-0.06885029 -0.14864552 -0.19048837 0.10063526 0.14809296 0.08676379 -0.13273963 -0.05455272
-0.0041026906 -0.026959933 0.023184137 0.093879744 0.118720174 0.024176363 0.010654922 0.02786384
-0.018787049 0.05149144 0.016564172 0.08285788 -0.13616638 0.067275584 -0.09153622 -0.10409669
-0.015140462 0.033023328 -0.06090741 0.07577244 0.009628976 0.08234806 -0.09915704 0.1675582
-0.122973174 -0.4952161 -0.04146468 0.0861153 -0.090281054 0.011752369 -0.059251264 -0.15303482
-0.002087494 -0.02522024 0.1242689 0.0069141756 -0.03941938 0.04684307 -0.036235884 -0.06964662
-0.0088670105 0.0665864 0.042976007 0.12185811 0.03952039 -0.15818086 0.021534795 0.08610348
0.17003763 0.09226588 0.033426203 0.040079936 -0.14928968 -0.16266215 0.043598827 -0.062978595
-0.13601896 -0.12107289 -0.0062290435 -0.031424176 0.02107251 -0.12526217 -0.018436106 0.12280173
0.20186889 0.24530551 0.14486408 0.010718288 0.10354018 -0.0055157063 0.0049650753 -0.04616842
-0.22217795 -0.11612984 -0.07060805 0.1329375 -0.028841265 -0.042229775 0.037103914 -0.12800872
0.1091376 -0.048814505 -0.034717366 0.013991837 0.0613959 0.15007603 -0.043598127 0.040973097
0.115525365 -0.19635941 -0.12076044 -0.16306433 0.1103091 -0.009565947 0.022866573 0.15170535
-0.051947497 0.07761932 0.11865233 -0.035087496 0.046543535 0.07252985 -0.08350428 -0.027462535
-0.055159412 -0.1402724 -0.054075304 -0.11769311 0.016080648 0.1065154 0.045212667 0.07823528
0.010015895 0.1129594 0.015098034 0.052890163 0.00922901 0.06000093 0.07871145 -0.0121338125
0.054230426 -0.101333804 -0.017872885 -0.1691793 -0.6966143 0.16324405 0.16648318 0.14279942
0.18365447 0.032814868 0.010075125 0.13968384 0.18541883 0.15104719 -0.113716066 -0.025347767
-0.057789538 0.023640057 -0.06256228 0.09955636 -0.027054187 -0.06187575 0.091654934 0.05006212
-0.020154087 0.04322689 -0.04580028 0.060420822 0.0366494 -0.032951813 -0.048457075 0.014156577
-0.045232322 -0.18644167 0.16314316 0.12757541 0.16159311 -0.33694914 0.042083938 0.09595454
0.05535348 -0.08130981 0.17148054 -0.23517984 0.120518796 -0.06429336 0.13351898 -0.10481343
0.07479702 -0.0677913 -0.052913364 -0.1971074 -0.01712697 0.031752884 -0.07932826 0.2741109
0.036896452 0.052843615 -0.030857587 0.14741908 -0.14658624 -0.020913852 0.086661845 0.09161418
0.11288804 -0.08850335 -0.050307684 0.14757812 -0.11052286 0.04588884 -0.34951603 -0.06087645
-0.010486361 0.14490901 -0.033970103 0.11969028 0.017157197 0.038598884 0.024649987 -0.04887385
-0.09986764 -0.07600979 0.09793548 0.12337564 -0.11948444 -0.040608056 -0.16349791 0.081410974
-0.03214977 0.12264209 0.031930666 0.0915162 -0.025259744 0.075398736 0.11855037 -0.11445995

critic_body.linear1.bias f4 [224]
00000000: 35d5 93bc 0fd3 30bd 2988 d0bb 8ac1 f7bd
00000010: fa8d 0f3e 74d3 403e c4f9 3cbe c574 923d
00000020: 4db3 223e 2b5b b3bd 9a5d 01be 80a0 da3d
00000030: 3184 cbbd bd4e 28be e940 8f3c 46ed e13d
00000040: e329 8cbd f2a8 02bd 9502 9fbd 0586 26bd
00000050: 82be a3bd 710f 7a3c fe74 0ebd f5b1 0dbe
00000060: d4f5 f6bd 4551 d03c 7984 f33d a87b 09bd
00000070: f4f6 d3ba 22ec a4bd 1eee abbd 11dc a93b
00000080: 195c 8a3d 68fa 2bbd d913 d0bd b0ca 963d
00000090: 4c74 243e bec4 a43c 0807 89bc 8cb2 2abe
000000a0: 0246 8abd 322a d33d 0d26 163d 54b8 553d
000000b0: 7717 d73d 7eab 003e d48b fc3d 592a c3bd
000000c0: 592d a83c 5a4a 30be d505 55bd f182 cb3d
000000d0: 14a1 fdbd 289f 32bd ad05 b3bd 4b39 63be
000000e0: b0ae 4f3d d5c7 28be 88d6 41be a8c1 283d
000000f0: c319 803c 8d00 0fbe d227 80bb 1d99 5e3d
00000100: eb0f 2e3c 0aab 76be b1c5 30be 4cb3 92bd
00000110: 3497 bfbd ed78 33bd 4f12 e0bd 6dcb c4bc
00000120: 4c09 673d 6ad0 f4bd 59cb 843b 97d2 1c3e
00000130: 50ab 31be da52 d33d 9070 b3bd 970d 20bd
00000140: 86bb debd 9495 ccbc c2cd 2cbd 6277 e2bd
00000150: b4af 03be 7c5a 443d 1d99 a3bd c849 1a3d
00000160: 62f0 b7bd 1ab4 ae3c 85c0 143e 7076 b2bc
00000170: 0a11 bcbd 4f03 683e f4e4 a63d a7ba ffbd
00000180: 93a2 b53c db88 acbd 22d4 d33d 1c32 993d
00000190: 8edf 92bc 586f aabd 8a0b 3f3d aa9b d6bc
000001a0: 0dd1 803d 5a3c 573e 839e 083e 62ab 27be
000001b0: 26f6 d5bc bc77 4abe fb5b 64be b26f 493e
000001c0: 7e49 00be 1c71 68bd 8142 8c3d 660d 3abe
000001d0: ffd4 813d fbf1 60be 3d32 6a3c 11ba 04be
000001e0: 6c6b 583e 98dd b7bd 8777 c1bd b2f9 2ebe
000001f0: 2fdd 143e 2223 afbd 7fc3 913d e5a2 813d
00000200: 685d 99bd b17b febd 3dd6 9dbc e523 d83d
00000210: bf33 1b3e 6385 86be 2eab 91bb 9643 353d
00000220: 2897 af3d 165e bfbd b33f 3e3e 8ee5 423b
00000230: 87ba 5d3e ec04 19be 64c9 9d3d 3fb5 2ebe
00000240: 62c1 74bd 187d 0d3c c940 cfbd 9d8e 5fbc
00000250: 024c 013d 5fa2 2cbe 64e7 e9bd 15f2 f93d
00000260: 482f 0ebe d47d 6dbd c84b 163d 38a9 d83d
00000270: 016c b6bd 4ff2 633e 5d8e 8bbd 8b56 03bc
00000280: 3a62 013e 1721 0b3d 3c5d f43d 12fc f0bd
00000290: 8137 11be fad7 3e3e d1eb 07be 0d18 01bd
000002a0: de17 a5bd ba45 63bb 020d 083e 62be b03d
000002b0: f0f1 3dbd aef0 debd 141f 1bbe 97db a8b9
000002c0: 599b 9d3d 9c4d cbbc 1a17 543e ea8c c9bd
000002d0: 3c2d b93c f272 26be c47b 1ebe 6a72 f3bd
000002e0: 4be8 94bc 8116 2f3e b531 0d3e 8a2e 89bc
000002f0: cbab fd3d e072 31bc 759b 19be 78f1 be3c
00000300: 4497 80bc 11c3 923c 86f2 54bc 1e84 aebd
00000310: b7a9 863d a70c c8bd 8468 8dbe e05d 9c3d
00000320: 46d0 473e 967a 2cbe 6688 f73c 74f9 2cbe
00000330: 239c 533e 09db 58bd 663d cbbd 287f 73bd
00000340: 561b 2dbe 4297 483e 0fc6 f3bc 094d c73d
00000350: fd36 013e 4beb 1b3e a0e9 353e 5c86 8a3b
00000360: 61cf f9bd 470a 10be 1f32 8abd 4452 35be
00000370: 6cdf 303e 082a 80bc 80e9 8f3d 94f6 07be
-0.018046001 -0.04317003 -0.006363888 -0.120974615 0.14019004 0.18830663 -0.18454653 0.07151178
0.1588871 -0.08757623 -0.12633362 0.10675144 -0.09937323 -0.16436286 0.017487006 0.110315844
-0.06843927 -0.0318994 -0.07764164 -0.040655155 -0.07995321 0.015262471 -0.03477954 -0.13837416
-0.12058607 0.025429377 0.118905015 -0.033565193 -0.001617162 -0.08052851 -0.083950266 0.0051837047
0.067558475 -0.041986853 -0.10160036 0.07362878 0.16059989 0.020113345 -0.016726986 -0.16669673
-0.06751634 0.103107825 0.03665738 0.052177742 0.105025224 0.12565419 0.123313576 -0.095295615
0.020529436 -0.17215863 -0.052007515 0.099370845 -0.12384239 -0.043608814 -0.08741317 -0.22189824
0.050703704 -0.1648248 -0.18929493 0.04120031 0.015637284 -0.13965054 -0.003910997 0.05434524
0.010623912 -0.24088684 -0.17262913 -0.071631044 -0.093550116 -0.043816496 -0.10940992 -0.024022782
0.05640535 -0.11953814 0.0040525612 0.15314709 -0.17350507 0.10318537 -0.08761704 -0.03907546
-0.10875611 -0.024973668 -0.042188413 -0.11057927 -0.12859994 0.047937855 -0.079881884 0.03766802
-0.08981396 0.021326113 0.14526565 -0.021784991 -0.091829374 0.22657512 0.08149138 -0.12486773
0.022172248 -0.084245406 0.103431955 0.07480261 -0.017928865 -0.083220184 0.046641864 -0.026197273
0.06289873 0.21019116 0.13341717 -0.16373971 -0.02611835 -0.19772238 -0.22300713 0.19671515
-0.12528035 -0.056748495 0.06848622 -0.18169174 0.06339454 -0.21967308 0.014294204 -0.12961604
0.21134728 -0.089778125 -0.09446626 -0.17087439 0.145375 -0.08551623 0.07117366 0.06329898
-0.07488519 -0.12425936 -0.019267196 0.10553721 0.15156458 -0.2627364 -0.004445455 0.044253908
0.08573753 -0.09344117 0.18578987 0.0029738876 0.21653186 -0.14943284 0.07704428 -0.17061327
-0.059754737 0.008635782 -0.10119779 -0.0136448415 0.031566627 -0.16858815 -0.114210874 0.122043766
-0.13885224 -0.057981327 0.036693364 0.10579151 -0.08907319 0.22260402 -0.06814263 -0.008016239
0.12635127 0.033967104 0.119318455 -0.117668286 -0.1418133 0.18637076 -0.1327355 -0.031517077
-0.08061193 -0.0034679011 0.13286212 0.08630063 -0.046373308 -0.1088575 -0.15148574 -0.00032207064
0.07695646 -0.02481728 0.20711938 -0.0984133 0.022604577 -0.16254786 -0.154769 -0.11887057
-0.018177172 0.17098428 0.13788493 -0.016745824 0.123862825 -0.010830611 -0.15000708 0.0233085
-0.01569713 0.01791528 -0.012997275 -0.08521293 0.06575339 -0.09768038 -0.27618802 0.07635093
0.19513044 -0.16843638 0.030216407 -0.16892034 0.2066503 -0.052943263 -0.0992382 -0.059447438
-0.16904959 0.1958895 -0.029757528 0.0973149 0.12618633 0.15226476 0.17764902 0.0042274427
-0.121977575 -0.1406642 -0.06747841 -0.17707163 0.17272729 -0.015645042 0.070269585 -0.13277656

critic_body.linear2.weight f4 [224, 224]
00000000: cf28 6dbd b876 23bb e8ec b13d c9c1 2bbd
00000010: 2199 6c3d 9e6a 113d 136a 893b a5e5 703c
00000020: f269 05bd ed40 00bc ef5a 4dbd ff7c 6abd
00000030: c5b4 65bc 7af1 50be 6643 b13a 79a3 a6bd
00000040: 24f6 ad3d d5f0 5fbd 0bec e63c e040 b7bc
00000050: dafc b0bc 11eb be3c f327 0a3d f8d9 63bd
00000060: 9efd 8f3c 01cf 2e3d 9fd3 093c ccfb b33c
00000070: da7c 82bd efb2 9abd 4a92 663b 63e6 60bd
00000080: b646 6ebd dfbf 2bbd 8ff9 753c d0c5 333d
00000090: bb60 46bd d343 2b3d dce5 f13c 4037 d7bd
000000a0: 26e9 d6bb be17 a93c f749 6fbd 9869 6abd
000000b0: 4ba5 eb3c 94d2 1a3d ec12 25bd 7e90 343d
000000c0: 08ec 793b e1a3 0cbd 59d3 3d3d 7945 333d
000000d0: 0006 2f3d 9602 d5bd 85d6 b13d 132d 4b3d
000000e0: 14f7 343c 28b8 983d 3ffd 12bc 17b6 bd3c
000000f0: fa61 1dbd f867 f9bc d140 803b d0bd e1bd
00000100: bce8 0fbd 6e2c abbd 20a5 85bc 2230 e3bc
00000110: 8573 7abc 1810 1ebd d2a5 bfbb cc67 81bd
00000120: 1305 e8bc de41 1a3d 18d7 9f3c 13e0 8c3d
00000130: a8d2 2c3c ff54 733d 3c12 4abd 0494 b63d
00000140: 33e5 4d3d f000 99bd 030c f7bc 36a0 c3bc
00000150: e10c 993c aa06 40bd 03d3 0dbd fa87 fd3a
00000160: 781d b03c 7a5a 783c 07d5 bb3c 76bb 3bbd
00000170: 948a 603d 600e 8f3d 700f 94bd 4052 923b
00000180: b8b4 a83d 0562 493d 34a5 cdbc 699d 9d3c
00000190: cc83 23bc a000 52bc fc23 0a3d 47dc 333d
000001a0: 26a7 943c f98a ac3c f038 0e3d 4663 27be
000001b0: b15e 0f3d 78f1 7abd ef34 1f3d 4d09 91bc
000001c0: 523b 1d3d d5de 863d 8bdf 9cbc 713b 17bd
000001d0: 40b2 e83c 09f1 2d3d 8abb 6fbd 9067 6dbd
000001e0: 09e0 d53c acf7 e8bc 171a 1dbe d366 433c
000001f0: df1a 6ebc ff1b 44bd 2b79 1d3c 237c 31bd
00000200: 4f79 c33c 4e30 dcbc 45cf 0cbc 3bf5 d2bd
00000210: ef3e a3bc 0d57 51bd 8f7e 83bd 112d 053d
00000220: a0f0 253d 8358 1b3c 3498 4ebd 7363 0ebd
00000230: 8d82 24bd 2aac b53c 1177 fa3c 0ac9 963d
00000240: 0513 a63d 97eb 8cbe 781d 353d 6682 e53b
00000250: 38e2 cd3b db6b 97bd 4725 673d 8c1a 143d
00000260: 6cd4 cb3d eb92 413c c0bb 8d3d 806e 2dbd
00000270: c88c c8bc 942e 19be cdd2 1abd cd2a 6d3d
00000280: fb5c f2bc 16c4 85bd 1c47 7abd 6e20 1c3d
00000290: e308 6bbc 1c97 ae3d b26c 90bd cc16 e7bd
000002a0: b963 c43a ae4e e83d b5be 143d 771a ec3c
000002b0: a02a 5d3c b36e 05bc b8b9 743b 4933 4d3d
000002c0: e640 a8bd e8cf fdbc 2a9c 27bd 6be3 a23d
000002d0: ec6c 933c 7305 753c 8565 9dbd 3baf 97bd
000002e0: 881c dc3b e10f 8cbd e8be 7dbd 13ea 34bc
000002f0: 06da 23bd 3d8d 583d d150 903d 1667 603c
00000300: 9b0b 483d b088 61bc 0f8d 533d eae7 b93c
00000310: 1ba4 c2bc 6fc6 8a3d 613a 493c c6c7 543c
00000320: 7bc8 143d 9e94 e8bc 52e0 0e3d b841 9e3d
00000330: 8472 883a 8fa4 b1bc 663a 18bd 7441 383d
00000340: 9aef f23d 90a1 3c3d b8cd b33c 53eb 1f3d
00000350: 889d 123d c9b0 7e3d acf1 f0bd 4852 0abc
00000360: 4877 98bc 2c1c c7bc 41e6 6bbd 921d 953d
00000370: ed0d 2d3d 68e5 883c c96d 47bd 2e0d 49be
00000380: fab0 52bd 7465 61bd 06eb f53c 2ac0 9ebb
00000390: 4efc edbd 5293 0bbe 6186 1ebe 2d37 aabc
000003a0: 0ee8 a8bd ad96 d4bc a712 263a c626 013d
000003b0: bf31 00bd 633d 89bd d8b7 993c 1a26 ccbc
000003c0: b59a a8bd 466f d03d 6fe4 e13a 2b62 c23c
000003d0: 075e 87bd 0499 90bd 1cae c8bd 82c2 56bd
000003e0: 9e25 88bd afd1 a4bc 21b2 25bc c974 963c
000003f0: 37c5 b93d 054e 55be e6a3 35bc c8e5 26bd
-0.057900246 -0.0024942588 0.086877644 -0.041932855 0.057763223 0.03550207 0.0041935532 0.014703189
-0.03257174 -0.0078279795 -0.05013555 -0.05724811 -0.01402015 -0.20404616 0.0013524115 -0.08136649
0.08494213 -0.054673035 0.028188726 -0.022369802 -0.021604944 0.023305448 0.033729505 -0.055627793
0.017576989 0.042677883 0.008412271 0.021970652 -0.0637147 -0.0755366 0.003518241 -0.054907214
-0.058172904 -0.04193103 0.015013113 0.04388982 -0.048432093 0.04181273 0.02952855 -0.10508585
-0.006558555 0.020641204 -0.058420148 -0.05722961 0.028765341 0.03779848 -0.04030125 0.04408311
0.003813507 -0.034335975 0.046344135 0.043767426 0.04273033 -0.10400884 0.086834945 0.049603533
0.011045236 0.07457 -0.008971511 0.023158116 -0.038423516 -0.030445084 0.0039139767 -0.11022532
-0.035134062 -0.08358084 -0.01631409 -0.027732912 -0.015286331 -0.038589567 -0.0058486247 -0.06318626
-0.028322732 0.037660472 0.019511744 0.06878676 0.010548271 0.05940723 -0.049333796 0.089149505
0.05026741 -0.07470882 -0.030157095 -0.023880105 0.018682899 -0.046881355 -0.034625065 0.0019342892
0.021498427 0.01515829 0.022928728 -0.045833074 0.05481966 0.06985164 -0.07229507 0.0044653714
0.08237594 0.049165744 -0.025103189 0.019240098 -0.009980153 -0.012817532 0.033725724 0.043911245
0.018146109 0.021062361 0.03472227 -0.16346464 0.035002414 -0.06126544 0.03886884 -0.01770463
0.03838665 0.065854706 -0.019149562 -0.036921922 0.028405309 0.042466197 -0.05852846 -0.057960093
0.026107805 -0.028438412 -0.15341984 0.011926371 -0.014532774 -0.04787826 0.009611408 -0.043331277
0.023861555 -0.026878502 -0.008594339 -0.1030068 -0.01992747 -0.05110841 -0.064206235 0.03251368
0.04051268 0.009481552 -0.05043812 -0.03476281 -0.040163565 0.02217682 0.030574353 0.07362564
0.081090964 -0.2752349 0.044217557 0.00700407 0.006283071 -0.07393619 0.056432035 0.03615813
0.09952626 0.011814813 0.06920576 -0.04234171 -0.024481192 -0.14959174 -0.03779869 0.057902146
-0.029585352 -0.06531541 -0.06110297 0.038116865 -0.0143453805 0.085249156 -0.07051982 -0.11283645
0.0014983333 0.11343132 0.036314685 0.028821213 0.013498932 -0.0081440685 0.0037342142 0.050097737
-0.082155034 -0.030982926 -0.040920414 0.07953533 0.017996274 0.0149549125 -0.07685379 -0.074064694
0.0067172684 -0.06838966 -0.06194964 -0.011042136 -0.040002845 0.05286907 0.070466645 0.013696453
0.048839193 -0.013765499 0.051648196 0.022693593 -0.023759892 0.067761295 0.012281985 0.012987083
0.036324006 -0.028391179 0.034881897 0.077273786 0.0010410105 -0.021684913 -0.037165068 0.044984296
0.118621066 0.046052516 0.02194868 0.039042782 0.035794765 0.062180314 -0.11764845 -0.008442469
-0.018611565 -0.024305426 -0.057592634 0.07281031 0.04224961 0.016710952 -0.048688684 -0.19633934
-0.05143831 -0.055028394 0.030019294 -0.004844685 -0.11620389 -0.13630417 -0.15480949 -0.020778263
-0.08247386 -0.025950754 0.0006335177 0.031531118 -0.03129744 -0.06701162 0.018764421 -0.024920512
-0.08232633 0.10177474 0.0017234216 0.02372845 -0.06609731 -0.070604354 -0.09798834 -0.05243159
-0.066478 -0.020119516 -0.01011327 0.018366234 0.09070819 -0.20830543 -0.01108644 -0.04074648
