reacher-ppo/models/ppo-max-hiddensize-96.pth (torch_old, 104722 bytes, 12 tensors)

std f4 [1, 4]
0.94679683 0.8819976 0.26404753 0.3713004
00000000: 4761 723f 98ca 613f 3d31 873e 161b be3e

actor_body.linear1.weight f4 [96, 33]
0.107944556 0.12627396 0.2579283 0.13469706 -0.12948747 0.04964628 0.076453745 0.08668054
-0.054518443 0.0012070022 0.08827047 0.026570681 -0.030980747 -0.007339389 -0.1079648 -0.087865464
-0.010082885 -0.06460192 -0.15307437 0.060957007 0.00963822 -0.1160594 0.0060285158 0.09168014
-0.22790283 -0.012100542 0.08119057 0.075765595 -0.18333961 0.041762874 0.022472272 -0.0696619
-0.37834015 -0.06855306 0.12180668 -0.011888453 -0.0634229 0.019247167 -0.0803883 0.017883817
0.17302197 0.13543382 0.044307813 0.04479698 0.029675266 0.080579594 -0.21767761 -0.13390036
0.07996909 -0.0550437 0.116142996 -0.10227135 0.036773715 0.09204194 -0.030431947 -0.053981278
0.07005146 -0.030296173 0.14017507 0.1474679 -0.08333939 0.14937004 -0.040320873 -0.0015382307
0.14136419 0.5875134 -0.12758939 -0.11448135 -0.35172805 0.12966695 0.13912997 -0.05437549
-0.23594823 0.030572776 -0.07893338 0.077952586 -0.13057919 -0.04275064 -0.08569807 -0.07239883
-0.19485156 0.15828629 -0.104343854 0.041360743 -0.11419256 -0.10306531 -0.10645799 0.11547863
0.14538749 -0.040378697 -0.13909481 -0.035453677 0.097578906 -0.017178213 0.13291506 0.079634786
0.12512872 -0.109642796 0.2656528 -0.055676103 -0.06760474 0.10542527 -0.14890905 0.24153721
0.034302484 0.2563913 -0.08698306 -0.11921423 0.20598371 0.1390873 0.19335279 0.12696555
0.002082623 0.041181635 0.0784436 -0.011631442 0.21073413 -0.04997099 -0.0030912366 -0.21537255
-0.2096695 -0.0003290379 0.13307655 0.08969061 -0.1868613 0.07289182 0.11859125 -0.031909786
0.002285555 -0.021680463 -0.0325315 0.09114384 0.016393807 0.06882029 -0.10015378 0.20266971
-0.09774462 -0.22108863 0.051757317 0.034282953 0.15140644 -0.035299495 0.1918384 0.15185805
0.013531209 0.15844306 0.06502284 0.13750277 -0.13734786 0.18278083 -0.06016478 0.0014613479
-0.01359545 -0.07035846 -0.14912036 0.06554164 -0.13407412 0.036443986 0.15637307 -0.18694708
-0.20399134 -0.09745725 -0.022216856 -0.02437675 0.49167928 0.044382095 -0.067519076 -0.0672342
0.23970334 -0.06339341 -0.11764357 0.030342462 0.16336738 -0.10761302 -0.10622518 0.16801263
0.17335396 -0.24564183 0.02010981 0.21435355 0.15715572 -0.2492083 -0.04102086 -0.041222267
-0.16635975 -0.10413252 -0.025656039 -0.0002727482 -0.019624896 0.2026955 0.11670714 0.092716694
-0.20666592 -0.16462283 -0.08901848 0.08867253 -0.037614316 0.48303574 -0.00927087 -0.06422983
0.21966924 0.093100704 -0.16460587 -0.0058535826 0.22587833 0.014072007 -0.13783844 -0.1922413
-0.09434666 0.12637523 -0.14367868 0.16751333 -0.0673692 -0.10643181 0.12737869 -0.06762525
0.14709245 0.0017156898 -0.09416547 -0.1252088 0.16135482 -0.044042777 -0.11048603 -0.16931218
0.17799181 -0.12274247 -0.010959983 0.16593856 0.15072423 -0.023267835 -0.23252285 -0.3252016
-0.0653686 -0.22898881 0.043751523 -0.16257347 0.11868072 -0.1041613 -0.011820452 0.16204502
-0.15481794 -0.045583647 -0.058616627 0.16109963 0.06997974 -0.21191192 0.11425931 0.050480492
0.14628011 -0.059693187 0.052944545 -0.062469147 0.10809776 -0.090352096 -0.071959026 0.07844556
00000000: 0912 dd3d f64d 013e 2e0f 843e 07ee 093e
00000010: 5d98 04be e659 4b3d c893 9c3d 9185 b13d
00000020: bb4e 5fbd 4634 9e3a 26c7 b43d c2aa d93c
00000030: 56cb fdbc 427f f0bb a61c ddbd cff2 b3bd
00000040: af32 25bc 034e 84bd 87bf 1cbe 0eae 793d
00000050: a0e9 1d3c 8db0 edbd db8a c53b ccc2 bb3d
00000060: 5c5f 69be 5a41 46bc 3e47 a63d fe2a 9b3d
00000070: 61bd 3bbe 8c0f 2b3d c517 b83c e6aa 8ebd
00000080: cdb5 c1be 8c65 8cbd c875 f93d c9c7 42bc
00000090: dee3 81bd 3cac 9d3c 9fa2 a4bd 1581 923c
000000a0: ac2c 313e 2aaf 0a3e 1c7c 353d 0a7d 373d
000000b0: 8b19 f33c ea06 a53d e1e6 5ebe 2d1d 09be
000000c0: d6c6 a33d 8175 61bd 61dc ed3d a473 d1bd
000000d0: 09a0 163d 7c80 bc3d 6b4c f9bc 791b 5dbd
000000e0: 2477 8f3d ae2f f8bc 0e8a 0f3e d301 173e
000000f0: d8ad aabd 76f4 183e 8027 25bd 759e c9ba
00000100: c6c1 103e 4767 163f cba6 02be 3375 eabd
00000110: b315 b4be 6ac7 043e 1678 0e3e d5b8 5ebd
00000120: 6a9c 71be c273 fa3c d3a7 a1bd 9ba5 9f3d
00000130: 8db6 05be 4c1b 2fbd 7882 afbd d645 94bd
00000140: 2b87 47be cd15 223e 3bb2 d5bd e269 293d
00000150: cadd e9bd e813 d3bd a606 dabd 0f80 ec3d
00000160: 75e0 143e 2264 25bd df6e 0ebe e037 11bd
00000170: 73d7 c73d 53b9 8cbc e31a 083e 9017 a33d
00000180: be21 003e 678c e0bd a503 883e a00c 64bd
00000190: 5b74 8abd 34e9 d73d 9d7b 18be 8855 773e
000001a0: c380 0c3d b845 833e 2d24 b2bd 9726 f4bd
000001b0: 65ed 523e e76c 0e3e 46fe 453e 4203 023e
000001c0: 9e7c 083b 13ae 283d 0aa7 a03d ce91 3ebc
000001d0: b0ca 573e 61ae 4cbd 5896 4abb 9f8a 5cbe
000001e0: 9ab3 56be b882 acb9 3845 083e b6af b73d
000001f0: 9258 3fbe 4e48 953d f8df f23d d6b3 02bd
00000200: 40c9 153b 3a9b b1bc c03f 05bd 9fa9 ba3d
00000210: 4e4c 863c a7f1 8c3d 6d1d cdbd a688 4f3e
00000220: 552e c8bd 0f65 62be 7bff 533d 486c 0c3d
00000230: 4a0a 1b3e 3496 10bd 4971 443e ad80 1b3e
00000240: 01b2 5d3c e63e 223e b22a 853d 87cd 0c3e
00000250: eba4 0cbe e62a 3b3e 586f 76bd b38a bf3a
00000260: 73bf 5ebc 1918 90bd 02b3 18be b23a 863d
00000270: ba4a 09be 4a46 153d 4320 203e 0e6f 3fbe
00000280: 1be3 50be ab97 c7bd 2000 b6bc c0b1 c7bc
00000290: 63bd fb3e 00ca 353d 7147 8abd 16b2 89bd
000002a0: cb74 753e 67d4 81bd 1def f0bd c190 f83c
000002b0: c749 273e 3764 dcbd 968c d9bd 810b 2c3e
000002c0: b383 313e 8889 7bbe 54bd a43c 7f7f 5b3e
000002d0: 6eed 203e 7630 7fbe 7d05 28bd aed8 28bd
000002e0: 365a 2abe 6e43 d5bd 9d2c d2bc a5ff 8eb9
000002f0: 64c4 a0bc 698f 4f3e 2704 ef3d 40e2 bd3d
00000300: 3ba0 53be e392 28be 524f b6bd f299 b53d
00000310: 7811 1abd 7650 f73e d9e4 17bc ee8a 83bd
00000320: f9f0 603e 95ab be3d 718e 28be 69cf bfbb
00000330: a64c 673e 468e 663c 8525 0dbe e7da 44be
00000340: d238 c1bd 8268 013e 8120 13be 9d88 2b3e
00000350: ddf8 89bd ecf8 d9bd 8f6f 023e 1b7f 8abd
00000360: 679f 163e ffe0 e03a d3d9 c0bd bc36 00be
00000370: 333a 253e 3366 34bd 8046 e2bd 2c60 2dbe
00000380: 7c43 363e 6760 fbbd 8091 33bc cceb 293e
00000390: 7457 1a3e 309c bebc 781a 6ebe d380 a6be
000003a0: f9df 85bd 0b7c 6abe cc34 333d a979 26be
000003b0: e10e f33d 8552 d5bd 92aa 41bc 21ef 253e
000003c0: 9888 1ebe ebb5 3abd fd17 70bd 4df7 243e
000003d0: 8a51 8f3d 70ff 58be c900 ea3d a2c4 4e3d
000003e0: 74ca 153e d880 74bd 61dc 583d a6df 7fbd
000003f0: 5c62 dd3d 850a b9bd 415f 93bd 11a8 a03d

actor_body.linear1.bias f4 [96]
-0.0018410323 -0.1466737 0.009106897 0.0069328323 -0.08898298 0.22766446 -0.015022801 -0.1426061
-0.04675665 -0.06411325 0.08237917 0.096043535 -0.14719346 0.050800174 -0.07604691 -0.016599536
0.18879335 0.06558965 -0.0017828658 0.0445005 0.2028624 0.12821512 -0.14463462 0.0810495
0.19593301 -0.03510943 -0.021360306 0.031014692 0.19858937 0.05201251 -0.14762767 0.024648394
-0.016622039 0.060556 0.23946321 0.006876188 0.07601057 -0.14250158 -0.01600616 -0.004157284
-0.12237471 0.11980623 -0.058932845 0.09668119 -0.13562372 -0.13473894 0.006574328 0.07633878
-0.038453165 -0.16398223 -0.063892104 0.16847561 -0.041047245 0.033968486 -0.02899914 0.041976884
0.108802155 -0.016252631 0.21778727 -0.18036783 -0.018303445 -0.11075276 0.056737196 0.117161766
0.09747048 0.0061681056 -0.094150156 0.031707514 -0.10590771 0.03981646 0.09860144 -0.067062855
-0.07333901 0.04599662 0.15404609 0.022170763 0.029135084 -0.050131608 0.056849796 0.05440998
-0.10668693 0.19507405 -0.04731843 0.033669148 0.13459405 0.12684044 -0.09087169 -0.10707523
0.08780093 0.14714706 0.077065855 -0.16424699 -0.113952324 0.03637046 0.08727591 -0.07867622
00000000: cb4e f1ba a131 16be 1835 153c d02c e33b
00000010: b53c b6bd df20 693e 3222 76bc 5507 12be
00000020: e783 3fbd cf4d 83bd 69b6 a83d 79b2 c43d
00000030: e2b9 16be d813 503d 7bbe 9bbd c0fb 87bc
00000040: 0b53 413e de53 863d 0daf e9ba 2846 363d
00000050: 29bb 4f3e d34a 033e 191b 14be 48fd a53d
00000060: aaa2 483e e8ce 0fbd cffb aebc 8612 fe3c
00000070: 035b 4b3e 120b 553d b52b 17be 6eeb c93c
00000080: f12a 88bc 9109 783d d835 753e a551 e13b
00000090: 6eab 9b3d efeb 11be 5a1f 83bc d339 88bb
000000a0: 989f fabd f85c f53d 9163 71bd ca00 c63d
000000b0: f2e0 0abe 01f9 09be 766d d73b 8257 9c3d
000000c0: 1181 1dbd f5ea 27be ddd9 82bd df84 2c3e
000000d0: 2821 28bd 8a22 0b3d 9b8f edbc f4ef 2b3d
000000e0: aad3 de3d 3d24 85bc a003 5f3e 58b2 38be
000000f0: 1bf1 95bc 58d2 e2bd 4365 683d 82f2 ef3d
00000100: 9a9e c73d d21d ca3b ccd1 c0bd bddf 013d
00000110: 24e6 d8bd 9616 233d 8def c93d 4058 89bd
00000120: c332 96bd f466 3c3d 42be 1d3e 769f b53c
00000130: b3ac ee3c cd56 4dbd 55db 683d 00dd 5e3d
00000140: ad7e dabd 7ec1 473e f8d0 41bd a9e8 093d
00000150: 06d3 093e 76e2 013e f01a babd 424a dbbd
00000160: f9d0 b33d b8ad 163e b4d4 9d3d 5d30 28be
00000170: d65f e9bd 31f9 143d b6bd b23d ff20 a1bd

actor_body.linear2.weight f4 [96, 96]
-0.0985783 -0.045554318 0.051824465 -0.0031475984 0.08777299 0.05827198 -0.00059707806 -0.037136093
-0.007679393 0.013384153 0.0061075035 0.026767388 0.010616381 0.1050706 -0.0032979297 -0.06504334
-0.12926303 -0.07081499 -0.08063309 -0.002725223 0.06875911 0.08725066 0.011596225 0.108063966
0.004202707 0.043551303 -0.04100593 0.016106388 -0.006715097 -0.0031089098 0.041835923 0.13702081
-0.00032828614 0.087233104 0.21191792 -0.05304976 0.1787595 0.1541127 -0.047685537 0.13331182
-0.21011192 -0.22547878 0.065773726 0.012429426 -0.057786185 0.115325436 0.066831574 -0.06552507
0.036606986 0.08734733 0.10404271 0.18606913 -0.09794851 0.063927144 0.16286077 -0.05080979
0.27683964 -0.03970446 -0.03877727 -0.068103686 -0.06083906 0.062634036 -0.055126596 -0.08529611
0.08165333 -0.0986134 -0.11793745 -0.03938592 -0.0042143706 0.067780316 -0.08123328 0.10880788
0.08448057 -0.07184391 0.02420623 0.10708041 0.12817983 -0.037582073 -0.026984999 0.10717694
0.024503775 0.03375292 0.12054759 -0.1460827 0.12443766 -0.08617719 -0.04985793 0.03666949
0.06806425 0.13706566 0.08581028 0.09078947 -0.022159027 -0.19534057 -0.08686825 -0.0076708207
0.110355176 0.08903511 -0.04477841 0.023115536 -0.023005137 0.09178873 -0.06750594 0.006555864
-0.09770912 0.02031704 -0.12149846 -0.03140974 -0.12264012 0.0020157306 0.17279026 0.1507601
0.042529274 0.056677837 0.10947405 0.08334911 0.17779669 0.022089398 0.06165957 0.01696993
0.048106425 0.018700488 -0.07762478 0.049826827 0.19448404 -0.03522847 0.07163982 0.014252333
0.08464693 -0.003494069 -0.067439705 -0.08234751 -0.03651787 0.00602671 0.043670874 0.02355593
0.008938716 0.09008427 -0.018943971 0.14551409 -0.12226427 0.02935818 0.038800042 0.10200539
0.041982803 0.023083001 0.026200047 -0.025062619 -0.0188448 -0.06332635 -0.22412755 -0.029227428
-0.09891406 -0.090400115 -0.060664486 0.066608205 0.13204171 -0.01468813 0.032343186 0.002109167
-0.04892142 0.022387316 0.008036207 -0.009510357 0.061011076 -0.022433305 -0.0629362 0.033603024
-0.069554135 0.08331761 -0.08225677 -0.08028534 -0.07838947 0.073999755 0.0756342 -0.029229058
-0.094586045 -0.12669009 -0.050689775 0.15771313 0.0084304 0.059220236 -0.05673433 -0.05923886
0.09202632 -0.06062375 -0.0013170373 -0.016217865 0.11508058 0.16592689 0.023344476 0.06999541
0.01397434 -0.025795322 -0.042905338 0.094480604 -0.079623885 -0.16702193 -0.016649824 -0.1228176
0.0017054657 0.10146255 -0.21535046 0.005130901 0.017538046 -0.028709192 -0.03774946 0.0006818064
0.13646191 0.09114069 -0.013922685 -0.10249388 0.113851845 -0.03090106 0.1425052 0.05942766
-0.13376546 -0.06554267 -0.048075568 -0.029213361 0.002672419 -0.036623154 -0.029975673 0.12608969
-0.035696324 -0.038363837 -0.14401595 0.040974353 0.08405127 0.04767471 0.08547498 0.0036522562
0.10975599 -0.07558059 -0.04907084 0.033952862 0.089357734 -0.011413912 0.07753965 0.038751878
0.10611657 0.020406067 0.13144644 -0.10136325 -0.00062645524 -0.08597909 0.038405363 0.058259994
0.14583762 -0.02639529 0.03451282 -0.028962506 0.08559415 0.18198328 -0.071261786 -0.071130745
00000000: 6be3 c9bd 2a97 3abd e445 543d f047 4ebb
00000010: 53c2 b33d 9aae 6e3d 3b85 1cba 041c 18bd
00000020: 6ba3 fbbb 3549 5b3c 7421 c83b 4847 db3c
00000030: 54f0 2d3c 412f d73d 1422 58bb 7135 85bd
00000040: 875d 04be 7307 91bd f622 a5bd a899 32bb
00000050: 94d1 8c3d 79b0 b23d 18fe 3d3c a450 dd3d
00000060: ddb6 893b da62 323d d6f5 27bd 8bf1 833c
00000070: 510a dcbb dabe 4bbb 255c 2b3d 2f4f 0c3e
00000080: d21d acb9 45a7 b23d 0301 593e b54a 59bd
00000090: bb0c 373e b8cf 1d3e e951 43bd e582 083e
000000a0: 9427 57be e9e3 66be 60b4 863d cba4 4b3c
000000b0: 35b1 6cbd be2f ec3d fede 883d 0232 86bd
000000c0: 35f1 153d 28e3 b23d 5814 d53d e888 3e3e
000000d0: 3a99 c8bd 3cec 823d f9c4 263e ed1d 50bd
000000e0: edbd 8d3e 25a1 22bd ead4 1ebd f279 8bbd
000000f0: 6132 79bd 4646 803d 6dcc 61bd baaf aebd
00000100: dc39 a73d d2f5 c9bd 3189 f1bd 2153 21bd
00000110: b418 8abb 68d0 8a3d a25d a6bd aad6 de3d
00000120: 2604 ad3d e622 93bd 254c c63c f94c db3d
00000130: 9341 033e a9ef 19bd a50f ddbc 957f db3d
00000140: 24bc c83c 8040 0a3d a8e1 f63d b496 15be
00000150: 2cd9 fe3d ab7d b0bd d437 4cbd bf32 163d
00000160: 4565 8b3d f15a 0c3e 4dbd af3d d4ef b93d
00000170: d986 b5bc 5c07 48be fbe7 b1bd 825b fbbb
00000180: e501 e23d 0a58 b63d 9169 37bd cb5c bd3c
00000190: 4575 bcbc bbfb bb3d 8e40 8abd 93d2 d63b
000001a0: b81b c8bd ec6f a63c 2fd4 f8bd 80a7 00bd
000001b0: be2a fbbd 591a 043b eeef 303e db60 1a3e
000001c0: 2d33 2e3d 0527 683d ee33 e03d f0b2 aa3d
000001d0: 5610 363e d3f4 b43c bf8e 7c3d 8604 8b3c
000001e0: 3e0b 453d c431 993c bef9 9ebd 3717 4c3d
000001f0: d326 473e ba4b 10bd e6b7 923d 9e82 693c
00000200: 5f5b ad3d c0fc 64bb d41d 8abd d0a5 a8bd
00000210: c393 15bd b57b c53b 3be0 323d 5ef8 c03c
00000220: b173 123c 1a7e b83d 6330 9bbc a501 153e
00000230: b165 fabd 9180 f03c cbec 1e3d 34e8 d03d
00000240: 29f6 2b3d 9018 bd3c 7ba1 d63c 1f50 cdbc
00000250: 6960 9abc 3fb1 81bd b181 65be 5c6e efbc
00000260: 7493 cabd b223 b9bd 537b 78bd e269 883d
00000270: f135 073e 7ba6 70bc 4a7a 043d f339 0a3b
00000280: d461 48bd 9b65 b73c 4caa 033c 54d1 1bbc
00000290: c0e6 793d 0dc6 b7bc b2e4 80bd 53a3 093d
000002a0: 6672 8ebd 6ca2 aa3d 3d76 a8bd a46c a4bd
000002b0: a98a a0bd 2f8d 973d 1ae6 9a3d c771 efbc
000002c0: 54b6 c1bd 0cbb 01be 15a0 4fbd 8d7f 213e
000002d0: a91f 0a3c eb90 723d 4262 68bd 72a4 72bd
000002e0: 4c78 bc3d 9c50 78bd 70a0 acba 54db 84bc
000002f0: 5eaf eb3d bde8 293e ea3c bf3c c159 8f3d
00000300: a1f4 643c b650 d3bc 82bd 2fbd 0c7f c13d
00000310: d911 a3bd cc07 2bbe 3665 88bc cb87 fbbd
00000320: ef89 df3a 99cb cf3d d584 5cbe 1e21 a83b
00000330: f3ab 8f3c 8a2f ebbc 2e9f 1abd 41bb 323a
00000340: acbc 0b3e f8a7 ba3d f91b 64bc 50e8 d1bd
00000350: 282b e93d 3824 fdbc e2ec 113e 6b6a 733d
00000360: d0f9 08be 3c3b 86bd e3ea 44bd dc50 efbc
00000370: c023 2f3b 2902 16bd 8b8f f5bc a81d 013e
00000380: 4f36 12bd 6623 1dbd eb78 13be b9d4 273d
00000390: 1223 ac3d 8f46 433d 820d af3d b15a 6f3b
000003a0: c0c7 e03d ffc9 9abd 81fe 48bd 2812 0b3d
000003b0: 3001 b73d 6b01 3bbc 1ccd 9e3d 4aba 1e3d
000003c0: a553 d93d a02a a73c e599 063e 8997 cfbd
000003d0: b338 24ba ce15 b0bd f14e 1d3d 08a2 6e3d
000003e0: 7556 153e ef3a d8bc 515d 0d3d c742 edbc
000003f0: fc4b af3d d359 3a3e b3f1 91bd ffac 91bd

actor_body.linear2.bias f4 [96]
-0.017513303 0.026952561 -0.025734 0.0741067 -0.030887134 -0.028826423 0.040239006 0.03591289
-0.032119982 0.061198715 -0.029321507 -0.029955762 -0.07395861 0.101278596 -0.00018522462 0.06783072
-0.0846682 -0.047961496 0.0014980696 0.0419872 0.05635715 0.0041797324 -0.082294695 0.0562593
0.057936385 0.07074097 0.08245476 -0.030098192 0.06902488 0.01363461 -0.10113835 -0.033510946
0.056153093 0.032146707 -0.019710448 0.06439941 -0.033071145 0.05873786 -0.03019537 -0.07664589
0.05228341 0.106934905 0.025127461 -0.061378166 -0.0615939 0.037649687 -0.10214634 -0.0920976
0.025410239 -0.079064645 -0.071399 -0.02874465 -0.028973462 0.098251835 0.007861637 -0.07192754
-0.034729503 0.044867236 -0.05663586 0.005104955 0.013172383 0.07296224 -0.028963685 0.11866431
0.1448087 0.01979539 0.12726533 0.1298781 -0.008583365 0.037697207 0.058003612 0.08160478
0.0870119 -0.04627139 0.030391155 -0.011047304 0.023190223 0.116587155 -0.10727405 0.0072012814
0.04463876 -0.004098219 0.034265522 0.00603233 0.09211996 -0.022221245 0.021716343 0.09726066
0.057069547 0.03146744 -0.009166743 -0.0077650403 0.041646432 -0.06524395 0.057200458 0.09044062
00000000: 0f78 8fbc 9ecb dc3c 1cd0 d2bc 41c5 973d
00000010: 0407 fdbc 6425 ecbc a8d1 243d 6519 133d
00000020: 3e90 03bd 81ab 7a3d a833 f0bc c965 f5bc
00000030: 9d77 97bd 276b cf3d db38 42b9 d5ea 8a3d
00000040: 8566 adbd 4673 44bd e05a c43a c5fa 2b3d
00000050: c1d6 663d 23f6 883b 1f8a a8bd 2770 663d
00000060: b44e 6d3d a4e0 903d 0bde a83d 7c90 f6bc
00000070: eb5c 8d3d b363 5f3c a021 cfbd c642 09bd
00000080: c900 663d 44ac 033d ce77 a1bc d6e3 833d
00000090: 9c75 07bd 1c97 703d 485c f7bc 85f8 9cbd
000000a0: 2127 563d b000 db3d 1bd8 cd3c ac67 7bbd
000000b0: e349 7cbd 8f36 1a3d 1a32 d1bd ab9d bcbd
000000c0: 2229 d03c a5ec a1bd a439 92bd e679 ebbc
000000d0: c159 edbc 4238 c93d 18ce 003c bf4e 93bd
000000e0: 8640 0ebd b5c6 373d 01fb 67bd 7747 a73b
000000f0: fbd0 573c 3a6d 953d 4045 edbc 4606 f33d
00000100: bb48 143e f129 a23c d851 023e c4fe 043e
00000110: 3ea1 0cbc 6368 1a3d 3295 6d3d 6820 a73d
00000120: 4c33 b23d 1287 3dbd dff6 f83c c0ff 34bc
00000130: 6cf9 bd3c 3fc5 ee3d 7fb2 dbbd baf8 eb3b
00000140: 22d7 363d 5a4a 86bb 015a 0c3d daaa c53b
00000150: 64a9 bc3d 5409 b6bc 79e6 b13c 9930 c73d
00000160: c2c1 693d 01e4 003d 1b30 16bc e171 febb
00000170: 7395 2a3d 9f9e 85bd 074b 6a3d ef38 b93d

actor_body.linear3.weight f4 [4, 96]
-0.06791471 0.07851057 0.039960343 0.061921116 -0.11667992 -0.20201488 0.15981835 -0.184985
0.10046959 -0.1267966 -0.12400782 -0.097203754 0.00013579916 0.11981814 0.028145973 0.14278385
0.10214744 -0.12714212 -0.06518524 -0.004316073 -0.0025444054 0.09833803 -0.0030375414 -0.11194047
0.019728633 -0.03880151 -0.03484309 -0.07263777 -0.06653034 0.016405227 -0.018966993 -0.12265855
-0.078223616 -0.17070602 0.07788324 0.066516355 0.1590533 0.13887514 0.06699102 -0.092807814
0.18262647 0.016276741 -0.111532435 -0.1964785 -0.16022086 -0.12606333 -0.14593981 -0.05136822
-0.13674103 -0.04337434 0.1111785 -0.09067124 -0.122364305 0.0009671628 -0.037951548 -0.053437505
-0.0322022 0.13856862 -0.10417433 -0.12860064 -0.08399317 -0.14947729 0.14990644 0.1400096
0.041328106 -0.17213222 0.1048008 0.017604953 0.03584878 0.14334121 0.03094593 0.059958078
0.20760956 0.020401973 -0.020813182 0.1998102 0.13438512 -0.06763004 -0.11519974 0.116155304
0.094008476 0.15197586 -0.14412491 0.09470179 -0.0052165375 0.049523517 -0.058817677 0.18958856
-0.014047483 -0.09327032 -0.12568367 -0.024113458 0.027016295 0.08952647 -0.07394991 0.20007268
-0.17255494 0.0444448 -0.059903108 0.062351562 -0.08464389 -0.10139165 0.06315836 -0.08173223
-0.10878158 -0.016132966 -0.0069084154 0.14202249 0.1421213 -0.075340584 0.06295351 0.030946279
0.016999424 -0.031146362 -0.025508124 0.08137427 -0.07581025 0.105242305 -0.06644913 -0.12057503
-0.16735455 -0.06992945 0.1760591 -0.08154386 0.07689166 0.028078347 0.19869255 -0.07372109
0.15728988 0.16857086 -0.17913361 -0.11066998 -0.14607912 0.10581227 -0.020454183 0.041718084
-0.011329288 -0.10241081 0.055290315 -0.09148922 0.10733413 0.12715359 -0.057816762 0.15429573
0.16798455 0.23452681 0.09936734 0.04267661 0.0063005756 -0.1056039 -0.17054136 -0.15918349
0.15127477 0.022687187 -0.15162283 -0.06538895 0.033754505 -0.011557401 0.1359328 -0.11476411
-0.039712198 -0.15023215 0.02235445 0.101246834 -0.09425894 0.08909408 0.16083203 0.10410103
0.07574891 0.03376843 0.17283946 -0.009430262 0.14993216 -0.18405911 -0.03365343 -0.13897271
-0.10477699 0.15451863 -0.062098917 0.10903333 0.099613875 0.24696393 0.10550494 0.09800938
-0.036207058 -0.033321925 -0.09437922 -0.086680606 -0.0023553222 -0.14283364 0.07775383 -0.061522596
0.056841884 -0.00870196 0.19492531 -0.15079905 -0.10462105 -0.09292357 -0.282376 0.094306506
-0.08227094 0.21858823 0.14068194 0.13471885 -0.18906015 0.12942965 -0.22697066 0.03861819
-0.024725178 -0.11468422 0.04377025 -0.14810991 -0.1509798 -0.0632829 0.26601198 0.04871351
-0.06666071 -0.28226462 0.07994467 -0.16113283 0.1736084 0.0155000575 0.08443341 -0.06555517
0.12939472 0.23540449 0.014787585 -0.26610494 0.013147066 0.19242054 0.10352717 0.013893975
0.042969454 -0.13266525 0.057023816 0.10967646 -0.050391633 0.08357033 -0.081223495 0.0030050606
-0.09260237 -0.15436935 -0.07550914 -0.14963667 0.14211285 0.21889138 -0.070366725 -0.106138
0.18205331 0.2538731 0.0477358 0.055361092 0.10772749 -0.13129301 0.06664855 -0.09888808
00000000: de16 8bbd 26ca a03d 75ad 233d ffa0 7d3d
00000010: e2f5 eebd fddc 4ebe 6ca7 233e b56c 3dbe
00000020: 00c3 cd3d f8d6 01be d0f7 fdbd c312 c7bd
00000030: 4f65 0e39 3763 f53d 6292 e63c ee35 123e
00000040: ad32 d13d 8b31 02be d77f 85bd d86d 8dbb
00000050: 0ac0 26bb 7365 c93d 7d11 47bb 0c41 e5bd
00000060: f19d a13c 55ee 1ebd a1b7 0ebd 1cc3 94bd
00000070: 0f41 88bd 4164 863c ab60 9bbc 6834 fbbd
00000080: b433 a0bd 8fcd 2ebe 4081 9f3d ba39 883d
00000090: dede 223e 4935 0e3e 9732 893d 0612 bebd
000000a0: 6f02 3b3e cd56 853c 1e6b e4bd a931 49be
000000b0: f010 24be bf16 01be 3f71 15be 7c67 52bd
000000c0: d705 0cbe 4ba9 31bd 8eb1 e33d d8b1 b9bd
000000d0: 239a fabd 3289 7d3a 1573 1bbd 49e1 5abd
000000e0: 74e6 03bd efe4 0d3e 5a59 d5bd e3af 03be
000000f0: 9c04 acbd 9310 19be 1381 193e ad5e 0f3e
00000100: a947 293d 6e43 30be cda1 d63d 4338 903c
00000110: 2cd6 123d 0ac8 123e 5282 fd3c 9a96 753d
00000120: 9a97 543e 0a22 a73c 6880 aabc 0c9b 4c3e
00000130: 419c 093e 9e81 8abd d7ed ebbd d5e2 ed3d
00000140: 8487 c03d 8f9f 1b3e 7b95 13be 03f3 c13d
00000150: 7def aabb 2cd9 4a3d ceea 70bd 8123 423e
00000160: 6a27 66bc 8204 bfbd 38b3 00be 9689 c5bc
00000170: 4751 dd3c a759 b73d 0d73 97bd dadf 4c3e
00000180: 3eb2 30be c00b 363d f65c 75bd 5a64 7f3d
00000190: c759 adbd 6da6 cfbd 2c59 813d 3a63 a7bd
000001a0: e1c8 debd 4829 84bc fd5f e2bb 586e 113e
000001b0: 3f88 113e 2a4c 9abd c5ed 803d 0d83 fd3c
000001c0: 6042 8b3c a826 ffbc 6af6 d0bc 8ea7 a63d
000001d0: 6842 9bbd 4789 d73d 7b16 88bd 0bf0 f6bd
000001e0: fe5e 2bbe 2c37 8fbd d648 343e 7800 a7bd
000001f0: 6079 9d3d 9004 e63c 0f76 4b3e 15fb 96bd
00000200: 9910 213e d79d 2c3e cd6e 37be f1a6 e2bd
00000210: c495 15be 1ab4 d83d 888f a7bc 95e0 2a3d
00000220: 7a9e 39bc c2bc d1bd 1978 623d b35e bbbd
00000230: ffd1 db3d 8d34 023e 45d1 6cbd b3ff 1d3e
00000240: 2404 2c3e cc27 703e 1b81 cb3d abcd 2e3d
00000250: 0f75 ce3b dc46 d8bd 65a2 2ebe ff00 23be
00000260: c6e7 1a3e 7bda b93c 0443 1bbe a4ea 85bd
00000270: 2a42 0a3d 415b 3dbc f831 0b3e 7209 ebbd
00000280: 42a9 22bd 75d6 19be ae20 b73c 805a cf3d
00000290: d50a c1bd f576 b63d 27b1 243e ec32 d53d
000002a0: 3f22 9b3d c450 0a3d d4fc 303e 6381 1abc
000002b0: d187 193e fe79 3cbe 2ed8 09bd dd4e 0ebe
000002c0: 5295 d6bd 223a 1e3e 6f5b 7ebd de4c df3d
000002d0: 5c02 cc3d 1de4 7c3e f912 d83d 24b9 c83d
000002e0: da4d 14bd 927c 08bd e449 c1bd 9a85 b1bd
000002f0: c05b 1abb fb42 12be 663d 9f3d 1eff 7bbd
00000300: 09d3 683d aa92 0ebc 809a 473e 116b 1abe
00000310: 9043 d6bd b64e bebd 9693 90be c523 c13d
00000320: ab7d a8bd 98d5 5f3e ed0e 103e bdf3 093e
00000330: fc98 41be 3589 043e ff6a 68be 1b2e 1e3d
00000340: 758c cabc 8fdf eabd 6f48 333d 20aa 17be
00000350: 739a 1abe 779a 81bd b932 883e d187 473d
00000360: 6985 88bd fd84 90be 08ba a33d 0100 25be
00000370: 67c6 313e f4f3 7d3c 6ceb ac3d ca41 86bd
00000380: 0d80 043e e00d 713e a047 723c e83e 88be
00000390: cb66 573c e409 453e 0e06 d43d 8ea3 633c
000003a0: bd00 303d 66d9 07be ce91 693d 0d9e e03d
000003b0: 7567 4ebd ec26 ab3d 8158 a6bd 8df0 443b
000003c0: 50a6 bdbd 0013 1ebe 89a4 9abd 5b3a 19be
000003d0: 0886 113e 1025 603e 6e1c 90bd e15e d9bd
000003e0: 2f6c 3a3e a8fb 813e 9d86 433d 50c2 623d
000003f0: 3ba0 dc3d ad71 06be 097f 883d d585 cabd

actor_body.linear3.bias f4 [4]
0.062310603 0.083456226 0.083162434 -0.07847469
00000000: 6739 7f3d 19eb aa3d 1151 aa3d 57b7 a0bd

critic_body.linear1.weight f4 [96, 33]
0.007210359 -0.033628788 -0.20724624 0.046498634 -0.025208939 0.038839567 -0.033567782 0.06894416
-0.014776251 0.2517604 -0.0428543 0.016849335 0.090137295 0.0729525 -0.08537158 0.077832565
0.1199033 0.11059281 -0.00933068 0.13650012 0.0226244 -0.09078001 0.029011132 0.03834305
0.034159947 0.11536241 0.11234656 0.030567076 -0.13583034 -0.061690204 0.13048872 0.12010333
0.17927924 -0.0697125 -0.23928873 0.06018934 0.12655501 0.1722274 -0.0614758 0.09326197
-0.07474231 -0.09727994 -0.120976396 0.078976795 0.08582383 -0.09700352 0.03772286 0.1445998
-0.20683557 0.06110538 -0.024497941 0.17837213 -0.13714778 -0.008239232 -0.08935241 -0.06743473
-0.03344362 -0.04644016 0.045002848 -0.094267204 -0.18202667 -0.017729037 -0.10316203 -0.02139853
0.060804605 0.09753805 0.15371667 0.013822207 0.0019544396 0.100433215 0.057115544 0.0481212
-0.15998475 -0.0636257 0.027333334 0.03801912 -0.02100692 -0.003322818 -0.06327278 -0.30633068
0.14566745 0.10717826 0.038607072 -0.07437105 -0.17567194 -0.07552465 -0.0843452 0.08080034
-0.012271404 -0.114153996 0.013304577 0.110647336 0.1801957 0.008473404 0.0062234798 0.06906651
0.007893247 -0.046602994 0.43932995 -0.014828128 0.050478414 0.0012355973 0.16547084 -0.12946746
0.2359981 -0.1632458 -0.09967599 0.08468451 -0.051756643 -0.035266366 -0.08857498 0.062441826
0.05303464 -0.0020643047 0.10517487 -0.06396547 0.05952488 0.04117407 -0.0429523 -0.011488685
-0.047024 -0.013974379 -0.09922602 0.026884738 0.08766396 -0.115141094 -0.04548237 0.14959455
0.16476119 0.18819447 0.05700533 -0.55574644 -0.05740895 -0.19435805 -0.089211404 0.12182503
0.015458335 -0.09935863 -0.1381746 -0.017440079 0.10100501 0.11945452 -0.117642954 -0.11752332
-0.033265408 -0.04551658 -0.051366266 0.12347268 0.012607573 -0.117234364 -0.03132147 0.10164451
-0.031166298 0.08438825 0.05833925 0.03982166 0.06432662 -0.07541658 -0.15076292 -0.23799162
0.01315457 -0.12599745 0.18746953 -0.13170426 -0.62270474 -0.103150986 -0.13685194 0.10291158
-0.038649235 -0.017055117 0.23136848 -0.200084 0.10384421 0.0093273595 0.008211593 0.12096861
0.047753125 0.07121766 -0.044530578 0.1892713 0.114618346 0.03711443 0.20541877 -0.060580485
0.07659357 0.087663464 -0.04771843 -0.04096467 0.030966362 0.081294894 -0.025067767 -0.1498436
0.057085793 0.06574224 0.11735079 -0.03153248 0.009989634 -0.15303056 -0.058818758 0.14622557
0.009700454 -0.1889278 0.13578483 -0.11201256 -0.009151136 0.09345003 0.04130998 0.07607505
0.012194552 0.10990196 -0.07285726 -0.11703152 -0.1046831 0.119471766 -0.010088347 -0.08102774
-0.08549303 0.049510464 0.06613512 0.075525634 0.018932551 0.14886571 -0.0051197074 -0.15728705
-0.0726791 0.10212143 -0.07619104 -0.03688869 0.013402894 -0.16651163 0.32365218 -0.2538676
-0.1526139 0.123399556 0.0064423117 -0.015261413 -0.17834981 -0.13608932 -0.15644918 -0.05153369
-0.10726316 0.020874837 -0.025879942 -0.003853973 0.10036101 0.07537072 0.05742892 -0.017488603
-0.038968857 -0.059568588 0.017392777 0.024431057 0.021367036 0.009875751 0.1103951 0.009404614
00000000: e044 ec3b 57be 09bd 5c38 54be 5a75 3e3d
00000010: fa82 cebc 3d16 1f3d 5f7e 09bd 9932 8d3d
00000020: 1718 72bc bde6 803e fe87 2fbd 9e07 8a3c
00000030: e799 b83d 1f68 953d 4cd7 aebd ae66 9f3d
00000040: dd8f f53d 7c7e e23d b5df 18bc b0c6 0b3e
00000050: ce56 b93c dfea b9bd c1a8 ed3c 9a0d 1d3d
00000060: 4deb 0b3d 2143 ec3d f415 e63d ce67 fa3c
00000070: 1c17 0bbe deae 7cbd d69e 053e bcf8 f53d
00000080: fa94 373e 6dc5 8ebd 1b08 75be 1989 763d
00000090: a397 013e 615c 303e 0cce 7bbd 2200 bf3d
000000a0: 7f12 99bd b53a c7bd 79c2 f7bd 96be a13d
000000b0: 67c4 af3d c8a9 c6bd 4983 1a3d f811 143e
000000c0: b4cc 53be a349 7a3d e8af c8bc 2fa7 363e
000000d0: 7870 0cbe d8fd 06bc 65fe b6bd 381b 8abd
000000e0: 2dfc 08bd 0a38 3ebd e854 383d 2a0f c1bd
000000f0: 3365 3abe 7c3c 91bc 9d46 d3bd f84b afbc
00000100: 400e 793d 07c2 c73d e767 1d3e 8a76 623c
00000110: 0e16 003b eeaf cd3d fdf1 693d bc1a 453d
00000120: 0bd3 23be 314e 82bd 28ea df3c f0b9 1b3d
00000130: b416 acbc a3c3 59bb 2995 81bd 60d7 9cbe
00000140: d929 153e 4780 db3d 7322 1e3d d94f 98bd
00000150: 58e3 33be abac 9abd 2dbd acbd a67a a53d
00000160: 000e 49bc 92c9 e9bd 71fb 593c 129b e23d
00000170: 3985 383e 08d4 0a3c 55ee cb3b be72 8d3d
00000180: ad52 013c c8e2 3ebd dbef e03e adf1 72bc
00000190: 74c2 4e3d c4f3 a13a 3071 293e 1e93 04be
000001a0: 7ca9 713e e829 27be ed22 ccbd 136f ad3d
000001b0: c6fe 53bd 7773 10bd cd66 b5bd 00c3 7f3d
000001c0: da3a 593d 4949 07bb ec65 d73d 5400 83bd
000001d0: 5cd0 733d 24a6 283d c0ee 2fbd 0a3b 3cbc
000001e0: 3d9c 40bd cbf4 64bc 0337 cbbd 623d dc3c
000001f0: 2a89 b33d 18cf ebbd b94b 3abd 502f 193e
00000200: 28b7 283e 0db6 403e 6c7e 693d 6645 0ebf
00000210: a625 6bbd cc05 47be 78b4 b6bd 677f f93d
00000220: f544 7d3c 8a7c cbbd a47d 0dbe 7fde 8ebc
00000230: b7db ce3d 92a4 f43d caee f0bd 11b0 f0bd
00000240: 4f41 08bd 986f 3abd 6f65 52bd 3fdf fc3d
00000250: fe8f 4e3c 9218 f0bd f14a 00bd ff2a d03d
00000260: 7750 ffbc bfd3 ac3d 23f5 6e3d 091c 233d
00000270: adbd 833d 0274 9abd 9861 1abe 13b4 73be
00000280: 4486 573c 7a05 01be 03f8 3f3e 7bdd 06be
00000290: 9469 1fbf d340 d3bd ea22 0cbe 4ec3 d23d
000002a0: a94e 1ebd 2cb7 8bbc dceb 6c3e d2e2 4cbe
000002b0: 46ac d43d c8d1 183c eb89 063c 64be f73d
000002c0: c898 433d 91da 913d b265 36bd 56d0 413e
000002d0: 06bd ea3d 4d05 183d 4c59 523e 3e23 78bd
000002e0: 17dd 9c3d e788 b33d 6774 43bd 92ca 27bd
000002f0: 2bad fd3c f07d a63d eb5a cdbc 9a70 19be
00000300: cbd2 693d dea3 863d 9c55 f03d 3428 01bd
00000310: 90ab 233c 0bb4 1cbe f0eb 70bd 28bc 153e
00000320: a7ee 1e3c 4a76 41be 2e0b 0b3e d766 e5bd
00000330: a5ee 15bc bb62 bf3d a734 293d 3ccd 9b3d
00000340: a9cb 473c 4714 e13d 3036 95bd 39ae efbd
00000350: 1864 d6bd 9dad f43d 9849 25bc dff1 a5bd
00000360: f816 afbd 7ccb 4a3d da71 873d 2fad 9a3d
00000370: 7018 9b3c 4170 183e 38c3 a7bb db0f 21be
00000380: c8d8 94bd 0a25 d13d 0c0a 9cbd 9818 17bd
00000390: d097 5b3c 0682 2abe bdb5 a53e effa 81be
000003a0: d146 1cbe e8b8 fc3d 071a d33b 010b 7abc
000003b0: 55a1 36be 005b 0bbe 3734 20be fe14 53bd
000003c0: caac dbbd b501 ab3c 2c02 d4bc f092 7cbb
000003d0: 138a cd3d f75b 9a3d 963a 6b3d 4244 8fbc
000003e0: cf9d 1fbd 31fe 73bd 4c7b 8e3c a423 c83c
000003f0: ec09 af3c e7cd 213c d416 e23d cf15 1a3c

critic_body.linear1.bias f4 [96]
-0.04907548 -0.02096641 0.0031902464 -0.08134877 0.111651435 -0.14891674 0.009107258 0.14438309
0.11788794 0.05371963 0.059393317 0.07656946 0.11266844 -0.0903145 -0.00044009846 0.22638279
0.09802125 0.016095018 -0.058547445 0.09750514 -0.11091101 0.12931255 -0.03339829 -0.14940995
-0.10457816 0.12489494 -0.0084011825 0.016082851 0.03561051 -0.098907135 -0.014297002 0.1523533
-0.0046304828 -0.06571184 -0.076465175 -0.19683276 0.13119972 -0.00090495066 -0.031101195 0.092608705
-0.07074885 -0.11680073 0.12592365 0.2406134 0.03357146 -0.04848687 -0.0023811657 -0.05586664
-0.20644784 -0.13169213 -0.16600637 0.13896261 0.067996524 -0.037609953 -0.14105767 0.16549407
-0.010400422 0.14639084 -0.16822919 0.12665921 -0.16593795 -0.12880653 0.05313602 0.058849663
-0.18397933 0.21915828 -0.14656445 0.040578708 0.15112744 0.080697216 -0.10289226 0.0567723
0.13908242 -0.14034791 -0.15763003 -0.09632078 -0.16318102 0.11297932 -0.08266796 -0.15573367
0.0366291 -0.12807468 0.027567267 -0.116551384 0.056244455 -0.074244566 -0.13392146 0.18290423
-0.14792566 0.05603349 0.15516157 0.055466715 -0.09961299 0.067367785 -0.08884641 0.022750227
00000000: 5f03 49bd c0c1 abbc 7413 513b 2f9a a6bd
00000010: 82a9 e43d a17d 18be 9c36 153c 29d9 133e
00000020: 3b6f f13d 1d09 5c3d 6846 733d 73d0 9c3d
00000030: b6be e63d cff6 b8bd 04bd e6b9 e4d0 673e
00000040: 5dbf c83d b3d9 833c 72cf 6fbd c6b0 c73d
00000050: 5025 e3bd 826a 043e a5cc 08bd ecfe 18be
00000060: 132d d6bd ebc8 ff3d 1da5 09bc 2fc0 833c
00000070: 53dc 113d d38f cabd f93d 6abc 8102 1c3e
00000080: 4ebb 97bb ee93 86bd c699 9cbd 878e 49be
00000090: 3859 063e 363a 6dba efc7 febc a2a9 bd3d
000000a0: c6e4 90bd 3935 efbd 21f2 003e 5c63 763e
000000b0: 3a82 093d 2b9a 46bd 550d 1cbb 6bd4 64bd
000000c0: 1067 53be 4dda 06be 93fd 29be 374c 0e3e
000000d0: c341 8b3d e50c 1abd 6c71 10be 4777 293e
000000e0: 8866 2abc 7be7 153e 4644 2cbe f4b2 013e
000000f0: a3eb 29be dce5 03be 28a5 593d 580c 713d
00000100: 1465 3cbe 076b 603e fe14 16be dc35 263d
00000110: 27c1 1a3e 9544 a53d 2db9 d2bd 128a 683d
00000120: 9f6b 0e3e 5db7 0fbe c469 21be d443 c5bd
00000130: ed18 27be b461 e73d d24d a9bd a678 1fbe
00000140: 6508 163d 0226 03be c0d4 e13c 7eb2 eebd
00000150: 9660 663d 890d 98bd b522 09be 3f4b 3b3e
00000160: d379 17be 5f83 653d ade2 1e3e 1131 633d
00000170: e501 ccbd 1ff8 893d 1bf5 b5bd af5e ba3c

critic_body.linear2.weight f4 [96, 96]
0.08560786 -0.03361294 0.046147645 -0.06873622 -0.07670205 -0.09300117 0.0719026 0.011398237
0.10316438 0.033586867 -0.0024739695 0.0682998 0.048261143 0.041511074 -0.082463935 -0.05432885
-0.01759355 0.07104569 -0.037097644 -0.075054936 -0.024753196 0.023013853 -0.05779726 -0.08502991
0.056867868 -0.063846156 0.06880706 -0.064870045 0.033266697 -0.09657405 -0.15695786 -0.08049039
-0.058526345 0.03594046 0.005960109 -0.03043557 -0.048294168 0.036505494 -0.03922709 -0.038004294
-0.07005464 -0.0025139777 0.028391529 -0.083265014 -0.097521126 0.048801273 0.1494283 0.12353114
0.02534842 0.1538178 0.056913864 0.06702311 -0.018116351 -0.054473598 -0.05102047 0.06681704
-0.10464846 -0.12135251 -0.004931956 0.07539656 0.019318404 0.09602717 0.08206941 0.11914535
0.044795506 -0.075311065 -0.046112068 -0.06419021 -0.07574264 0.11431131 -0.09452101 0.11462643
-0.08226115 -0.10389096 0.0133981705 0.021448437 -0.042840783 -0.09341618 0.033100743 -0.0110175125
0.07471345 -0.05302338 0.11713975 0.024858624 -0.05823078 -0.062174138 0.16205446 -0.04192033
0.037837535 -0.021697126 -0.09761088 -0.024643214 -0.02101243 0.082954854 -0.10659767 0.0060793054
0.003235116 0.00076314446 -0.04855251 0.10738866 0.054317713 0.0909105 -0.033902418 -0.021403866
0.014997815 -0.023636974 -0.0680953 0.053742837 0.064438395 0.03519427 -0.060564756 0.102805704
0.042870387 -0.017906748 0.08386679 -0.015770826 -0.012556108 0.008806557 -0.12764665 -0.042194087
0.0532488 0.10319606 0.04801578 -0.031716302 -0.023254823 0.029860612 -0.027117344 0.08351935
0.050259046 -0.04783053 -0.013854644 -0.077554666 -0.04943574 -0.032648996 -0.05783659 0.057871174
-0.026506871 0.05871178 0.028530467 -0.01204352 -0.029291451 0.07163582 -0.06708087 -0.010133265
-0.08591641 -0.063612066 -0.026183564 -0.10379653 0.14356169 -0.036591046 0.05666106 0.10623644
0.028741818 -0.04637383 0.006568892 0.01757606 0.026277395 -0.039645985 -0.042710163 -0.07848295
0.057863075 0.11628085 0.0009009789 0.08586791 -0.07372286 -0.01029859 -0.019505978 -0.011536508
0.085212894 -0.065695636 0.023634354 0.11049538 0.08817077 -0.06928965 0.064122535 -0.069747366
0.05452153 -0.025591424 -0.03973045 0.04664221 0.09112477 -0.003047406 -0.13831604 -0.0006127608
0.0966113 -0.10398314 0.014760039 0.08939346 -0.037301254 0.11784353 0.079938576 0.14254917
-0.0075660776 0.1560838 -0.096253775 -0.025221203 -0.06923375 0.01063181 0.016808527 -0.05736332
-0.024985367 0.04810365 -0.17585212 0.11690094 0.0021363501 0.07090811 0.020874344 0.018352482
0.06958027 0.100900605 -0.012500106 0.0055852295 -0.039959595 0.110941455 0.019851483 -0.12583373
0.01591459 -0.0053050206 0.067561604 -0.014552853 0.0435738 0.020638954 0.067971125 0.021730995
0.07951846 -0.05396668 0.08643441 -0.08775315 0.007692016 -0.052154906 0.018045263 0.008951952
0.056988142 0.11635419 0.10720535 -0.025545623 -0.109153405 -0.036170878 0.054918487 -0.11626413
-0.012659547 -0.05875737 0.0028293666 -0.039379362 0.040483627 -0.22260708 0.014511498 0.04786546
-0.0024745385 -0.03474165 0.06477986 0.13920154 -0.05954465 -0.19225208 -0.022596905 0.11528505
00000000: 2c53 af3d b9ad 09bd 5005 3d3d 93c5 8cbd
00000010: f715 9dbd 6677 bebd ac41 933d acbf 3a3c
00000020: d947 d33d 6292 093d 5222 22bb c4e0 8b3d
00000030: 7aad 453d 8407 2a3d dae2 a8bd ee87 5ebd
00000040: 5920 90bc 6780 913d b3f3 17bd 67b6 99bd
00000050: 37c7 cabc 8c87 bc3c d2bc 6cbd 2924 aebd
00000060: 48ee 683d c6c1 82bd b7ea 8c3d 96da 84bd
00000070: a942 083d 9ec8 c5bd 90b9 20be 25d8 a4bd
00000080: 52b9 6fbd 4e36 133d 054d c33b 0454 f9bc
00000090: 1bd0 45bd c986 153d 96ac 20bd 64aa 1bbd
000000a0: cf78 8fbd 8cc1 24bb 5a95 e83c d986 aabd
000000b0: 28b9 c7bd d8e3 473d bb03 193e e5fd fc3d
000000c0: 7da7 cf3c 6a82 1d3e 831e 693d 6a43 893d
000000d0: be68 94bc b51f 5fbd d7fa 50bd 5fd7 883d
000000e0: ef51 d6bd aa87 f8bd 3f9c a1bb 8369 9a3d
000000f0: a141 9e3c e5a9 c43d 0214 a83d 7a02 f43d
00000100: 7e7b 373d b03c 9abd 02e0 3cbd 2876 83bd
00000110: f51e 9bbd 0c1c ea3d 3b94 c1bd 43c1 ea3d
00000120: 8978 a8bd c9c4 d4bd 0084 5b3c a2b4 af3c
00000130: d179 2fbd fb50 bfbd a594 073d cc82 34bc
00000140: 5e03 993d 0b2f 59bd f7e6 ef3d 50a4 cb3c
00000150: 6683 6ebd 4faa 7ebd 9bf1 253e a7b4 2bbd
00000160: 88fb 1a3d 2cbe b1bc 37e8 c7bd 91e0 c9bc
00000170: 4222 acbc 3ce4 a93d e14f dabd e934 c73b
00000180: 3d04 543b c20d 483a ffde 46bd 96ee db3d
00000190: 407c 5e3d 492f ba3d 43dd 0abd 2957 afbc
000001a0: 65b9 753c 54a2 c1bc 8c75 8bbd 7321 5c3d
000001b0: 47f8 833d de27 103d c012 78bd cc8b d23d
000001c0: dc98 2f3d 2cb1 92bc 5ac2 ab3d d231 81bc
000001d0: 22b8 4dbc 6149 103c ceb5 02be b5d3 2cbd
000001e0: 6a1b 5a3d 7558 d33d 32ac 443d f4e8 01bd
000001f0: e680 bebc 3e9e f43c 3125 debc 310c ab3d
00000200: 6edc 4d3d f2e9 43bd 97fe 62bc fbd4 9ebd
00000210: 217d 4abd f4ba 05bd 0fe6 6cbd 530a 6d3d
00000220: f024 d9bc c37b 703d bab8 e93c 2f52 45bc
00000230: a0f4 efbc cdb5 923d b261 89bd fe05 26bc
00000240: f1f4 afbd 0b47 82bd ea7e d6bc 4693 d4bd
00000250: d601 133e 7ee0 15bd 6d15 683d 7e92 d93d
00000260: f673 eb3c 7cf2 3dbd dc3f d73b abfb 8f3c
00000270: b143 d73c d463 22bd daf0 2ebd abbb a0bd
00000280: d501 6d3d a724 ee3d ac2f 6c3a 84db af3d
00000290: 03fc 96bd 6bbb 28bc 00cb 9fbc 9f03 3dbc
000002a0: 1984 ae3d 6f8b 86bd d59c c13c 674b e23d
000002b0: e092 b43d bbe7 8dbd ad52 833d b5d7 8ebd
000002c0: f851 5f3d 1ba5 d1bc 65bc 22bd e70b 3f3d
000002d0: a09f ba3d fdb6 47bb b8a2 0dbe aea1 20ba
000002e0: 25dc c53d 1df5 d4bd 17d4 713c eb13 b73d
000002f0: 33c9 18bd f357 f13d d6b6 a33d 69f8 113e
00000300: dcec f7bb 6fd4 1f3e b320 c5bd b29c cebc
00000310: 6dca 8dbd 0b31 2e3c 09b2 893c cdf5 6abd
00000320: 1dae ccbc 5508 453d 9412 34be c369 ef3d
00000330: 0202 0c3b 4538 913d ac00 ab3c f257 963c
00000340: 1a80 8e3d faa4 ce3d 3fcd 4cbc 4d04 b73b
00000350: acac 23bd 4635 e33d 949f a23c 8fda 00be
00000360: 505f 823c bdd5 adbb bd5d 8a3d 176f 6ebc
00000370: 717a 323d 0613 a93c 7234 8b3d 3305 b23c
00000380: 93da a23d 2a0c 5dbd 8604 b13d ecb7 b3bd
00000390: 4f0d fc3b 62a0 55bd a9d3 933c 35ab 123c
000003a0: 666c 693d 1b4b ee3d 7b8e db3d 0e45 d1bc
000003b0: d28b dfbd ea27 14bd 35f2 603d e31b eebd
000003c0: fd69 4fbc 91ab 70bd e56c 393b 414c 21bd
000003d0: 29d2 253d 1cf3 63be a2c1 6d3c 930e 443d
000003e0: de2b 22bb 434d 0ebd 4eab 843d d98a 0e3e
000003f0: 17e5 73bd bbdd 44be 251d b9bc 911a ec3d

critic_body.linear2.bias f4 [96]
-0.08579411 0.11131673 0.052896805 -0.17832913 -0.12936534 -0.06490272 -0.070528604 0.031717688
0.018933095 0.03416404 -0.025174234 -0.1468233 0.0014921438 -0.16529207 -0.060165286 -0.01673471
0.005515124 0.16359593 0.036230307 -0.09912112 0.0616804 0.20203839 0.128899 0.10609874
0.09667561 -0.12941809 0.024292443 -2.354496e-05 -0.11463361 -0.11332079 0.11244499 -0.13110995
-0.0138783865 0.18733284 0.033819694 -0.10897688 -0.09325764 -0.033558868 -0.040608205 0.068040974
-0.09653903 0.09880263 0.12966655 -0.0034352443 -0.0006664375 -0.15765445 -0.17386226 0.13973902
-0.09122273 0.065581515 -0.005212105 -0.055541974 0.20551445 -0.09345941 -0.06636371 0.15813854
-0.12372081 0.01935875 0.025076855 -0.05499774 -0.07731966 0.10027985 -0.12371991 -0.116190515
-0.026168952 0.14723839 -0.14842625 0.0140050575 0.11123675 -0.075578935 0.0049869106 -0.16076775
0.18074372 0.042369153 0.050072774 -0.08752936 0.10363841 -0.10996998 -0.18711592 -0.10434445
0.13176142 0.20774773 0.1692423 0.010185706 0.036250457 -0.15013368 0.20311771 0.19419973
0.07419009 0.018144814 0.21645874 -0.07987975 0.041274782 0.108170226 -0.04772241 -0.12102662
00000000: d3b4 afbd 07fa e33d 52aa 583d e99b 36be
00000010: 5978 04be b8eb 84bd 4d71 90bd 68ea 013d
00000020: 9419 9b3c 98ef 0b3d 323a cebc d958 16be
00000030: 0a94 c33a 5342 29be e06f 76bd 3b17 89bc
00000040: 37b8 b43b b185 273e 3b66 143d 0400 cbbd
00000050: 96a4 7c3d 27e3 4e3e 19fe 033e 4c4a d93d
00000060: ddfd c53d 2d86 04be f200 c73c 6b82 c5b7
00000070: 07c5 eabd bb14 e8bd 8f49 e63d b041 06be
00000080: 2c62 63bc 2ed4 3f3e 8586 0a3d 452f dfbd
00000090: ddfd bebd 0675 09bd ca54 26bd 1159 8b3d
000000a0: 41b6 c5bd 0959 ca3d 4fc7 043e d621 61bb
000000b0: ddb3 2eba 2b70 21be f308 32be bf17 0f3e
000000c0: fcd2 babd 9a4f 863d 4eca aabb fb7f 63bd
000000d0: 6172 523e a667 bfbd b2e9 87bd 12ef 213e
000000e0: 5661 fdbd 3e96 9e3c fa6d cd3c 4f45 61bd
000000f0: c559 9ebd 865f cd3d dd60 fdbd 4bf5 edbd
00000100: 4560 d6bc a9c5 163e 0dfd 17be 7875 653c
00000110: 18d0 e33d 21c9 9abd 3d69 a33b 4da0 24be
00000120: e214 393e 478b 2d3d 1c19 4d3d 9842 b3bd
00000130: 6040 d43d f137 e1bd 519b 3fbe 8bb2 d5bd
00000140: 77ec 063e d2bb 543e da4d 2d3e f3e1 263c
00000150: 5c7b 143d a5bc 19be 17fe 4f3e 4bdc 463e
00000160: f9f0 973d 6fa4 943c 5ca7 5d3e ff97 a3bd
00000170: bf0f 293d 5a88 dd3d 9378 43bd cedc f7bd

critic_body.linear3.weight f4 [1, 96]
-0.05936012 0.034372162 0.06739751 -0.1176685 -0.07232831 -0.07022905 -0.048427645 0.10211699
0.18591885 0.1656112 0.13355367 -0.12005956 0.031008821 -0.13588892 -0.06193211 -0.058686633
-0.0312398 0.12523723 0.078441 0.115934715 0.06444004 0.037681382 0.09460588 0.13266042
0.03990061 -0.03611555 0.041230544 -0.010621235 -0.057648208 -0.139163 0.041210964 -0.11022948
0.2344993 0.08729884 0.13182916 -0.037652936 -0.015088909 -0.09806351 0.08986275 0.049364947
-0.15714921 0.034721382 0.04512989 -0.11012554 -0.0105555635 -0.16653946 -0.07906607 0.10283411
-0.026929714 0.09028514 0.10071936 -0.072969176 0.0408325 -0.20017351 -0.16998142 0.111925095
-0.076153755 0.059119444 -0.04186011 0.11903138 -0.15833129 0.052493975 -0.18594329 -0.17051013
-0.06580316 0.05975022 -0.11188542 0.22327435 0.027757015 -0.28013036 0.08804974 -0.12655404
0.09386102 -0.030125653 -0.07365223 -0.091736645 0.10271865 -0.09751686 -0.17300025 -0.10867362
0.13771565 0.072704256 0.053774457 0.059395015 0.13084044 -0.036880076 0.045188826 0.104401946
0.057449777 -0.017313441 0.10775278 -0.008189082 0.022225413 0.15656956 0.08172453 -0.14799221
00000000: 9923 73bd d3c9 0c3d b507 8a3d 2ffc f0bd
00000010: dd20 94bd 40d4 8fbd 115c 46bd b622 d13d
00000020: 8361 3e3e fb95 293e 4bc2 083e c9e1 f5bd
00000030: 3606 fe3c 7726 0bbe 86ac 7dbd 6561 70bd
00000040: 9cea ffbc 303e 003e ada5 a03d 2e6f ed3d
00000050: 24f9 833d cb57 1a3d bac0 c13d 22d8 073e
00000060: d26e 233d e6ed 13bd 5ce1 283d b004 2ebc
00000070: 8720 6cbd bf80 0ebe d4cc 283d febf e1bd
00000080: 9620 703e bcc9 b23d 39fe 063e f739 1abd
00000090: 7937 77bc 86d5 c8bd f609 b83d e632 4a3d
000000a0: b9eb 20be 0238 0e3d 1fda 383d 8089 e1bd
000000b0: 3ef1 2cbc 5289 2abe 64ed a1bd b19a d23d
000000c0: b49b dcbc 6ae7 b83d f445 ce3d dd70 95bd
000000d0: fb3f 273d 49fa 4cbe 9c0f 2ebe fc38 e53d
000000e0: 80f6 9bbd 3b27 723d 8275 2bbd b9c6 f33d
000000f0: 9921 22be ec03 573d eb67 3ebe 359a 2ebe
00000100: cfc3 86bd a6bc 743d 2f24 e5bd 08a2 643e
00000110: ae62 e33c 3f6d 8fbe 6c53 b43d 6297 01be
00000120: 353a c03d 13ca f6bc fbd6 96bd 6ce0 bbbd
00000130: 285e d23d ebb6 c7bd fa26 31be 4690 debd
00000140: 5505 0d3e f8e5 943d 9b42 5c3d 3048 733d
00000150: 09fb 053e 900f 17bd eb17 393d b0d0 d53d
00000160: 7550 6b3d ebd4 8dbc 7dad dc3d 802b 06bc
00000170: 1212 b63c c553 203e 315f a73d 458b 17be
