reacher-ppo/models/ppo-max-hiddensize-288.pth (torch_old, 752297 bytes, 12 tensors)

std f4 [1, 4]
0.9452619 0.87752247 0.28673747 0.45841262
00000000: affc 713f 50a5 603f 41cf 923e 0fb5 ea3e

actor_body.linear1.weight f4 [288, 33]
0.14321418 -0.066641204 -0.2109004 -0.094897665 0.025877912 0.0016684483 0.050991066 -0.051095895
-0.03192864 0.12024758 -0.08501788 -0.004623733 -0.10302395 -0.018849803 -0.12399115 0.16428609
-0.035624504 0.025192419 0.030582793 -0.085072026 0.13570268 0.051905874 -0.10972316 0.060832053
-0.13642187 0.17412718 -0.027948683 0.08944596 -0.22243471 0.124832064 -0.13036318 -0.075702526
0.15857139 0.09270138 0.1897896 0.24063525 -0.030598616 -0.1357432 0.120864 0.06904909
0.2077718 -0.1340898 0.0009501482 -0.08506302 -0.12782824 -0.005928448 -0.17416754 -0.22926427
-0.15801431 0.012890177 0.021020887 0.06411445 -0.037847012 0.23674309 0.04441813 0.09650707
0.02168162 -0.05755845 -0.12165997 0.1382678 0.044194058 -0.13235302 0.102766186 -0.07759663
0.08183536 -0.03450681 0.11616507 -0.0012010505 -0.13125181 0.048907015 0.057385843 -0.088592306
-0.18040773 -0.1605149 0.1495086 0.10747344 0.15574807 -0.06229394 -0.070615426 0.036337767
0.17207329 0.16860573 0.051626597 0.09767128 0.07027617 -0.09015192 0.08202462 0.030259298
-0.08463057 -0.0849767 0.03502712 -0.0707517 0.10610643 0.0029017942 -0.0535425 -0.035936356
0.18588054 0.05972205 0.42699677 -0.06421809 -0.10761655 0.15776569 -0.05973954 -0.027184281
0.044580374 0.07954427 -0.118007064 -0.11037424 0.023641841 0.05114492 0.11654716 -0.11887007
-0.08758738 0.21321395 -0.1408644 0.039378826 0.1189864 0.018506687 -0.07623214 -0.06112395
0.1060023 0.15969515 0.088211015 -0.051521204 0.057604883 0.10576967 0.09375376 0.011544557
0.012825012 0.11927693 0.09952 -0.14309038 0.085328035 -0.050643865 -0.15145794 0.024664031
0.0063315453 0.05404216 -0.04109883 -0.018897934 0.16083959 -0.08396949 -0.10854455 0.036956247
0.061464053 -0.0028411287 -0.031569216 0.064881384 -0.07162167 0.083732925 0.124829136 0.023549551
0.13014655 -0.015583356 0.09914259 -0.07985936 -0.21583514 -0.13673666 -0.19291322 0.17794457
0.011291009 0.1426824 -0.16078997 0.13061953 -0.036394518 -0.14970292 0.100565545 -0.14991203
-0.18412764 0.030877355 -0.16629194 -0.1029605 0.01615436 -0.004633817 0.03494895 -0.06016292
0.1324006 0.039437857 0.13744988 -0.10332223 0.085811414 0.028656226 0.07639343 0.12024395
-0.005279492 -0.04779976 0.10857309 0.048937697 -0.03189426 -0.03773822 -0.12713806 0.034579434
-0.12288754 -0.16607864 0.020676464 -0.15861839 0.0005143583 0.3381982 -0.04754064 -0.06880316
-0.15689981 0.03377607 -0.08773389 0.13045764 0.12194879 0.035968717 -0.18845454 -0.09897343
0.030249469 -0.07103586 -0.05718899 -0.073093146 0.111195 0.10236959 0.109853745 0.00027875166
-0.12503439 0.14794567 -0.1579676 -0.16188788 0.10373522 0.013619696 0.119077116 -0.040408656
-0.1275369 -0.08573357 0.019545402 0.083844304 -0.07942091 -0.08699494 -0.20342216 0.26931238
-0.14763369 -0.16381921 -0.07323078 0.22890538 -0.057122976 -0.1369733 0.14532422 0.014541587
0.06729173 -0.043477442 0.011603786 0.011303274 0.0037878163 -0.038894933 0.17886694 -0.06888446
0.1291685 -0.045791723 -0.037081633 0.099336326 -0.007693893 -0.12669526 0.08596613 -0.06803766
00000000: bda6 123e 2f7b 88bd 46f6 57be b559 c2bd
00000010: eafd d33c d6af da3a 02dc 503d ee49 51bd
00000020: 9bc7 02bd 5d44 f63d db1d aebd af82 97bb
00000030: 38fe d2bd e76a 9abc 12ef fdbd 9d3a 283e
00000040: 00eb 11bd 5560 ce3c c488 fa3c 3e3a aebd
00000050: a5f5 0a3e 419b 543d 89b6 e0bd 082b 793d
00000060: 2db2 0bbe 654e 323e a3f4 e4bc 722f b73d
00000070: edc5 63be f4a7 ff3d ed7d 05be ed09 9bbd
00000080: 8a60 223e 39da bd3d 3458 423e 1669 763e
00000090: f3a9 fabc 4400 0bbe 8b87 f73d 9c69 8d3d
000000a0: 21c2 543e d64e 09be 5e13 793a 8535 aebd
000000b0: 68e5 02be 6d43 c2bb fa58 32be 41c4 6abe
000000c0: 81ce 21be 5231 533c ff33 ac3c 704e 833d
000000d0: 7805 1bbd c86c 723e c9ef 353d 80a5 c53d
000000e0: a79d b13c 69c2 6bbd dd28 f9bd 1396 0d3e
000000f0: d404 353d 8d87 07be 1477 d23d fbea 9ebd
00000100: 4c99 a73d 0357 0dbd f4e7 ed3d 916c 9dba
00000110: e066 06be b952 483d 6b0d 6b3d e26f b5bd
00000120: cebc 38be 055e 24be c818 193e 091b dc3d
00000130: 6c7c 1f3e ee27 7fbd d29e 90bd e9d6 143d
00000140: fb33 303e fba6 2c3e 6976 533d e107 c83d
00000150: f4ec 8f3d 92a1 b8bd 86fc a73d 59e2 f73c
00000160: cb52 adbd 4408 aebd 9978 0f3d 44e6 90bd
00000170: 544e d93d 072c 3e3b 614f 5bbd 0032 13bd
00000180: 7857 3e3e 1c9f 743d 529f da3e c684 83bd
00000190: 1166 dcbd 548d 213e 73b1 74bd 92b1 debc
000001a0: e999 363d 1be8 a23d b0ad f1bd e40b e2bd
000001b0: 89ac c13c 567d 513d 47b0 ee3d 2772 f3bd
000001c0: 0361 b3bd c254 5a3e c23e 10be b14b 213d
000001d0: 24af f33d 569b 973c 991f 9cbd 1b5d 7abd
000001e0: bc17 d93d 2087 233e faa7 b43d e607 53bd
000001f0: 19f3 6b3d c59d d83d f901 c03d 6225 3d3c
00000200: 0020 523c 7747 f43d 24d1 cb3d 4986 12be
00000210: 77c0 ae3d f16f 4fbd ca17 1bbe 390c ca3c
00000220: da78 cf3b 505b 5d3d 3f57 28bd d7cf 9abc
00000230: 22b3 243e 32f8 abbd 9b4c debd 6f5f 173d
00000240: bbc1 7b3d 3b32 3abb b94e 01bd 88e0 843d
00000250: 62ae 92bd 2b7c ab3d 6ba6 ff3d fdea c03c
00000260: 2345 053e 5551 7fbc 450b cb3d 4e8d a3bd
00000270: e303 5dbe b204 0cbe 0b8b 45be 1a37 363e
00000280: edfd 383c 561b 123e 20a6 24be 20c1 053e
00000290: 6b12 15bd b94b 19be 4ff5 cd3d 8a82 19be
000002a0: f58b 3cbe 82f2 fc3c 6f48 2abe f4dc d2bd
000002b0: 2656 843c 46d7 97bb a126 0f3d 656d 76bd
000002c0: 0694 073e 9789 213d a9bf 0c3e 9b9a d3bd
000002d0: e5bd af3d 76c0 ea3c 2974 9c3d 7642 f63d
000002e0: 97ff acbb aec9 43bd 915b de3d e572 483d
000002f0: 8ea3 02bd 6493 1abd 7b30 02be 2aa3 0d3d
00000300: 76ac fbbd 8510 2abe b061 a93c dc6c 22be
00000310: 00d6 063a 5128 ad3e f9b9 42bd ace8 8cbd
00000320: 58aa 20be c758 0a3d d3ad b3bd b096 053e
00000330: 4ac0 f93d ef53 133d 3afa 40be 95b2 cabd
00000340: bccd f73c 407b 91bd 013f 6abd dcb1 95bd
00000350: 34ba e33d 26a7 d13d 00fb e03d 6a25 9239
00000360: 0409 00be 127f 173e 42c2 21be f0c5 25be
00000370: 2273 d43d 2525 5f3c b4de f33d 8c83 25bd
00000380: 0899 02be 1595 afbd ae1d a03c 90b6 ab3d
00000390: 6ea7 a2bd 672a b2bd e64d 50be 50e3 893e
000003a0: 492d 17be 39c0 27be 05fa 95bd 2c66 6a3e
000003b0: c8f9 69bd bb42 0cbe dfcf 143e d63f 6e3c
000003c0: 3fd0 893d 6715 32bd ce1d 3e3c 5e31 393c
000003d0: 033d 783b 4b50 1fbd e528 373e 4c13 8dbd
000003e0: bf44 043e 1a90 3bbd e9e2 17bd d870 cb3d
000003f0: 0d1d fcbb 67bc 01be 030f b03d 5457 8bbd

actor_body.linear1.bias f4 [288]
-0.09992756 -0.017972508 -0.11412579 0.15561472 -0.07863607 -0.16007261 -0.08095433 -0.060170382
0.047880616 -0.092449374 0.050217923 -0.10374704 0.046025753 -0.06287843 0.097335786 -0.097598225
-0.12404751 -0.05188186 0.09730335 -0.01948019 -0.15442036 -0.010405037 0.10631853 0.15917177
-0.0409132 -0.08171975 -0.10005086 -0.16823286 0.02603749 -0.1406366 -0.13516058 -0.039606214
0.16258438 -0.09485765 -0.008506914 -0.083795026 0.11434674 0.084099635 -0.07673719 0.07742846
0.15480329 0.111789905 0.17198715 0.12911288 -0.12485896 0.03202868 0.08390009 -0.030465975
0.056109786 -0.023386605 -0.0076648383 0.088452786 -0.104619615 0.14082602 -0.08671291 0.08259724
-0.0936722 0.018944195 -0.093059406 -0.047768027 -0.10725741 -0.0035334355 0.039149094 -0.11080078
-0.08251631 -0.052493937 -0.10252499 -0.0038403168 0.056415144 -0.044926878 -0.017303701 0.0032781921
0.11341496 -0.13975772 0.049790584 -0.016992515 -0.033274822 -0.023018535 -0.0972392 0.04784829
0.22883582 -0.13652241 0.0019401166 -0.1249927 0.10462003 0.056723807 -0.04233214 0.026504405
0.12527828 0.067252845 0.15714873 -0.070452586 -0.07437256 0.11801096 0.082318366 0.0043208497
0.14088881 0.054083236 -0.08527739 0.014631359 -0.04775276 0.1812117 -0.043067586 0.00667463
-0.015434709 0.035567567 -0.09905927 0.120804034 0.22277996 0.08985292 -0.0935339 0.03755687
-0.09183983 0.19758701 0.1004043 -0.026098737 -0.031397842 -0.09542143 0.14733654 0.046531092
-0.1022252 -0.03738603 -0.041463036 0.0013669834 0.137973 0.046780504 -0.13558106 0.056678507
0.071343325 0.08140784 0.101289324 0.017229248 0.16819164 0.005630805 -0.096928485 0.12603211
-0.102119446 0.03926909 -0.095885225 0.0025581939 0.1209989 -0.014856058 0.11905663 0.11284947
0.14442414 -0.08137669 0.10498776 0.06990577 0.054066952 0.09703384 -0.06037137 -0.08871902
0.0022831722 0.11683652 -0.14369886 -0.051921554 -0.07085948 0.08358545 0.06890306 -0.16518758
0.09334283 -0.109473385 -0.07921221 -0.109637156 0.042668063 0.12979549 -0.07561337 -0.19460693
-0.11250627 0.019956993 0.054770235 -0.13049094 0.13759492 -0.045363564 0.088377155 0.05408783
0.037576918 0.13726246 0.10577758 -0.050782375 0.084309965 -0.04657331 0.027358385 0.007736885
-0.056576576 -0.0656483 0.086446024 -0.13187659 -0.1318966 0.05535232 0.09891601 -0.10685385
-0.14293778 -0.14145818 0.01719817 -0.12164129 0.12495959 -0.12989315 -0.018184995 0.0048909625
0.15997808 -0.08895762 -0.10857621 0.026021158 0.079247795 -0.04592826 0.07044934 0.009840339
-0.16455975 -0.18369582 -0.12996933 -0.08911642 -0.23989338 -0.1936787 -0.17273611 0.14335889
-0.1062337 0.20039494 0.10505988 -0.14702275 -0.1223696 0.07286821 0.13107437 0.048566807
-0.13110738 0.06830674 0.0969225 -0.019040817 0.010581432 -0.10656069 -0.019218706 -0.13788523
0.02852359 0.075501956 -0.11411661 0.1690668 0.056286365 0.0259849 -0.049482614 -0.029228201
-0.109271236 0.04854851 -0.028352907 0.029406724 -0.034409687 0.11851857 0.029142186 0.04427891
-0.03975483 -0.19976123 -0.030900888 0.14912549 -0.15043034 -0.14338659 0.11866452 -0.04521783
00000000: d2a6 ccbd 153b 93bc c8ba e9bd 7759 1f3e
00000010: f30b a1bd 13ea 23be 62cb a5bd 3875 76bd
00000020: 771e 443d 1956 bdbd 4fb1 4d3d 5479 d4bd
00000030: 8085 3c3d 68c6 80bd fc57 c73d 94e1 c7bd
00000040: 9f0c febd 1382 54bd fb46 c73d eb94 9fbc
00000050: 5f20 1ebe e379 2abc 88bd d93d edfd 223e
00000060: 9994 27bd af5c a7bd 77e7 ccbd 3c45 2cbe
00000070: 934c d53c 0a03 10be 8967 0abe 203a 22bd
00000080: 857c 263e ba44 c2bd 9560 0bbc ba9c abbd
00000090: a02e ea3d 6e3c ac3d 6328 9dbd d092 9e3d
000000a0: c184 1e3e 1bf2 e43d 661d 303e 2b36 043e
000000b0: 0eb6 ffbd 8130 033d cfd3 ab3d c893 f9bc
000000c0: 60d3 653d 4495 bfbc 5329 fbbb bc26 b53d
000000d0: cf42 d6bd b234 103e 8a96 b1bd be28 a93d
000000e0: 36d7 bfbd db30 9b3c ee95 bebd 68a8 43bd
000000f0: c6a9 dbbd 3691 67bb cd5a 203d 85eb e2bd
00000100: 50fe a8bd e203 57bd 9ff8 d1bd d3ad 7bbb
00000110: 9113 673d 3f05 38bd 7ec0 8dbc f0d6 563b
00000120: 1a46 e83d a61c 0fbe 36f1 4b3d e333 8bbc
00000130: 2e4b 08bd 5e91 bcbc 5825 c7bd 92fc 433d
00000140: f053 6a3e 88cc 0bbe 834b fe3a 2cfc ffbd
00000150: 0743 d63d 3957 683d 7764 2dbd c41f d93c
00000160: f348 003e dcbb 893d 99eb 203e 7249 90bd
00000170: a450 98bd bbaf f13d 8896 a83d ea95 8d3b
00000180: 2845 103e 6286 5d3d eaa5 aebd 5eb8 6f3c
00000190: 6698 43bd 8f8f 393e a367 30bd dbb6 da3b
000001a0: dde1 7cbc 4caf 113d 96df cabd 1b68 f73d
000001b0: 6e20 643e cf04 b83d b48e bfbd 3cd5 193d
000001c0: 8516 bcbd 4054 4a3e c5a0 cd3d 05cd d5bc
000001d0: 069b 00bd 506c c3bd 64df 163e 6397 3e3d
000001e0: 725b d1bd 1822 19bd 25d5 29bd 5a2c b33a
000001f0: cb48 0d3e ea9c 3f3d c3d5 0abe b927 683d
00000200: 731c 923d 27b9 a63d c770 cf3d 5a24 8d3c
00000210: 6e3a 2c3e 9e82 b83b 7182 c6bd 900e 013e
00000220: 0024 d1bd a0d8 203d 795f c4bd 5fa7 273b
00000230: 45ce f73d d366 73bc f6d3 f33d 9f1d e73d
00000240: ece3 133e d2a8 a6bd d303 d73d c22a 8f3d
00000250: 4f75 5d3d aeb9 c63d f847 77bd 51b2 b5bd
00000260: 46a1 153b fc47 ef3d cb25 13be b2ab 54bd
00000270: c61e 91bd d92e ab3d 0c1d 8d3d ef26 29be
00000280: 872a bf3d 9533 e0bd 033a a2bd 7289 e0bd
00000290: b5c4 2e3d 1ce9 043e 2fdb 9abd 0a47 47be
000002a0: b069 e6bd d97c a33c c156 603d 6b9f 05be
000002b0: afe5 0c3e 25cf 39bd 15ff b43d 338b 5d3d
000002c0: 41ea 193d 888e 0c3e eaa1 d83d 2e01 50bd
000002d0: b4aa ac3d a8c3 3ebd b11e e03c b285 fd3b
000002e0: d7bc 67bd 9e72 86bd 9d0a b13d a80a 07be
000002f0: e70f 07be 1db9 623d 7a94 ca3d 31d6 dabd
00000300: 485e 12be 6ada 10be 2de3 8c3c 121f f9bd
00000310: d0ea ff3d b602 05be b3f8 94bc 5e44 a03b
00000320: 4bd1 233e 6a2f b6bd 345d debd 532a d53c
00000330: ab4c a23d 451f 3cbd be47 903d 6039 213c
00000340: 5a82 28be c21a 3cbe ae16 05be ab82 b6bd
00000350: 9ca6 75be b653 46be bce1 30be accc 123e
00000360: 0e91 d9bd 5534 4d3e a229 d73d 228d 16be
00000370: ea9c fabd ee3b 953d 5c38 063e fded 463d
00000380: 0341 06be 67e4 8b3d 4e7f c63d 7dfb 9bbc
00000390: be5d 2d3c 7e3c dabd 8c70 9dbc c931 0dbe
000003a0: 4eaa e93c c5a0 9a3d f8b5 e9bd d91f 2d3e
000003b0: 888c 663d 49de d43c 48ae 4abd fb6f efbc
000003c0: 99c9 dfbd cdda 463d 5b44 e8bc 5fe6 f03c
000003d0: 2cf1 0cbd ddb9 f23d 98bb ee3c cd5d 353d
000003e0: f6d5 22bd 358e 4cbe dc23 fdbc 5ab4 183e
000003f0: 690a 1abe efd3 12be 6206 f33d 5536 39bd

actor_body.linear2.weight f4 [288, 288]
-0.045417305 -0.006248573 0.00499949 -0.041570183 0.025445882 -0.04822499 -0.01605306 -0.026167506
-0.068995714 0.051935766 0.014920426 0.034403056 0.055999007 0.017601876 0.0013619227 0.02135593
0.02799945 0.046771392 0.032504186 0.047672775 0.05498813 -0.030390713 -0.014418663 -0.02059832
0.03837704 -0.040983584 -0.0018404961 -0.017264213 -0.009043579 -0.01123072 -0.04717919 0.0011803053
0.003604614 0.03184158 0.04844787 0.046222217 -0.03405256 -0.050820086 0.021625223 -0.0679307
-0.002805836 -0.07134024 -0.05205961 -0.04980453 -0.05745009 0.047051527 0.024755029 0.018633982
0.005453871 -0.040288392 0.026119513 -0.07394584 0.030568218 0.0013097241 -0.053367473 -0.02965968
-0.046945333 -0.061094128 0.020954574 0.013380303 0.04538736 -0.040876225 -0.0024436712 0.03853618
0.02721751 -0.0011226643 0.0090544205 0.022184039 -0.06548855 0.023720656 -0.043704312 -0.032581333
0.022815228 -0.043479476 -0.076258086 0.032459784 0.022998288 0.026569203 0.0005773689 -0.03396765
-0.052972548 -0.044111937 -0.043036487 0.0069325212 -0.024444705 0.04107717 -0.071563765 -0.061938062
-0.023501193 0.0026356303 0.03802827 0.07135404 0.02663859 -0.03207182 -0.03687066 -0.013566356
0.009459363 -0.057758626 0.004536035 -0.021981467 0.02498289 -0.07909928 -0.05746256 -0.026978752
0.032732803 0.021790765 -0.011935498 0.0068916855 0.04021794 0.025302218 0.00801067 -0.011623967
-0.022489933 -0.027268453 0.0072000083 -0.06349019 -0.0257238 0.0101291295 -0.041298993 0.027388439
0.040252768 -0.0019268942 -0.028386299 0.012325643 -0.03891295 0.019937102 0.056007873 -0.04140573
0.005234686 -0.011879704 0.0018952611 -0.08418106 0.023893282 -0.01408062 -0.00032405334 -0.007293107
0.041488685 0.03903043 0.033727117 -0.07606901 -0.0302192 0.002457741 -0.044890907 0.015437043
0.008929384 0.0030903916 -0.04137416 -0.063519925 0.0001389008 -0.010148848 -0.0010897896 0.010446797
-0.009384949 0.038288713 0.03866998 0.026277708 0.006627905 -0.06702696 -0.03521145 -0.033078913
0.06249956 0.019403089 0.03404978 0.0030142327 -0.03714257 -0.055888638 -0.03296995 -0.010009414
0.019067813 -0.029111655 0.0049535697 -0.0464481 0.026985157 -0.042007305 0.0051093586 -0.054267295
0.016439699 -0.029076599 0.02607738 -0.0277451 -0.04096899 -0.06843841 -0.018633695 0.058109563
-0.029240973 -0.020736413 -0.024306946 -0.043553855 -0.019000266 -0.07317222 -0.0026295222 -0.04922535
0.00045281238 -0.056803215 -0.04164435 0.009020433 0.023522755 0.028097777 -0.039157435 -0.040285718
-0.044796634 -0.068143874 -0.04298369 -0.022042861 -0.052012134 -0.057386022 -0.06339206 -0.05312112
0.050337244 0.017296301 0.016168294 -0.056602973 0.012974034 -0.023122843 -0.032744277 0.05257135
-0.019136863 -0.0054524476 -0.0057438514 0.04005201 -0.04620572 -0.06867991 0.0007636438 -0.0013076616
0.03590139 -0.032362442 -0.04075982 -0.0432365 0.033238284 0.011198499 -0.029560119 0.025847662
-0.039348375 0.023612393 -0.02210482 -0.04703053 -0.024820287 0.014002805 0.03297948 0.043134786
-0.045028225 0.037959617 0.00095819007 -0.0041391607 0.01470775 -0.019910183 -0.03609668 -0.062297434
-0.04613327 -0.039547365 0.004424219 0.051507026 -0.036374755 -0.033930454 0.0032947636 -0.0032446291
00000000: 7f07 3abd d4c0 ccbb c3d2 a33b 7f45 2abd
00000010: e273 d03c 9187 45bd b581 83bc 3d5d d6bc
00000020: a04d 8dbd 99ba 543d cd74 743c 38ea 0c3d
00000030: 375f 653d cf31 903c 8b82 b23a a2f2 ae3c
00000040: 1a5f e53c 5c93 3f3d 1c23 053d 8744 433d
00000050: 3c3b 613d f2f5 f8bc 423c 6cbc cfbd a8bc
00000060: 3e31 1d3d 67de 27bd cd3c f1ba ae6d 8dbc
00000070: 852b 14bc 0e01 38bc f73e 41bd 79b4 9a3a
00000080: 633b 6c3b 516c 023d 4671 463d 8253 3d3d
00000090: b27a 0bbd b928 50bd 6127 b13c 401f 8bbd
000000a0: 1ee2 37bb d51a 92bd 753c 55bd d6ff 4bbd
000000b0: c950 6bbd 1ab9 403d 0fcb ca3c 4ba6 983c
000000c0: 63b6 b23b 7105 25bd 97f8 d53c eb70 97bd
000000d0: 336a fa3c 0cab ab3a da97 5abd dbf8 f2bc
000000e0: c049 40bd d63d 7abd eda8 ab3c 0f39 5b3c
000000f0: 19e8 393d d46d 27bd 0026 20bb 1dd8 1d3d
00000100: 41f7 de3c 5d26 93ba fe58 143c 4dbb b53c
00000110: dc1e 86bd d251 c23c 4b03 33bd 0174 05bd
00000120: 00e7 ba3c 8917 32bd 332d 9cbd 8df4 043d
00000130: e866 bc3c a8a7 d93c 925a 173a aa21 0bbd
00000140: bef9 58bd b8ae 34bd 0747 30bd 342a e33b
00000150: 4340 c8bc 8940 283d 0690 92bd c4b2 7dbd
00000160: 9385 c0bc 8aba 2c3b 88c3 1b3d 1122 923d
00000170: 2c39 da3c be5d 03bd b005 17bd 6c45 5ebc
00000180: 72fb 1a3c 4f94 6cbd 05a3 943b 7a12 b4bc
00000190: eba8 cc3c cefe a1bd dc5d 6bbd 8b02 ddbc
000001a0: d512 063d 8c82 b23c 1b8d 43bc a6d3 e13b
000001b0: 91bb 243d 9946 cf3c 2f3f 033c 7472 3ebc
000001c0: cf3c b8bc 1762 dfbc 0cee eb3b 2507 82bd
000001d0: b8ba d2bc a6f4 253c 2229 29bd b85d e03c
000001e0: 16e0 243d d78f fcba 628a e8bc 7ef1 493c
000001f0: 2f63 1fbd 2253 a33c 8368 653d 0e99 29bd
00000200: bb87 ab3b 17a3 42bc 696a f83a 1f67 acbd
00000210: d8bb c33c 67b2 66bc b4e5 a9b9 04fb eebb
00000220: 0af0 293d 5fde 1f3d 7225 0a3d 12ca 9bbd
00000230: 418e f7bc 0d12 213b 87df 37bd a7eb 7c3c
00000240: 8d4c 123c 2b88 4a3b f477 29bd bc16 82bd
00000250: e6a5 1139 5b47 26bc 45d7 8eba 0b29 2b3c
00000260: 54c3 19bc a0d4 1c3d 6a64 1e3d 5944 d73c
00000270: e62e d93b 6e45 89bd e239 10bd c17d 07bd
00000280: 8aff 7f3d 3af3 9e3c c877 0b3d 6f8a 453b
00000290: cf22 18bd 7ceb 64bd 800b 07bd 86fe 23bc
000002a0: 1a34 9c3c 917b eebc 8e51 a23b 5d40 3ebd
000002b0: fa0f dd3c da0f 2cbd 686c a73b 6247 5ebd
000002c0: 8cac 863c 0c32 eebc 3ba0 d53c b149 e3bc
000002d0: 1acf 27bd 7029 8cbd b1a5 98bc 4b04 6e3d
000002e0: c48a efbc 69df a9bc 5c1f c7bc 8765 32bd
000002f0: 72a6 9bbc 51db 95bd 1054 2cbb 85a0 49bd
00000300: 7367 ed39 7daa 68bd 4493 2abd 70ca 133c
00000310: cbb2 c03c 4f2d e63c 8c63 20bd a302 25bd
00000320: ad7c 37bd 048f 8bbd aa0f 30bd 3b93 b4bc
00000330: ad0a 55bd 9b0d 6bbd b2d3 81bd 8895 59bd
00000340: 6d2e 4e3d f9b0 8d3c 5f73 843c 85d8 67bd
00000350: 0b91 543c 1e6c bdbc dd1e 06bd 0e55 573d
00000360: e9c4 9cbc 72aa b2bb eb36 bcbb 940d 243d
00000370: 3642 3dbd 0da8 8cbd 452f 483a d865 abba
00000380: 560d 133d 7b8e 04bd c5f3 26bd c218 31bd
00000390: de24 083d e979 373c 1028 f2bc 7abe d33c
000003a0: c32b 21bd c76e c13c 2b15 b5bc 16a3 40bd
000003b0: ea53 cbbc 056c 653c 7e15 073d 1aae 303d
000003c0: 846f 38bd 8b7b 1b3d 0c2f 7b3a cca1 87bb
000003d0: c6f8 703c ae1a a3bc 1dda 13bd 982b 7fbd
000003e0: 3df6 3cbd 6bfc 21bd 0af9 903b 08f9 523d
000003f0: b2fd 14bd a9fa 0abd f6ec 573b d8a3 54bb

actor_body.linear2.bias f4 [288]
0.040192388 -0.033372186 0.03367024 -0.007618095 -0.002130269 0.037621032 0.0428951 -0.009711128
-0.02325686 0.022562541 -0.007631368 -0.011919402 -0.032854073 -0.032670233 0.019036224 -0.05306713
-0.017082416 -0.018966207 0.051795922 0.019631445 -0.014242403 0.032217797 0.039442077 -0.033764474
0.060724024 0.058281142 -0.045415465 -0.05292041 0.003442397 -0.004949157 -0.0011951866 0.006949942
0.046628267 0.063432485 -0.034657333 -0.0034556112 0.007916339 -0.029605532 -0.058168773 -0.009253946
-0.05219774 0.0054922667 -0.018914543 0.019648168 0.00653209 -0.0044242037 0.04407833 0.031333573
0.032381445 0.00564788 -0.033845365 -0.055014495 0.012690934 0.03466279 -0.040193185 -0.051917497
0.024722489 0.015683303 -0.030676747 0.002909455 -0.016640183 -0.006569364 -0.022133812 0.0059369733
0.011489942 0.0408327 -0.033913836 -0.00055932574 -0.012995745 -0.0017854039 0.019009598 -0.009558046
-0.051282577 0.028902875 0.027486976 0.0149286315 -0.05020085 0.021501819 -0.05589488 0.046055987
-0.03483349 -0.05912495 -0.027651813 0.014434928 0.04051856 -0.010162721 0.028482731 -0.035488248
-0.04313832 0.023448858 -0.00044057242 0.05304112 -0.002534544 0.05341914 -0.022526974 0.01914932
-0.025359323 -0.020303024 0.023274329 -0.043781493 -0.004747791 0.018696839 -0.05588747 -0.04251321
-0.015777493 0.027249563 0.038491514 -0.032712493 -0.07086325 -0.05617501 0.050360385 -0.0625413
-0.04306267 0.0022022517 0.004391336 -0.05793949 0.02942389 -0.039331283 -0.03393308 0.02225304
-0.007410863 0.002835223 -0.045890152 0.014454607 0.03859508 0.036224037 0.01005628 -0.00095663767
0.019382935 0.020993227 0.012954293 -0.0251579 -0.037812583 0.038254853 -0.0368053 0.0327056
-0.010526821 0.035931893 0.04887313 0.044819135 -0.016936433 -0.07667766 -0.014176649 0.013808914
0.012203775 0.040618893 0.04058217 0.020824984 -0.013885137 0.03774235 -0.044628408 0.002046542
0.0051598824 0.046221428 0.022527235 -0.039829392 -0.055359405 0.053446367 0.028092077 0.046547424
0.01294912 0.07206985 0.058526196 0.043899667 -0.02662218 -0.029090418 -0.034034476 0.042447116
-0.010457493 -0.030634597 -0.03934099 -0.06255506 -0.05057177 0.053739626 -0.0031513902 0.030330028
0.031135501 -0.049970098 0.00062602415 0.080187 -0.06278635 -0.0030963707 0.025016136 -0.0067654285
-0.032689944 -0.008019711 -0.0038648082 -0.039109074 0.046127126 -0.0025607687 0.015944337 0.04050376
-0.05617787 -0.04706449 0.0069987425 0.03386908 0.05682076 -0.043469243 -0.02797732 0.055392038
0.04531621 0.017184548 -0.04417085 0.00094478286 0.031855915 0.018631581 0.0318776 -0.054624073
0.058532216 0.018022684 -0.016858581 -0.06440533 0.054042574 -0.0018232613 -0.042137176 -0.01870374
0.033780184 -0.032796364 0.058564804 -0.047262996 0.026619008 0.039763 -0.017063793 0.00032517736
0.0407403 0.052698586 0.052539274 0.016414728 0.042458966 0.034363013 0.004991546 0.050589237
0.027881175 -0.030822102 -0.0521283 0.046000913 -0.0685252 0.014559923 -0.0003512166 0.051938146
0.06289586 -0.02962647 0.0036759258 0.05497492 0.023056393 0.0029104436 0.037768353 -0.015407799
-0.0051377597 0.00013342449 -0.036816355 -0.06687301 0.025642231 0.023038268 0.024289617 0.063384004
00000000: c6a0 243d 46b1 08bd cee9 093d 36a1 f9bb
00000010: fc9b 0bbb 8318 1a3d c6b2 2f3d 6c1b 1fbc
00000020: 2c85 bebc 14d5 b83c 8e10 fabb 9849 43bc
00000030: fe91 06bd 39d1 05bd dbf1 9b3c eb5c 59bd
00000040: 6cf0 8bbc 055f 9bbc f627 543d 20d2 a03c
00000050: f858 69bc cff6 033d 048e 213d 9e4c 0abd
00000060: c1b9 783d 35b8 6e3d 9105 3abd 12c3 58bd
00000070: d799 613b 8a2c a2bb cfa7 9cba 57bc e33b
00000080: 48fd 3e3d e4e8 813d d9f4 0dbd 8977 62bb
00000090: 88b3 013c 4d87 f2bc 6142 6ebd dd9d 17bc
000000a0: 4ccd 55bd 79f8 b33b acf2 9abc 32f5 a03c
000000b0: 240b d63b e9f8 90bb 7b8b 343d a257 003d
000000c0: 68a2 043d da11 b93b 70a1 0abd e156 61bd
000000d0: a3ed 4f3c 92fa 0d3d 9ca1 24bd 71a7 54bd
000000e0: d186 ca3c 457a 803c cd4d fbbc 8eac 3e3b
000000f0: fe50 88bc d243 d7bb f851 b5bc f18a c23b
00000100: 4f40 3c3c 3040 273d 3ce9 0abd b79f 12ba
00000110: 1bec 54bc 3704 eaba 04ba 9b3c 5a99 1cbc
00000120: ae0d 52bd b9c5 ec3c 5e2c e13c 3897 743c
00000130: 689f 4dbd 9524 b03c 08f2 64bd 34a5 3c3d
00000140: 90ad 0ebd 012d 72bd 0e86 e2bc 7a80 6c3c
00000150: caf6 253d 8b81 26bc 9e54 e93c 205c 11bd
00000160: cfb1 30bd d217 c03c a1fc e6b9 a541 593d
00000170: 981a 26bb 07ce 5a3d 7d8a b8bc 09df 9c3c
00000180: 5bbe cfbc 8752 a6bc cea9 be3c 3954 33bd
00000190: 5c93 9bbb 1d2a 993c 42ea 64bd 5522 2ebd
000001a0: cd3f 81bc 7a3a df3c 47a9 1d3d 89fd 05bd
000001b0: c020 91bd c417 66bd b146 4e3d a715 80bd
000001c0: 7b62 30bd a753 103b 32e5 8f3b f551 6dbd
000001d0: 5f0a f13c d719 21bd 6afd 0abd 024c b63c
000001e0: d3d6 f2bb 26cf 393b 50f7 3bbd 04d3 6c3c
000001f0: e015 1e3d a85f 143d 18c3 243c dec6 7aba
00000200: f6c8 9e3c fdf9 ab3c 3e3e 543c f117 cebc
00000210: 5ee1 1abd 1fb1 1c3d 27c1 16bd 4ff6 053d
00000220: b078 2cbc 522d 133d 312f 483d 4594 373d
00000230: 46be 8abc 2d09 9dbd 2d45 68bc c93e 623c
00000240: 58f2 473c ff5f 263d 7d39 263d 2899 aa3c
00000250: 7c7e 63bc b997 1a3d 47cc 36bd 471f 063b
00000260: 3b14 a93b ae52 3d3d 098b b83c 2524 23bd
00000270: 8bc0 62bd 94ea 5a3d 5b21 e63c 83a8 3e3d
00000280: 8c28 543c 5c99 933d 2ab9 6f3d 23d0 333d
00000290: c216 dabc 074f eebc bc67 0bbd 07dd 2d3d
000002a0: e855 2bbc 68f5 fabc 0524 21bd de1c 80bd
000002b0: 5824 4fbd 151e 5c3d 8e87 4ebb ae76 f83c
000002c0: e10f ff3c 72ad 4cbd c51b 243a 1539 a43d
000002d0: 2196 80bd 7bec 4abb a4ee cc3c 87b0 ddbb
000002e0: e4e5 05bd 1b65 03bc b948 7dbb d630 20bd
000002f0: ccef 3c3d 92d2 27bb b39d 823c 45e7 253d
00000300: c41a 66bd b2c6 40bd b555 e53b 4eba 0a3d
00000310: e3bc 683d ce0c 32bd b130 e5bc c3e2 623d
00000320: 7d9d 393d 9cc6 8c3c 7eec 34bd 4eab 773a
00000330: 597b 023d 42a1 983c 1692 023d 7ebd 5fbd
00000340: 7abf 6f3d 4fa4 933c 021b 8abc f1e6 83bd
00000350: bf5b 5d3d 7ffa eeba 0898 2cbd 9638 99bc
00000360: 175d 0a3d 7b55 06bd a6e1 6f3d d896 41bd
00000370: 1b10 da3c 87de 223d 5ec9 8bbc 917c aa39
00000380: 4ddf 263d 79da 573d 6c33 573d 2e78 863c
00000390: 74e9 2d3d 3bc0 0c3d 1f90 a33b a936 4f3d
000003a0: 1067 e43c a27e fcbc 7c84 55bd 746b 3c3d
000003b0: f156 8cbd be8c 6e3c 7e23 b8b9 18bd 543d
000003c0: 8bcf 803d 36b3 f2bc cde7 703b 622d 613d
000003d0: c3e0 bc3c 24bd 3e3b fdb2 1a3d fe70 7cbc
000003e0: a75a a8bb dde7 0b39 bfcc 16bd b7f4 88bd
000003f0: a80f d23c c0ba bc3c 05fb c63c 79cf 813d

actor_body.linear3.weight f4 [4, 288]
-0.015500645 -0.11866309 -0.00039681277 -0.022733305 0.019874286 0.0720526 0.03881963 -0.08849349
0.0036010752 0.07081746 0.039518222 -0.050126188 0.018439673 0.06886788 -0.02315092 0.02762987
0.010375916 0.00508853 0.058665276 0.055873565 0.05010365 0.06858922 -0.0071243364 -0.056818746
0.050069433 -0.08110683 0.02116377 0.01416875 0.037950676 -0.010815236 -0.03411684 0.018446732
0.06965857 -0.023364997 0.035164285 -0.031397406 0.028541232 0.017370105 0.0002222189 -0.08704614
-0.030306082 0.05376064 -0.047360588 0.012281031 0.026118862 -0.06316437 -0.04881738 0.050610214
0.0054943147 0.062419947 0.08977647 -0.03011244 -0.056014407 0.03529397 0.01010459 -0.0816122
-0.0016536998 -0.015892273 0.06621021 0.004859831 0.08366293 0.022532957 -0.0328094 0.048314523
-0.03499053 -0.061945654 -0.015543817 -0.01445003 0.06394407 -0.049562544 -0.017104207 0.019196643
-0.023744242 -0.054605447 0.00550718 0.040114578 -0.072469935 0.090954274 0.010204166 0.024497367
0.08223757 -0.018962214 -0.03628662 -0.055800132 -0.05524817 0.019740691 -0.034888647 -0.05171806
-0.08519682 0.03538483 -0.08166964 0.038093854 -0.012112024 0.057034962 -0.021744242 -0.08468939
-0.0027205546 -0.005244686 0.004427739 0.02219399 -0.008579443 0.09721265 -0.01964964 -0.054624308
-0.051793624 -0.080992796 0.020093296 0.04161051 -0.017480291 0.06030167 0.035304498 -0.07317464
0.11591635 -0.04507208 0.023242993 0.034913905 -0.05853551 0.002242943 -0.020237911 0.09767306
-0.031201892 -0.054502808 0.0077945674 0.007309747 0.056990482 0.028853377 -0.05375314 0.028269634
-0.04657476 -0.07545138 -0.060643803 -0.023813894 -0.039556116 -0.034887157 0.005182112 0.031196984
-0.05974958 -0.06493642 0.012876693 -0.014268532 -0.07522003 -0.008071674 -0.05541901 -0.049491175
0.12942931 -0.05018842 -0.057420377 -0.0034270484 0.010144698 -0.06988277 0.0553163 0.04803261
0.034052163 0.06452485 -0.042134866 0.0698271 -0.0115780495 -0.053447723 0.02654661 -0.04784394
0.046638615 -0.055188917 0.041064784 -0.041589733 0.02138033 0.08333426 0.0030854477 0.049522456
-0.05747408 -0.06870014 -0.04054365 -0.044123404 -0.04708036 0.050500724 0.103189 -0.030480674
-0.048430957 -0.0097663645 -0.05354968 0.0022252458 0.08918931 -0.0144417845 -0.010402697 -0.062034614
-0.095267124 -0.06602866 0.0132457325 0.037626177 -0.06868741 0.086523354 0.049015336 0.009722687
0.09267992 -0.061150488 -0.025541479 -0.036258556 -0.05564906 0.0630551 -0.07076645 0.077051215
-0.04266543 0.0753416 -0.011592892 -0.02746723 0.07796244 0.012359057 0.007858715 0.1080837
0.109601796 0.061258845 -0.011260747 -0.09299947 -0.042800892 -0.09275676 -0.0011424442 -0.08826523
0.020858942 0.0339386 0.06243942 0.02958166 -0.03934857 -0.062717535 -0.04238746 -0.0046491567
0.042845096 0.02778972 -0.09784735 -0.0846887 -0.053997643 0.0047780094 -0.038724065 0.10036223
0.005250242 -0.014111219 -0.054887 0.06822283 0.04742537 -0.038557347 -0.063591205 -0.04535075
0.01659374 0.03489545 -0.010953943 0.0033592733 0.006000102 -0.05910469 -0.032314744 -0.016485186
-0.09422051 0.054576665 0.01912403 0.043661922 -0.044372972 0.089356266 0.0038203816 -0.0073209424
00000000: 6bf6 7dbc a205 f3bd 4f0b d0b9 323b babc
00000010: 66cf a23c 5090 933d 5501 1f3d 133c b5bd
00000020: 0400 6c3b bf08 913d dcdd 213d 1e51 4dbd
00000030: cc0e 973c 9a0a 8d3d 00a7 bdbc 0a58 e23c
00000040: bfff 293c afbd a63b 004b 703d aedb 643d
00000050: 7c39 4d3d 8178 8c3d 4473 e9bb c6ba 68bd
00000060: 9b15 4d3d 561b a6bd a55f ad3c 0b24 683c
00000070: 2b72 1b3d 6332 31bc 1abe 0bbd 9a1d 973c
00000080: 27a9 8e3d f367 bfbc 6d08 103d 919a 00bd
00000090: 4dcf e93c c04b 8e3c 6f03 6939 3f45 b2bd
000000a0: 7644 f8bc 1e34 5c3d 2dfd 41bd 6136 493c
000000b0: 39f7 d53c 525c 81bd bcf4 47bd a84c 4f3d
000000c0: a709 b43b 0fac 7f3d badc b73d 5dae f6bc
000000d0: 5d6f 65bd 6990 103d b98d 253c 4c24 a7bd
000000e0: f5c0 d8ba 8330 82bc 3899 873d 383f 9f3b
000000f0: 7857 ab3d 0997 b83c 2663 06bd 73e5 453d
00000100: 3b52 0fbd baba 7dbd 7eab 7ebc d2bf 6cbc
00000110: 1cf5 823d 1802 4bbd 1f1e 8cbc 4742 9d3c
00000120: 4983 c2bc f6a9 5fbd 9375 b43b 2f4f 243d
00000130: 1e6b 94bd 3c46 ba3d 602f 273c b4ae c83c
00000140: 2c6c a83d a556 9bbc 47a1 14bd ae8e 64bd
00000150: e84b 62bd 3bb7 a13c 66e7 0ebd 51d6 53bd
00000160: ac7b aebd afef 103d 6a42 a7bd 4d08 1c3d
00000170: 8371 46bc 7e9d 693d fb20 b2bc a271 adbd
00000180: 554b 32bb 9ddb abbb 9116 913b 2cd0 b53c
00000190: cb90 0cbc 6d17 c73d 48f8 a0bc bdbd 5fbd
000001a0: 8d25 54bd 8ddf a5bd b29a a43c c86f 2a3d
000001b0: d432 8fbc e2fe 763d 739b 103d 96dc 95bd
000001c0: 8d65 ed3d 809d 38bd 1768 be3c e201 0f3d
000001d0: eec2 6fbd 57fe 123b fac9 a5bc d008 c83d
000001e0: 1c9b ffbc 563e 5fbd 9269 ff3b 9a86 ef3b
000001f0: da6e 693d eb5d ec3c 412c 5cbd b895 e73c
00000200: 2dc5 3ebd 4186 9abd a365 78bd 5b15 c3bc
00000210: 9805 22bd d6e5 0ebd b5ce a93b d190 ff3c
00000220: fabb 74bd 63fd 84bd c4f8 523c 90c6 69bc
00000230: f60c 9abd 0e3f 04bc 0bff 62bd 42b7 4abd
00000240: 1e89 043e 5f92 4dbd a131 6bbd 5598 60bb
00000250: f335 263c b31e 8fbd 5893 623d d8bd 443d
00000260: 487a 0b3d 9b25 843d 9c95 2cbd 8301 8f3d
00000270: dcb1 3dbc 00ec 5abd 4778 d93c 02f8 43bd
00000280: 2208 3f3d c60d 62bd 8c33 283d ff59 2abd
00000290: cd25 af3c 27ab aa3d 3935 4a3b 0fd8 4a3d
000002a0: f169 6bbd a9b2 8cbd 1911 26bd beba 34bd
000002b0: 56d7 40bd d9d9 4e3d c154 d33d 9bb2 f9bc
000002c0: 8a5f 46bd 1a03 20bc e956 5bbd 6ed5 113b
000002d0: e3a8 b63d 3c9d 6cbc 1370 2abc 0218 7ebd
000002e0: 691b c3bd 093a 87bd a104 593c e81d 1a3d
000002f0: fcab 8cbd 2833 b13d 4ec4 483d e84b 1f3c
00000300: f8ce bd3d ef78 7abd 5d3c d1bc da83 14bd
00000310: 45f0 63bd 0823 813d 00ee 90bd 07cd 9d3d
00000320: f2c1 2ebd b24c 9a3d 1df0 3dbc f502 e1bc
00000330: c6aa 9f3d a47d 4a3c d7c1 003c fd5a dd3d
00000340: e876 e03d 8eea 7a3d ff7e 38bc 8276 bebd
00000350: fd4f 2fbd 42f7 bdbd 11be 95ba 67c4 b4bd
00000360: 5fe0 aa3c 3403 0b3d 7ac0 7f3d 3d55 f23c
00000370: f72b 21bd 0d72 80bd 799e 2dbd f457 98bb
00000380: 577e 2f3d 44a7 e33c 3164 c8bd 4571 adbd
00000390: a22c 5dbd d990 9c3b 209d 1ebd b68a cd3d
000003a0: 390a ac3b be32 67bc 31d1 60bd 69b8 8b3d
000003b0: 1b41 423d 4fee 1dbd 1b3c 82bd b5c1 39bd
000003c0: 98ef 873c 88ee 0e3d 2b78 33bc 4127 5c3b
000003d0: 819c c43b c217 72bd 775c 04bd f10b 87bc
000003e0: aff6 c0bd c88b 5f3d ffa9 9c3c d8d6 323d
000003f0: 6fc0 35bd 6b00 b73d 5e5f 7a3b 84e4 efbb

actor_body.linear3.bias f4 [4]
-0.016511725 0.019285448 0.02772679 0.049753364
00000000: 9943 87bc 84fc 9d3c 4b23 e33c 2fca 4b3d

critic_body.linear1.weight f4 [288, 33]
0.14725472 -0.12091285 0.0010109289 -0.032551415 -0.104039736 -0.15741554 0.14196832 -0.10717129
0.074342236 0.06496874 -0.036711093 -0.12976937 -0.14802875 -0.004086108 0.18996619 -0.03109193
0.05750812 0.056412455 -0.04300887 0.18494834 -0.020428088 -0.12740074 -0.008481345 0.03525408
0.016220285 0.028913636 -0.07531898 0.11393933 -0.0054321075 0.021490604 -0.099501 -0.04593043
-0.101048306 -0.0011332117 0.033498637 0.025085049 -0.11310129 -0.15967959 -0.10818213 -0.11999838
-0.17709704 -0.0592817 0.11494004 -0.08027461 -0.0670807 -0.07294262 0.15131634 -0.16078898
-0.0013313098 -0.19801714 -0.47746396 -0.044042777 -0.06751554 -0.061766185 0.038240906 0.045079384
0.030947408 0.0265494 -0.052295875 -0.12253562 0.19964954 0.005549072 -0.031336308 -0.074016094
-0.04117143 -0.49323967 0.014135818 -0.1665019 -0.12376059 -0.045371473 -0.13560009 0.04153835
0.018608434 0.14552005 0.030303145 0.10008621 -0.020173637 -0.10217843 -0.11360605 0.1000466
0.058728583 0.004576144 -0.08442557 -0.061186656 -0.109012246 0.004680113 -0.13538274 -0.114574365
-0.11577862 -0.02999351 -0.01414153 0.08164995 0.14604783 0.038423546 -0.15527941 -0.057535224
0.19031402 0.122555315 -0.28224114 0.025414275 -0.06181585 -0.0966131 0.18639174 -0.08338815
-0.06433513 0.14563227 0.20131397 0.08841222 0.07982314 0.011983297 0.074872866 0.11180058
-0.0679748 -0.0027376933 -0.1004817 0.029897917 0.07805003 -0.030333888 -0.10106414 -0.101498686
0.12347789 0.020482266 -0.11345873 0.025655214 0.07821239 0.07679872 0.1054038 0.16831568
0.10303664 0.096759744 0.06333259 0.29378602 -0.06468731 0.0757932 -0.15936644 0.009519671
-0.16071399 0.025475465 -0.027398756 -0.083306946 -0.034067724 -0.14023702 -0.04290634 0.061125785
-0.014376647 0.06545942 0.11352443 0.017287534 0.18433003 -0.009849191 0.019001668 -0.0928837
-0.0867145 0.01650228 0.06442995 0.023970159 0.004139168 0.113210775 0.14749314 -0.051278826
0.17791533 0.062737584 0.16355951 0.1290769 -0.46714878 -0.030688087 -0.056526255 -0.14890969
-0.067041166 0.09912962 -0.08483906 0.0021488492 -0.12094379 0.110230945 0.02303436 0.03789512
0.1278158 0.057523187 -0.005955535 -0.018951077 0.104534335 -0.1730623 0.09368792 -0.16169244
0.031226361 0.051317118 0.062237978 -0.025104811 -0.048518088 0.020392228 -0.00897662 -0.010816259
0.017993078 -0.016979342 -0.060467802 -0.14364678 -0.1546555 0.44497457 -0.034987684 -0.055409286
-0.021702325 0.114495166 -0.07482389 0.22955517 0.19200025 0.14813237 0.10729158 -0.09402552
0.08708121 -0.0692425 0.0921502 -0.03546 -0.07253948 -0.019882236 0.08265481 0.011216873
0.076334715 0.034051348 -0.08037621 -0.008425525 -0.029493954 -0.0054246504 -0.034411613 -0.079649985
-0.086934164 -0.02745972 0.06970761 0.018737644 0.025267472 0.04840222 0.45349142 -0.067406826
0.083462566 -0.031497713 -0.12662157 0.12110629 0.19900477 0.16352886 0.033877105 -0.062267624
-0.13637581 0.038116023 -0.101904474 -0.045582585 0.026487974 -0.13865252 -0.15621108 0.10538866
0.029020097 0.03478684 0.067152165 -0.10973372 -0.1757922 0.17437923 0.05371892 0.033874743
00000000: f1c9 163e 28a1 f7bd 2581 843a a254 05bd
00000010: c912 d5bd 8a31 21be 2560 113e 9f7c dbbd
00000020: be40 983d 550e 853d 5f5e 16bd 43e2 04be
00000030: d994 17be c2e4 85bb 7f86 423e 81b4 febc
00000040: a28d 6b3d bf10 673d 122a 30bd 1963 3d3e
00000050: ce58 a7bc 5775 02be 57f5 0abc 9566 103d
00000060: 67e0 843c 4adc ec3c d640 9abd 0659 e93d
00000070: d2ff b1bb 100d b03c 2ec7 cbbd 8c21 3cbd
00000080: 6af2 cebd 4688 94ba de35 093d 297f cd3c
00000090: a6a1 e7bd 0c83 23be 988e ddbd b6c1 f5bd
000000a0: ed58 35be 5ed1 72bd af65 eb3d 0467 a4bd
000000b0: 9b61 89bd f162 95bd acf2 1a3e dea5 24be
000000c0: 587f aeba 01c5 4abe 2876 f4be 3366 34bd
000000d0: 9645 8abd 8afe 7cbd 7fa2 1c3d 29a5 383d
000000e0: 6b85 fd3c 217e d93c 3334 56bd f5f3 fabd
000000f0: ee70 4c3e fdd4 b53b 805a 00bd c095 97bd
00000100: 60a3 28bd e989 fcbe eb99 673c 797f 2abe
00000110: 3176 fdbd 70d7 39bd c0da 0abe 1e24 2a3d
00000120: b770 983c 3503 153e 4d3e f83c 00fa cc3d
00000130: 2f43 a5bc ed42 d1bd 4aaa e8bd 3be5 cc3d
00000140: 628d 703d 7af3 953b 50e7 acbd dc9e 7abd
00000150: d041 dfbd a25b 993b c6a1 0abe f7a5 eabd
00000160: 571d edbd f3b4 f5bc e0b1 67bc 1738 a73d
00000170: 908d 153e 0262 1d3d 9101 1fbe 0eaa 6bbd
00000180: aee1 423e 48fe fa3d e981 90be 9931 d03c
00000190: 9e32 7dbd 17dd c5bd 7add 3e3e 68c7 aabd
000001a0: 23c2 83bd a020 153e 4025 4e3e 7711 b53d
000001b0: 507a a33d 9755 443c f256 993d b4f7 e43d
000001c0: 5f36 8bbd df6a 33bb 59c9 cdbd 7aec f43c
000001d0: b2d8 9f3d c67e f8bc b7fa cebd 8bde cfbd
000001e0: fae1 fc3d 6dca a73c 0d5d e8bd e22a d23c
000001f0: d12d a03d a648 9d3d f3dd d73d f25a 2c3e
00000200: e004 d33d f929 c63d 84b4 813d 1f6b 963e
00000210: c87a 84bd 7739 9b3d f530 23be 65f8 1b3c
00000220: 3592 24be ecb1 d03c 5b73 e0bc d59c aabd
00000230: 998a 0bbd 4b9a 0fbe 8fbe 2fbd 085f 7a3d
00000240: 078c 6bbc 970f 863d 7f7f e83d 969e 8d3c
00000250: 03c1 3c3e 805e 21bc 63a9 9b3c cf39 bebd
00000260: 5f97 b1bd ca2f 873c daf3 833d 115d c43c
00000270: dca1 873b 0ddb e73d 7108 173e bf09 52bd
00000280: 702f 363e 907c 803d 257c 273e bc2c 043e
00000290: 202e efbe 9565 fbbc 1388 67bd c87b 18be
000002a0: e14c 89bd 7804 cb3d 1ac0 adbd b5d3 0c3b
000002b0: 61b1 f7bd c3c0 e13d 8eb2 bc3c ea37 1b3d
000002c0: 25e2 023e 6f9d 6b3d a626 c3bb 4a3f 9bbc
000002d0: 1916 d63d 3e37 31be 74df bf3d b492 25be
000002e0: 6dce ff3c e631 523d 40ed 7e3d 9ba8 cdbc
000002f0: e7ba 46bd 9a0d a73c ac12 13bc ae36 31bc
00000300: 3866 933c 4318 8bbc 16ad 77bd 2418 13be
00000310: 035e 1ebe b5d3 e33e 3f4f 0fbd d9f4 62bd
00000320: 13c9 b1bc 717c ea3d 453d 99bd 8310 6b3e
00000330: b79b 443e 03b0 173e b0bb db3d 7490 c0bd
00000340: a257 b23d 03cf 8dbd 3eb9 bc3d 813e 11bd
00000350: 948f 94bd 12e0 a2bc ed46 a93d fac6 373c
00000360: 6055 9c3d 6d79 0b3d 489c a4bd 370b 0abc
00000370: 4e9d f1bc 44c1 b1bb 31f3 0cbd 881f a3bd
00000380: 8a0a b2bd 35f3 e0bc ddc2 8e3d b07f 993c
00000390: bbfd ce3c 6841 463d 0730 e83e 970c 8abd
000003a0: 6cee aa3d bf03 01bd 16a9 01be 9306 f83d
000003b0: e8c7 4b3e 1c74 273e b8c2 0a3d 560c 7fbd
000003c0: 1aa6 0bbe 8c1f 1c3d 4bb3 d0bd ceb4 3abd
000003d0: 4ffd d83c edfa 0dbe ccf5 1fbe 03d6 d73d
000003e0: 8ebb ed3c a57c 0e3d 1387 893d 13bc e0bd
000003f0: df02 34be 7890 323e 5f08 5c3d 3ec0 0a3d

critic_body.linear1.bias f4 [288]
-0.16247696 0.0007052707 -0.04146901 0.035514362 0.011542462 0.01246903 0.108678706 -0.08675817
-0.08309234 0.1465655 0.12717824 -0.13242805 0.08315497 -0.017562127 0.04826312 0.0934912
0.14723358 0.1132432 -0.19295797 -0.021000473 0.0043037864 -0.1480151 -0.03162573 0.07161622
0.0031009538 0.1753039 0.02546309 -0.11014474 0.22087494 -0.044412874 -0.24902424 -0.059393108
0.00047851543 -0.03919173 0.08455306 -0.034725744 -0.13488238 -0.13439517 -0.11446677 -0.17771134
0.01394131 -0.04503627 -0.13248739 0.02111851 -0.031017045 -0.1116972 0.08877795 -0.14312904
0.043210167 -0.13082528 -0.10976374 0.09070355 -0.10279879 -0.16598122 -0.04710888 -0.15139836
-0.109552264 -0.1614556 -0.010230471 -0.14305398 0.042763457 0.039352227 0.25249222 -0.18707557
0.15781535 -0.11514295 0.07355708 -0.14607006 0.15716809 0.080149285 0.0040544253 -0.06285714
0.06505548 0.034262806 -0.11991031 -0.19990109 0.06681766 0.020794123 -0.2357196 0.054316763
-0.22789206 0.06588466 -0.09375236 -0.0023468768 -0.17221253 0.12480731 -0.08071803 0.15122753
0.07642654 0.03471836 0.092999265 -0.20574732 0.11104037 -0.059799604 -0.054169174 -0.08420289
-0.16035031 -0.087140545 0.09343948 -0.1740937 -0.049310885 0.055568658 -0.022669548 0.024636768
-0.008952261 -0.04732158 0.05931478 0.15706372 0.0012784821 -0.11927261 -0.15743595 0.15461718
0.098681174 0.14137383 -0.125791 -0.07035781 -0.050314654 -0.00680609 0.000107433305 0.23676147
0.04133405 0.017890532 0.0005533263 0.02355223 0.0883795 -0.06605651 0.053053454 -0.003733532
-0.073111035 -0.06653239 0.032745965 -0.16001298 0.11765223 -0.095615335 0.035020906 -0.045512993
0.049881134 0.07597206 0.14380136 -0.14802507 0.085794315 -0.12993734 -0.022760238 0.06454498
-0.018671386 0.071932144 -0.070573546 -0.029260797 -0.004069918 0.1142325 0.040934533 0.122189075
-0.10274623 0.0046517327 -0.17642835 -0.028654164 -0.12481983 -0.004596767 0.001729689 0.044194344
-0.13207245 0.047054518 -0.106234446 -0.057295106 -0.19195355 0.059621204 0.12504369 0.10177656
0.055173546 -0.07873497 -0.14029361 -0.12954451 0.10927861 0.058756832 0.18119113 -0.115097284
-0.075547405 -0.023492435 0.040493462 0.019897476 -0.12148431 0.061525576 -0.14445537 -0.013809104
-0.009260629 0.18256463 0.022376567 -0.15828452 0.06681298 0.20350766 -0.21147512 0.0579686
0.0141715435 0.1685 0.07813815 -0.10426093 0.006923244 -0.14877367 -0.13447517 0.007881382
0.013128995 -0.0013465949 -0.086015575 -0.17152023 0.15593792 -0.109970845 -0.11580465 -0.060787197
-0.14536095 -0.08378785 -0.102790184 -0.123605505 -0.032076202 -0.15175505 -0.10154117 0.13074042
0.12162054 0.1386886 -0.19891958 -0.013742954 -0.013430362 -0.0020912425 0.053610314 0.12117872
-0.048276752 0.120812066 -0.06753861 -0.00164857 -0.07310764 -0.16439448 -0.10744312 0.079164416
-0.18156041 0.08185876 0.08765976 0.15112826 0.039370056 0.033095155 0.16476502 -0.16490032
-0.20060682 0.08476486 0.07670928 -0.14507084 -0.054419007 0.12544999 -0.12948363 0.16338944
-0.074322686 -0.075304806 -0.20070101 0.071172826 0.019825414 0.13301721 -0.09981209 0.040154416
00000000: 5c60 26be eae1 383a 69db 29bd 8277 113d
00000010: 981c 3d3c e74a 4c3c f192 de3d 44ae b1bd
00000020: 512c aabd 4415 163e 033b 023e 389b 07be
00000030: 274d aa3d 73de 8fbc 8daf 453d 5078 bf3d
00000040: 66c4 163e 0dec e73d c696 45be 2f09 acbc
00000050: c706 8d3b 4591 17be fb89 01bd 86ab 923d
00000060: 5f39 4b3b de82 333e f897 d03c 9193 e1bd
00000070: 0a2d 623e 46ea 35bd 3600 7fbe 3046 73bd
00000080: 41e1 fa39 8287 20bd 282a ad3d 953c 0ebd
00000090: 9b1e 0abe e39e 09be 8e6d eabd f6f9 35be
000000a0: 186a 643c f477 38bd c6aa 07be ba00 ad3c
000000b0: 7517 febc 80c1 e4bd 37d1 b53d 6b90 12be
000000c0: 25fd 303d 10f7 05be d0cb e0bd c8c2 b93d
000000d0: 2c88 d2bd fbf6 29be 3ef5 40bd 2c08 1bbe
000000e0: f05c e0bd 9e54 25be b59d 27bc be7c 12be
000000f0: bc28 2f3d cd2f 213d a946 813e bd90 3fbe
00000100: 599a 213e 11d0 ebbd 18a5 963d 6493 15be
00000110: acf0 203e 4f25 a43d fcda 843b 3fbb 80bd
00000120: cf3b 853d 2857 0c3d 8993 f5bd dfb2 4cbe
00000130: b3d7 883d 7058 aa3c 7b60 71be 417b 5e3d
00000140: 895c 69be 89ee 863d 3d01 c0bd 0fce 19bb
00000150: 7b58 30be fa9a ff3d 7f4f a5bd 64db 1a3e
00000160: 8585 9c3d d734 0e3d 6676 be3d 6daf 52be
00000170: 2269 e33d 6ef0 74bd 7fe0 5dbd 9172 acbd
00000180: df32 24be be76 b2bd 335d bf3d 9e45 32be
00000190: 36fa 49bd f69b 633d 7db5 b9bc 0cd3 c93c
000001a0: 81ac 12bc 46d4 41bd 0ef4 723d 50d5 203e
000001b0: be92 a73a 3345 f4bd e436 21be f753 1e3e
000001c0: 5b19 ca3d 4dc4 103e 5bcf 00be c117 90bd
000001d0: bd16 4ebd 9f05 dfbb d14d e138 9971 723e
000001e0: e54d 293d 2a8f 923c 190d 113a 9bf0 c03c
000001f0: 5000 b53d a348 87bd 944e 593d 46ae 74bb
00000200: 3dbb 95bd 2242 88bd a220 063d 71da 23be
00000210: a7f3 f03d f9d1 c3bd 1572 0f3d d56b 3abd
00000220: 2950 4c3d 3d97 9b3d aa40 133e e293 17be
00000230: eeb4 af3d 4b0e 05be ae73 babc 2930 843d
00000240: bcf4 98bc 2951 933d dd88 90bd 57b4 efbc
00000250: f25c 85bb bbf2 e93d f8aa 273d 443e fa3d
00000260: 9e6c d2bd 906d 983b a2a9 34be 23bc eabc
00000270: 8aa1 ffbd 7aa0 96bb bbb6 e23a 2105 353d
00000280: 003e 07be 3dbc 403d 7291 d9bd 46ae 6abd
00000290: 798f 44be 5d35 743d 740b 003e 3b70 d03d
000002a0: a8fd 613d cd3f a1bd 21a9 0fbe 51a7 04be
000002b0: 77cd df3d 01ab 703d 2b8a 393e 20b8 ebbd
000002c0: 99b8 9abd 3573 c0bc 79dc 253d 0800 a33c
000002d0: c4cc f8bd 3e02 7c3d 1cec 13be 953f 62bc
000002e0: e5b9 17bc 39f2 3a3e 104f b73c 5615 22be
000002f0: 3ed5 883d 5064 503e ef8c 58be 7c70 6d3d
00000300: c32f 683c 448b 2c3e e506 a03d c186 d5bd
00000310: 61dc e23b 2058 18be dcb3 09be e920 013c
00000320: ff1a 573c 3a80 b0ba ef28 b0bd 00a3 2fbe
00000330: 31ae 1f3e 6538 e1bd fd2a edbd fffb 78bd
00000340: 80d9 14be f798 abbd a983 d2bd e224 fdbd
00000350: 5662 03bd ad65 1bbe d1f4 cfbd d1e0 053e
00000360: 3114 f93d 6204 0e3e 93b1 4bbe 202a 61bc
00000370: 050b 5cbc 3a0d 09bb 7d96 5b3d 8c2c f83d
00000380: d8bd 45bd 516c f73d af51 8abd d414 d8ba
00000390: 75b9 95bd 0757 28be 230b dcbd f420 a23d
000003a0: f9ea 39be 91a5 a73d f686 b33d 5ec1 1a3e
000003b0: 7f42 213d c98e 073d 29b8 283e a1db 28be
000003c0: e06b 4dbe 3399 ad3d c119 9d3d 738d 14be
000003d0: 77e6 5ebd f675 003e 5b97 04be 904f 273e
000003e0: 7e36 98bd 6839 9abd 9184 4dbe 0fc3 913d
000003f0: e868 a23c aa35 083e 486a ccbd f578 243d
