reacher-ppo/models/ppo-max-hiddensize-160.pth (torch_old, 255092 bytes, 12 tensors)

std f4 [1, 4]
000000 bb e4 66 3f 2e 5c 5b 3f d0 a0 65 3e 48 38 e9 3e
       0.90192765 0.8568753 0.22424626 0.45550752

actor_body.linear1.weight f4 [160, 33]
000000 d1 e4 69 be 09 7b fc 3d 42 24 4d be 64 79 0b bd
       -0.22841193 0.123281546 -0.20033363 -0.034051314
000010 89 a0 06 be 2e 8d 35 3e 17 da 02 be 95 0f c4 3d
       -0.13147177 0.17729637 -0.12778507 0.095732845
000020 10 29 8a 3d 3f b7 bf bd 2f c3 ae 3d 24 cb 08 be
       0.06746113 -0.09361123 0.08533322 -0.13358742
000030 fd 96 4f 3d 6c fb 50 bb 98 1f c4 3d c5 42 58 3e
       0.050681103 -0.003188814 0.095763385 0.2111922
000040 54 10 ff 3d 0c a3 66 bd 3d 36 fe 3d c0 c5 56 3d
       0.12454286 -0.056307837 0.12412689 0.052434683
000050 93 96 a5 bc 4a e4 a9 bc 76 8a e9 bd 65 17 29 3a
       -0.020213401 -0.02073874 -0.114033625 0.00064503244
000060 97 14 06 be 39 b4 39 3e d6 ec 0b 3d e3 e0 26 3c
       -0.13093792 0.18135156 0.03416141 0.010185453
000070 78 85 1f 3e 34 ff 7c 3d 68 ef 9f bd db 90 e8 bd
       0.15578258 0.06176682 -0.07809335 -0.11355754
000080 fa bf f4 be ab 8f 59 bc 7a 1d 69 bd 62 ed ce 3c
       -0.47802716 -0.013278882 -0.056912877 0.025259677
000090 1d f7 8e 3d b3 08 2b bd e5 e7 03 3e 2d dd a1 bd
       0.06980727 -0.041756343 0.1288143 -0.07903514
0000a0 60 fa db 3d 49 2b 07 be 50 ce 3c bd 48 20 fb bd
       0.107411146 -0.13200106 -0.046095192 -0.122620165
0000b0 b0 65 29 3e 03 6b 90 bd 75 74 0c be 57 39 b1 bd
       0.16542697 -0.07051661 -0.137163 -0.08653515
0000c0 df 78 e7 bd d4 6b 0b be 81 83 d5 3d e6 b0 55 3d
       -0.11302351 -0.13615352 0.10425473 0.052170657
0000d0 15 94 ca bd 6c 16 da 3d 0c 2c 1c bd b8 e2 f1 3d
       -0.09891526 0.10648808 -0.038127944 0.11810821
0000e0 7b 87 e4 bd 3e 1d 19 bd bc 2e 01 be 2b 85 87 3c
       -0.11158653 -0.037381403 -0.12615484 0.016542992
0000f0 63 33 89 3d 3b 09 fc bc 41 b1 84 bd b1 03 b8 3c
       0.06699254 -0.03076612 -0.06479121 0.022462698
000100 60 9b 3b bd 0d da 39 3d 1c 4f 6c 3d 07 18 03 bd
       -0.045802474 0.045373965 0.057692632 -0.032005336
000110 d2 c0 2e 3d ac ad 0c be e4 49 db 3d d1 c1 28 3d
       0.042664357 -0.13738126 0.10707453 0.041200463
000120 ab e4 e8 bd 8e f7 03 be cd de 4c be 77 57 d3 3c
       -0.1137174 -0.12887403 -0.20006867 0.025798542
000130 b3 d8 c4 3d 8b f0 dd 3d de c8 eb bd d6 03 08 be
       0.096116446 0.108368956 -0.11512922 -0.13282713
000140 4b 65 fc bd 50 22 a2 bd b0 86 de bb 91 cf 1b bd
       -0.123240076 -0.07916701 -0.0067909583 -0.038039748
000150 e7 89 91 bc fc 6e b0 bd 38 3e c5 bd 6c 14 18 be
       -0.017765952 -0.086149186 -0.09631008 -0.1485154
000160 bc e0 28 3e 66 7c 0d be 88 8f 05 3e 2e 27 4b 3e
       0.1649198 -0.13816985 0.13043034 0.19839165
000170 42 a8 1b be 19 1e 9e 3d 81 73 08 be ef 1b 22 be
       -0.15200904 0.077205844 -0.13325311 -0.15830968
000180 d0 d3 12 3d f6 a1 22 3e 4e 9b 5d bd 47 50 2e be
       0.03584653 0.15882096 -0.05410319 -0.17022811
000190 2d fb f9 3a ec d9 26 bd 83 bd 09 3e 92 90 9f 3d
       0.0019072049 -0.04073517 0.13451199 0.077912465
0001a0 6c 45 01 be 06 92 26 3e f2 8d d0 bd 2e 05 97 bd
       -0.12624139 0.16266641 -0.10183324 -0.07374035
0001b0 8d cc 38 be 5b 3f 22 3c 3a 50 d2 3d f4 9a e4 3d
       -0.1804678 0.0099028 0.10269208 0.111623675
0001c0 d6 e7 d0 3d b2 b2 4a 3e 5d bb 02 bd 7b f0 23 be
       0.10200469 0.1979473 -0.031916965 -0.16009705
0001d0 45 30 3a bc fb 5a 73 3d 4a eb d2 3d 71 9a 84 bd
       -0.011364047 0.059412938 0.10298784 -0.0647477
0001e0 0f 05 cb bd be 88 2d be 20 c7 0d 3e bc ac 9b 3d
       -0.09913074 -0.16946694 0.13845491 0.07601306
0001f0 d3 27 1a be 73 aa 58 be b6 06 83 3d 5a 82 af 3d
       -0.15054254 -0.21158771 0.063977644 0.085697845
000200 9a e8 ef bd 0f 02 39 3e ec 4a 00 3d 38 4a 96 3e
       -0.11714287 0.18067192 0.03132145 0.293535
000210 82 62 15 be 71 ff 0e 3e 79 2c a5 3d d7 84 ed 3c
       -0.14588359 0.1396463 0.08065123 0.028994007
000220 3a 16 2e be a9 7a f2 bd 46 25 ce 3d 55 8f 8b 3d
       -0.17000666 -0.11839802 0.10065703 0.06814448
000230 e9 58 5b be 81 eb 3d 3d 15 b8 cb bc c1 18 87 bd
       -0.21420635 0.046367172 -0.02486805 -0.06596518
000240 90 f0 23 3d d9 29 de 3d 30 6c 43 3d 80 4e 6c 3d
       0.04002434 0.108478256 0.047710598 0.05769205
000250 08 a0 13 be 8d 60 b5 3d fa f4 40 bd 74 aa 99 3d
       -0.14416516 0.08856306 -0.047108628 0.075032145
000260 64 2c ba 3d 25 1e 10 be 3b 0e 13 3d d8 72 e1 3d
       0.09090498 -0.14073999 0.035902243 0.11008233
000270 d9 14 dd 3d 13 b8 d6 3c c9 36 23 be a9 e5 d6 bd
       0.10794992 0.02621082 -0.15938868 -0.10493023
000280 e7 66 60 3d 38 cc e8 bc e8 07 21 3e c8 52 25 3e
       0.054785635 -0.028417692 0.15725672 0.1614486
000290 b9 ad 5b bd c8 56 e6 3d 01 4b f1 3d a9 6e 2e 3c
       -0.05363247 0.11247021 0.11781884 0.010646501
0002a0 1b 20 4e bd ec 3c 40 3e 8b 73 29 3e d1 6c 66 bd
       -0.050323587 0.1877324 0.16547982 -0.05625612
0002b0 17 a2 83 bd 4e 25 b1 bd 3e ef 6c bc 5d e2 8a bd
       -0.064274006 -0.086496934 -0.014461337 -0.067814566
0002c0 fa 7b 50 bd 65 34 b6 bd a6 65 24 be f4 e2 e3 bd
       -0.050899483 -0.08896712 -0.16054401 -0.11127272
0002d0 db ca 64 be 2c 6e c1 3d 72 87 b5 bd 6f 1d 86 3d
       -0.22343008 0.09444842 -0.08863725 0.06548583
0002e0 60 51 b0 3d 73 54 ee bd a7 b5 a1 bd 53 59 20 3e
       0.08609271 -0.11637201 -0.078959756 0.15659074
0002f0 4c e9 19 bd 51 7c 1c 3d 15 a0 0a be 74 20 9a bc
       -0.037576005 0.038204495 -0.13537629 -0.018814303
000300 48 c9 e9 bd 99 ee 4e bd 58 cd dc bd 02 6f 34 be
       -0.114153445 -0.050520513 -0.10781354 -0.17620471
000310 a5 19 a9 bd 1d ad b2 be 15 ae b8 bd bb a5 0c be
       -0.082568444 -0.348977 -0.090175785 -0.13735096
000320 52 23 4f be d5 e5 92 3d 1e c3 d5 3d ba 32 31 3e
       -0.20228317 0.07172743 0.10437606 0.17304507
000330 8d b9 85 bd b9 4e 0e be d9 00 94 3d 93 a0 b3 bd
       -0.06529532 -0.13897218 0.07226724 -0.087708615
000340 93 d6 6a 3d d4 31 15 be 47 7d cb 3b 29 81 3e 3e
       0.05733354 -0.14569789 0.0062100026 0.18603958
000350 90 ff 3e be 4b 46 4d 3e 57 7f e2 3d ed ca 21 3e
       -0.18652177 0.20046346 0.110594444 0.15800066
000360 07 2f 6c bc c1 51 87 3d d3 5a e5 bd 5c 4b fd bd
       -0.014415509 0.0660739 -0.11198964 -0.12367889
000370 91 64 c0 3d c2 b4 2e 3e a5 62 3c bd b9 fe 8e 3a
       0.093941815 0.17061141 -0.045992512 0.0010909654
000380 2b 38 3d be 9f db 08 3d 6b 0c d3 3c bc 5b e7 3d
       -0.18478458 0.033412572 0.025762757 0.11296794
000390 1e d6 fb bd 40 f9 10 3e 0c 40 25 bd 21 ed d8 3d
       -0.12296699 0.14157581 -0.040344283 0.10592104
0003a0 82 f9 8a bd d1 8c 7b b9 77 a7 9f bd 9b 76 47 3e
       -0.06785871 -0.00023989684 -0.07795613 0.19478838
0003b0 b9 b0 47 bd 46 3a 48 3d e4 5d 32 3e ed 4c d9 3c
       -0.04875252 0.0488837 0.17418629 0.026525939
0003c0 b6 32 bb bd 9d ee 0c 3d 98 7f 0f be d4 f2 fb bd
       -0.09140532 0.034407247 -0.14013517 -0.12302175
0003d0 8c a1 01 bc 26 4a 13 3e 8e 02 6a 3d 6b e9 9d 3d
       -0.007912051 0.14383754 0.057131343 0.077105366
0003e0 1e 5f 17 be 47 6d b0 bd b7 b2 d9 3d 04 89 52 bd
       -0.14782378 -0.08614593 0.1062979 -0.0514002
0003f0 a3 36 39 3e fe 3e ce 3d 2c 11 ce 3c aa ef 75 bd
       0.18087249 0.100706086 0.025154673 -0.060043015

actor_body.linear1.bias f4 [160]
000000 51 15 1c 3e b0 3a 39 be 96 df f7 3c ea 52 84 3d
       0.15242507 -0.18088794 0.030257981 0.06461127
000010 25 5d 1b 3e a5 d2 ef bd 33 31 01 bd b7 57 ca bd
       0.1517225 -0.11710099 -0.03154106 -0.098800115
000020 72 28 10 be 84 b7 f3 3d d1 a3 61 3e 4b 16 45 3d
       -0.14077929 0.11900237 0.22035147 0.048116963
000030 44 71 16 3e 11 87 ee 3d e5 54 5b 3c 49 ca d8 3c
       0.14691645 0.116468556 0.01338694 0.026463645
000040 be 0a 1b 3e ff 95 13 3d d9 fd 11 be 05 80 a0 3d
       0.15140817 0.03603172 -0.14256991 0.07836918
000050 32 a7 eb bd 2e 3c c9 bc 1a d4 8b 3c 9e f8 3b 3e
       -0.11506499 -0.024564829 0.017068911 0.18356559
000060 b1 3e 72 3b de 20 ac bc 93 06 46 3c 6f f3 8c 3c
       0.0036963637 -0.021011766 0.012086528 0.017205922
000070 ef 2e fb bd 31 8d 86 3d 44 6d 8b 3c 88 63 12 be
       -0.12264811 0.06569899 0.017019875 -0.1429578
000080 68 2d 2f 3e 96 e4 d9 3d aa 54 49 bc 97 10 07 3e
       0.17107165 0.106393024 -0.012288252 0.13189922
000090 8d 19 ac 3d 54 29 80 bd ad c7 29 3e 61 80 e6 3d
       0.08403311 -0.06257883 0.16580077 0.11254955
0000a0 49 de 52 3e 14 9c c2 bd 6f 86 59 bd 1f 95 47 3d
       0.20592608 -0.09502426 -0.05310672 0.048726197
0000b0 e5 e0 3c 3d 90 66 d1 bc 11 3e c1 bd 9b cc 46 bd
       0.046112914 -0.0255616 -0.09435666 -0.04853497
0000c0 dc 35 be bd 50 0a da bd 0f 0a 23 bd 39 70 b7 3d
       -0.092876166 -0.10646498 -0.039804514 0.08956952
0000d0 fc 1b 8a 3d b5 bb 23 be 7b 21 82 bc 28 9f c3 bc
       0.06743619 -0.15989573 -0.015885105 -0.023879603
0000e0 e5 82 d0 bd 4c d9 2f 3e b0 38 0a be dd 29 64 3d
       -0.10181216 0.17172736 -0.13498187 0.055703986
0000f0 12 9f eb 3d 34 02 d6 3d c3 99 e4 bd c5 00 f7 bd
       0.1150495 0.10449639 -0.1116214 -0.12060694
000100 20 fc f0 3d 14 84 93 bc 03 81 87 3d 77 84 17 be
       0.11766839 -0.018007316 0.06616404 -0.14796625
000110 d3 98 be 3d 88 56 0c 3e d7 ab 15 3e 20 b8 1a 3e
       0.09306493 0.13704884 0.14616333 0.151093
000120 e3 20 fb bd 42 f0 99 3d 8a b5 50 bd 53 18 dd 3d
       -0.12262132 0.07516529 -0.05095438 0.10795655
000130 e1 b0 db 3c 87 4b be bd 3b de 2c bd eb f8 1e 3e
       0.02681774 -0.092917494 -0.042204123 0.15524642
000140 f5 fb a5 3d 4d 39 88 3e 86 01 11 be ce 81 ef bd
       0.081046976 0.26606217 -0.14160737 -0.1169468
000150 31 71 df bd dd b5 ce 3d 16 3b 57 be eb d4 ce 3d
       -0.109102614 0.100932814 -0.21018633 0.10099205
000160 e9 06 04 3d ed d0 96 3d 63 ac 5a 3e 86 20 21 bd
       0.032233153 0.07364068 0.21354823 -0.039337657
000170 01 a2 a9 3d 86 a2 62 3d d0 84 1a bd 69 22 f1 bc
       0.08282853 0.055330776 -0.037724316 -0.029435353
000180 f1 f0 45 3c 57 df cc 3d f4 03 21 3e 29 48 b8 bb
       0.012081371 0.10003536 0.15724164 -0.0056238365
000190 62 cc c1 3d 13 c5 19 3d 75 b9 09 be 94 7a bd 3b
       0.09462811 0.03754146 -0.13449652 0.0057824347
0001a0 dc f3 2b 3d 44 17 00 3e 32 ea 77 bd 89 87 11 be
       0.04198061 0.12508875 -0.06052608 -0.14211859
0001b0 6e 34 c1 3d cc a0 90 3d 5c e1 61 3d f7 aa 98 3c
       0.09433828 0.070619196 0.05514656 0.01863621
0001c0 cc 34 66 3d 6f 37 80 bd d6 40 21 3d 97 77 22 3d
       0.056202695 -0.06260573 0.039368473 0.03966483
0001d0 f6 cb de bc b6 96 45 bd 63 5d 9a bd 8c 2e 66 3d
       -0.027196866 -0.048239432 -0.07537343 0.056196734
0001e0 d1 14 3e 3d 1d b1 bc 3c f3 04 39 3e b8 f3 07 3e
       0.04640657 0.023033673 0.18068294 0.13276565
0001f0 c7 df f5 bd 43 bd a7 bd f8 84 c3 3c f9 52 d0 bd
       -0.12005573 -0.08190396 0.023867115 -0.10172076
000200 97 06 f2 bd cd c2 db bc 01 db d4 3d 68 2a d0 bb
       -0.11817663 -0.026826287 0.10393334 -0.0063527115
000210 72 56 c0 bd fa b4 66 be 58 22 76 3d da 5a 25 be
       -0.09391488 -0.22529975 0.060091347 -0.16147938
000220 c7 6e 1a bd 21 0c 58 bd 4a 9c f3 3d 75 fe b1 3d
       -0.0377033 -0.052745942 0.11895044 0.08691112
000230 b0 43 08 bc ce df 09 be 65 28 46 3e aa 2b 0a be
       -0.008316919 -0.13464281 0.19351347 -0.13493219
000240 b4 f7 e0 bd 03 f7 19 be 63 62 05 be 13 a0 0a 3e
       -0.109847456 -0.15035634 -0.13025813 0.13537626
000250 27 6d 0c 3e 54 d9 43 bd 9a a4 e8 3d b6 c2 6f 3d
       0.13713513 -0.047814682 0.1135952 0.0585353
000260 ec e9 83 3d 92 be 0b be f9 c9 ee 3d f0 41 b2 3c
       0.064411014 -0.13646916 0.11659617 0.021759957
000270 b4 e6 29 3e e3 2b 36 3c d1 17 b5 bc bf 48 e2 bd
       0.16591913 0.011118862 -0.022106083 -0.110490315

actor_body.linear2.weight f4 [160, 160]
000000 d6 fb cd ba 24 64 0c 3d 5d 0b 17 3d 0b 4e 49 bd
       -0.0015715312 0.03427519 0.03687607 -0.049146693
000010 ec 38 34 bd 8c c0 e2 3d 13 cc ab 3c bd a8 a8 3d
       -0.043999597 0.11071882 0.020971334 0.08235309
000020 b6 a2 ae bd a6 55 df bd a5 6b 1e 3d 60 01 a4 3d
       -0.085271284 -0.10905008 0.038676877 0.08008075
000030 78 14 f2 bd 2f f2 84 3d 87 4d 29 3d f2 c4 56 bc
       -0.1182031 0.06491505 0.0413337 -0.013108479
000040 3a 46 42 bb da ab 7a 3d 21 45 ce bd 82 37 e8 bc
       -0.002964391 0.061199047 -0.10071779 -0.02834678
000050 65 94 38 bd 78 5a bd bd a5 a3 90 3d 69 25 a6 bd
       -0.045063395 -0.09245771 0.07062463 -0.08112604
000060 49 0c d8 bd 77 92 4b 3c e8 4e 4f bc c7 73 91 bc
       -0.10549218 0.012425057 -0.01265309 -0.017755402
000070 de cd a2 3d 5a 7c c1 3d 95 dc 94 bd ef 6d 52 bd
       0.07949422 0.09447546 -0.07268635 -0.051374372
000080 7a 39 bf 3c 73 d6 cf bc 0f d5 70 bd c5 1c 89 3c
       0.023342837 -0.025370812 -0.05879694 0.016737351
000090 5a 91 f8 bc 07 2e 32 bd 57 d9 07 be 18 56 b8 3d
       -0.030342747 -0.043500926 -0.13266502 0.09000796
0000a0 09 85 ba bc 35 a9 e7 3a 5c 19 93 3d cd 7f 21 3d
       -0.022768514 0.0017674329 0.07182571 0.03942852
0000b0 17 77 7a bd 2d a5 a9 bd 80 33 7f 3d c6 b7 a8 bd
       -0.06114873 -0.08283458 0.062304974 -0.08238177
0000c0 ed 09 13 3d e7 fc 6a 3d 81 c9 16 3d 28 bf 84 3c
       0.035898138 0.057370093 0.036813263 0.016204432
0000d0 ea 3f fc 3d 6c 0c fc bc 04 d2 d8 bd 73 38 6b 3d
       0.12316878 -0.030767642 -0.10586932 0.05742688
0000e0 61 57 c7 3d 00 db 45 3d c6 07 84 3d 94 fc 75 bb
       0.09733463 0.048304558 0.06446795 -0.0037534581
0000f0 0d 9d f1 3d 0d 2a 07 bd be b7 af 3d dc ce 6d bd
       0.11797533 -0.032999087 0.08579968 -0.058058605
000100 1d 3c 62 bd 73 89 f0 bc a9 71 90 3c 52 4c 4f bd
       -0.05523311 -0.029362416 0.017632322 -0.050609894
000110 05 67 06 3d 3d bf ab 3b 37 46 7a bd 0e d8 0d 3d
       0.03281309 0.0052413032 -0.06110212 0.034629874
000120 a3 54 e1 bd e5 f6 b9 3d 5d 8d e4 bc 39 4c 25 bd
       -0.11002471 0.090802945 -0.027899439 -0.040355895
000130 d5 aa d8 3c 2e 24 29 bd 08 90 12 3c d3 fd ba bd
       0.026448647 -0.04129427 0.008945473 -0.091304444
000140 d0 94 c4 3c ca d5 85 bd bf 6e 67 3c 77 6d 8e 3d
       0.02399674 -0.06534918 0.014125525 0.069544725
000150 29 c4 c6 bd e0 10 87 3d 6d 4d ca 3c 26 d7 2c bc
       -0.09705383 0.065950155 0.024695123 -0.010549342
000160 c4 40 06 bd 9d b9 18 3b a5 60 e1 bc f6 67 5d bd
       -0.03277661 0.0023303994 -0.027511904 -0.054054223
000170 3d 94 33 bd d7 bd c0 3b fb a8 54 3d ef cf 6b bd
       -0.043842543 0.0058820057 0.051918965 -0.057571348
000180 26 14 38 3d 55 65 d1 3d a6 41 14 3d a0 9c 12 3d
       0.04494109 0.10224406 0.03619542 0.0357939
000190 c4 18 b1 ba 1b bb 42 ba ae c2 38 bc 6a de 50 3d
       -0.0013511409 -0.00074283936 -0.011276884 0.05099336
0001a0 b0 4c d5 3c 61 6b a2 bd 20 58 25 bd 0e 48 d6 3a
       0.026037544 -0.07930637 -0.040367246 0.0016348378
0001b0 68 d5 12 3c d2 b0 a0 bc 7b 7c 82 3d fd 9e 9c bd
       0.008962013 -0.019615564 0.06371399 -0.07647512
0001c0 b0 d3 b1 bc f2 bd 14 bb 88 4b 0a bd c5 18 ee bb
       -0.021707386 -0.0022696224 -0.03376344 -0.0072661364
0001d0 a8 38 40 be e3 c3 16 3c 5b 01 eb 3b c0 02 bf 3c
       -0.18771613 0.0092019765 0.0071717924 0.023316741
0001e0 a6 a1 17 3d c5 45 53 bb a2 d8 03 3d 39 57 08 3e
       0.037019394 -0.003223763 0.03218902 0.13314523
0001f0 7e 26 87 3c 57 3c 95 bc e9 20 b4 bd 6a 94 00 bd
       0.016497847 -0.018217249 -0.087953396 -0.03139154
000200 e6 85 69 3a 0c 4c 98 bd ce f1 b2 bd 77 d9 5d 3c
       0.0008908197 -0.0743638 -0.08737527 0.013540617
000210 2e 00 b0 3d 69 c4 27 3c d9 72 13 3d 6d 24 29 bb
       0.08593784 0.010239699 0.0359982 -0.0025809065
000220 61 6d 5d bd d2 c9 ec 3c 9d c4 fc 3c 14 20 2f 3d
       -0.05405939 0.02890483 0.030855471 0.0427552
000230 5d e3 25 3d eb 1b 82 bd 14 eb 9e bc 77 b1 ef bd
       0.040500034 -0.06352981 -0.019399203 -0.117037706
000240 c0 5b 94 bb ef ca 98 3c a4 7b 8e bb af 2e a3 bc
       -0.004527539 0.018651454 -0.004348235 -0.019919721
000250 a4 b5 09 bc 24 c7 e1 3d c2 33 90 ba cc e8 04 3d
       -0.008405123 0.11024311 -0.0011001753 0.032448575
000260 49 e7 80 3d bd c4 b0 3c 0c e4 c1 3d 79 b5 76 bd
       0.06294114 0.021578187 0.094673246 -0.06023166
000270 8f d1 38 bd c2 0b c3 bc 7b 4d 9e 3d 1e ac b2 bc
       -0.045121726 -0.023809317 0.07729622 -0.021810587
000280 95 77 72 3d 51 f0 35 bd 52 41 fd 3c 28 9a 90 bd
       0.059196074 -0.044418637 0.030914936 -0.07060653
000290 9b 33 4a bc 0f 4e b2 3d 7c 09 64 3c d7 14 35 3b
       -0.012341405 0.08706295 0.013918277 0.002763083
0002a0 2f e6 11 be ea db 27 bd 3c ce cb bc 2b 15 e4 3b
       -0.14247964 -0.04098121 -0.024878614 0.006960531
0002b0 1e be 02 bd 63 63 f0 3c 36 be a3 3c f4 9a b8 bd
       -0.03191959 0.029344266 0.01998816 -0.0901393
0002c0 4c 3c cc bd ed 3d 09 3b 30 0a d1 bd b1 61 24 3e
       -0.09972438 0.0020941452 -0.10207021 0.16052891
0002d0 98 6c 94 bd 8f 35 18 3d 69 b2 8f 3d 69 f2 05 bc
       -0.07247275 0.037160452 0.07016451 -0.008175471
0002e0 62 17 8c ba 1c 24 8f bd 8b c6 af bd 5e 4d 61 3d
       -0.0010688121 -0.06989309 -0.08582791 0.055005424
0002f0 36 6f 92 bd 72 19 0d bd f1 16 55 3d 18 9f 41 bd
       -0.07150118 -0.034448095 0.05202383 -0.047270864
000300 6c 35 10 3d 02 f7 6b 3b c7 5a 50 bd ce c2 4a bc
       0.035207197 0.0036005382 -0.050867822 -0.012375547
000310 2f a5 fc bc 6d 66 58 3d 92 65 e1 3c e3 5d b2 bc
       -0.030840484 0.052832056 0.027514253 -0.021773284
000320 f4 87 cb bc 7e 35 b1 3b 67 ba 8e 3d 04 2a d8 bc
       -0.024845101 0.005407988 0.06969147 -0.026387222
000330 71 b5 45 bd eb 90 f6 3c 16 46 cf bd df f5 54 3d
       -0.04826874 0.0300984 -0.1012079 0.051992293
000340 0a ef 1f bc 9c 2a ff bb b5 7e 28 bb 97 c6 b9 bd
       -0.009761581 -0.007787062 -0.002571029 -0.09071081
000350 72 0d 26 3d 2f d8 9b bd 50 5f 26 bc 58 4c 7f bd
       0.040540166 -0.07609593 -0.01015456 -0.062328666
000360 ae 44 ae bd b0 c6 29 bd 75 89 3c bb 19 5b bc bc
       -0.08509193 -0.04144925 -0.0028768454 -0.022992657
000370 5c 44 44 3d 50 56 9b 3d 8a 21 d1 3d d0 08 db bd
       0.047916755 0.07584822 0.10211475 -0.1069504
000380 dd 00 2d 3d ba 9e 96 3d ea c0 da 3c 9a 12 8d 3c
       0.04223715 0.073544934 0.026703317 0.017220784
000390 e0 18 74 3d 31 25 c8 3d 25 2e ed bd 42 fe af 3b
       0.059594035 0.09772719 -0.11581067 0.005370886
0003a0 1b 22 0f 3d 05 b6 9c bc 9c 1b 4e 3d 83 72 a9 bd
       0.034944635 -0.019129762 0.0503193 -0.082737945
0003b0 be 47 a7 3d 5d 2e 26 3d 59 e6 10 bd 3d 3e d1 bb
       0.081679806 0.04057156 -0.035375927 -0.006385593
0003c0 6e 1a 34 3d 45 85 d0 3d 4d 4e 08 be 1d d0 58 bd
       0.043970518 0.10181669 -0.1331112 -0.052932847
0003d0 6e b5 48 bd 8b 00 82 bd 42 b1 23 bd f3 da c9 bc
       -0.04900115 -0.0634776 -0.039963968 -0.024640536
0003e0 bc 1f 93 bd 99 f4 18 3d 97 1f 51 bd 7d 68 50 3b
       -0.07183787 0.03734264 -0.051055517 0.003180056
0003f0 0c 90 a1 3d de b4 04 bd d9 a4 fd 3b 00 b7 61 bd
       0.07888803 -0.03239905 0.0077405986 -0.055106163

actor_body.linear2.bias f4 [160]
000000 ee ac 6e bd 42 2d 36 3d 02 8a bc 3d eb fd 8e 3c
       -0.058270387 0.044476755 0.092060104 0.017455062
000010 94 94 a6 3c db d9 55 bd 68 30 b3 3d 32 ee 58 3d
       0.02033452 -0.052209716 0.08749467 0.052961536
000020 56 69 88 bd 12 ff 7d bd a9 78 9f 3c 7b 94 65 3b
       -0.06660716 -0.062010832 0.019466715 0.0035031128
000030 21 38 3a 3d 61 ff 15 bc 92 53 6c bd b6 5b 75 bc
       0.045463685 -0.009155125 -0.057696886 -0.014975479
000040 0b e3 3e bd 93 87 11 3d 13 c2 21 3d de 91 4d bd
       -0.046603244 0.035529684 0.039491724 -0.050187938
000050 cf 20 e4 3c db 06 88 bd a6 31 62 bd ac 52 65 3d
       0.027847676 -0.066419326 -0.05522313 0.055987045
000060 5f ee 4f 3d 10 94 bb bc f0 88 ca 3c be 6f b2 bc
       0.050764438 -0.02289775 0.0247235 -0.021781798
000070 db 17 39 3d 70 9f a4 bb 6e 4d a1 bc 4d 55 8f 3c
       0.045188766 -0.0050238892 -0.019690242 0.01749673
000080 29 e5 7f bd 27 28 76 3d ae e5 1e bd 26 d3 57 3c
       -0.062474404 0.060096886 -0.03879326 0.0131729
000090 ab 78 56 bc ca 05 07 bd 67 81 e6 3b e7 8e ad bc
       -0.013090293 -0.032964505 0.007034469 -0.021186305
0000a0 45 28 ed bc 28 4d 8c 3d 64 5c 8c 3d 0b 31 64 3d
       -0.028949866 0.06850654 0.068535596 0.055710834
0000b0 31 2f 5b 3d 88 fc e5 3c a2 bb eb bb de 1a 58 bd
       0.053511802 0.028074518 -0.0071939984 -0.052759998
0000c0 b4 d8 32 3d 0a df c9 3c e2 0c 18 bb bf c9 e0 bc
       0.043663695 0.024642486 -0.0023201038 -0.02743995
0000d0 e4 68 45 bd e8 e2 1a bd 12 36 5f bd b9 64 1d bd
       -0.048195735 -0.03781405 -0.054494925 -0.038426135
0000e0 7c 1a 8d bd 4a 0d 17 3d c6 42 b2 3c ca b6 e7 3c
       -0.06889817 0.036877908 0.021760356 0.028285403
0000f0 ba 11 1b 3d e0 94 cb 3c 7c 06 1d 3c 54 6a c4 bc
       0.037858702 0.024851263 0.0095840655 -0.023976482
000100 3c 77 e2 3c 10 dd 96 3d 35 b0 f1 bb 95 69 45 3d
       0.027644746 0.07366383 -0.007375742 0.048196394
000110 f4 d7 d0 bb 28 00 c6 bc 3a 0c 32 bd 8e 7c 10 3d
       -0.0063734 -0.024169996 -0.04346869 0.035275035
000120 8f cb 50 bd a2 eb c7 bc f9 15 7d bc f8 5d 9e bd
       -0.05097538 -0.02440435 -0.015447133 -0.07732767
000130 ea 40 97 3d 87 bd 32 3d e9 69 68 3d 53 8b a0 3d
       0.07385428 0.04363778 0.05674163 0.07839074
000140 f2 11 bc 3d cb f3 ad 3c d4 5e 67 3d ec 9d 9d 3b
       0.0918311 0.021234414 0.05648692 0.0048100855
000150 cb 4b 52 3d b9 8b ff bc 38 a9 00 bb a7 c8 e9 3a
       0.051341813 -0.031194555 -0.0019632112 0.0017836288
000160 da c4 5a bd 72 5a 84 bd 05 e1 96 3d 6a ed 31 3d
       -0.05341039 -0.064625636 0.07367138 0.043439306
000170 1a 3c 3b bd 6b ad 06 3d a7 66 82 3b d9 83 90 bb
       -0.045711614 0.032880228 0.0039795223 -0.0044102487
000180 0c 4b 3e 3d fd 6f 33 3c bb 06 69 3d 68 40 85 3c
       0.04645829 0.010951993 0.056891184 0.016266063
000190 75 3d 2f bd 4c a8 b1 3d 18 1a 65 3c 65 a5 a3 bd
       -0.04278322 0.08674678 0.013983272 -0.07990531
0001a0 ab f6 23 3d 52 6f 6e 3d 55 8e 04 3d 15 34 52 3d
       0.040030163 0.058211632 0.0323623 0.0513192
0001b0 40 30 34 3d 72 d6 f3 3c 0d f4 3b bd b8 43 d4 bc
       0.043991327 0.029765341 -0.04588704 -0.025911197
0001c0 d7 57 ff bb 41 0d 79 3d 4f ae 50 3d eb b2 49 bb
       -0.0077924537 0.060803656 0.050947484 -0.003077681
0001d0 ac 09 75 3d 09 f4 f1 bc b6 03 a8 bc 36 14 6b 3d
       0.059823677 -0.02953531 -0.020509582 0.05739232
0001e0 81 7e b5 3c 0c d9 30 bd 94 b8 84 3d 7c 82 29 bd
       0.022155048 -0.043175742 0.06480518 -0.041384205
0001f0 ea 4d d6 bc fd 2d 90 bc c1 95 85 3b 8c 5b 1c 3d
       -0.0261602 -0.017600054 0.00407669 0.038173243
000200 d6 3d 0c bc 5a 11 d3 3d 62 a1 54 3d f5 33 25 bd
       -0.008559665 0.10306044 0.05191172 -0.040332753
000210 5f 8c 74 3d e7 cf 10 3d 19 45 d6 bc 3e 26 3e 3d
       0.05970418 0.03535452 -0.026155995 0.04642319
000220 6d e0 31 bd ab 16 94 3d bc f0 51 3d d4 1b cd 3c
       -0.04342692 0.07230886 0.051254973 0.025037684
000230 5a 1a 97 3d d9 48 34 3d 06 58 63 bd 6e db 86 bd
       0.07378073 0.044014785 -0.055503868 -0.06584822
000240 93 e0 d3 3c 2f 82 86 bc 18 d4 db bb 57 7f 15 3d
       0.025863921 -0.016419498 -0.006708633 0.036498394
000250 4d cb 6e bd 21 bd 6c 3c 83 fa 40 3d 96 35 5c bd
       -0.05829935 0.014449389 0.047113907 -0.05376204
000260 44 48 d9 3a 20 ef 8f 3d 5d 66 d0 3b 27 59 a0 3d
       0.0016577323 0.07028031 0.006359859 0.078295045
000270 c2 0b b9 bd 5f f7 3f bd 54 b7 a1 bd 79 ee 19 bc
       -0.09035446 -0.04686677 -0.07896295 -0.009395235

actor_body.linear3.weight f4 [4, 160]
000000 68 e6 b4 3c 44 26 36 3d d0 65 d2 3d bd 70 8b bc
       0.022082523 0.044470087 0.102733254 -0.017021531
000010 c7 d3 e4 bc b5 c9 1a 3d 0b a4 2b 3d a0 29 cf bb
       -0.027933015 0.03779002 0.04190449 -0.0063221008
000020 fb 65 e7 3d 94 53 b3 3d cb 5f 89 bd 4e 7c 20 3d
       0.11298748 0.08756176 -0.06707724 0.039181046
000030 3f ee 81 3d c3 a8 de 3d bd 81 d9 bd ee cd 43 3d
       0.0634427 0.108720325 -0.10620449 0.04780381
000040 b5 de f0 3d 37 27 ca bc 3e fb 3c 3d 01 9d ee bd
       0.11761228 -0.024676902 0.04613804 -0.1165104
000050 4f 49 82 3d 8b f1 a6 3b d7 f8 e9 3c ac cb 84 bd
       0.06361639 0.005094712 0.028561039 -0.0648416
000060 61 fe a4 bd 1b 16 9a 3c 3e b9 18 be 33 71 eb bd
       -0.080563314 0.018809369 -0.14914414 -0.114962004
000070 08 35 b0 bc 33 7b 80 bd 0f 6c 0d bd d4 59 ee 3d
       -0.021509662 -0.062734984 -0.03452688 0.11638227
000080 fe 4a 8d bd bb 2e 62 bd 61 9b b5 3d d0 8b c8 bd
       -0.06899069 -0.055220347 0.08867527 -0.09792292
000090 90 bc 0a be 50 e7 e7 3d 56 d5 29 bd b7 bb c5 bd
       -0.13548493 0.11323416 -0.04146322 -0.096549444
0000a0 be 05 b7 bd 17 29 99 3d e5 ca c0 bc 69 b2 50 3d
       -0.08936642 0.074785404 -0.023534248 0.050951395
0000b0 c0 7c ec 3d cd d0 d1 bc 09 a2 a9 bc ab 8b 01 3d
       0.11547232 -0.02561226 -0.020707147 0.03162734
0000c0 1c 1a 08 3d 9b 80 ea 3d 41 f0 98 bc c0 94 03 3e
       0.033228025 0.11450311 -0.01866925 0.12849712
0000d0 2e 43 fc bd a0 9b a7 3d f9 a7 12 3d 06 42 b7 bd
       -0.12317501 0.0818398 0.035804722 -0.0894814
0000e0 50 2b 26 be 3d f8 18 3d 12 4c e4 bd 28 26 ae 3d
       -0.1622746 0.037346113 -0.11147322 0.085033715
0000f0 70 a1 ad bd a6 4f 39 3d 88 4d 89 3d ac 23 bf bd
       -0.084780574 0.045241974 0.06704241 -0.09332976
000100 49 0d d7 3c b1 c2 44 3d 11 b7 22 bd 11 ac c0 bd
       0.026251452 0.048037235 -0.039725367 -0.09407819
000110 3f 62 26 3d 8f d7 96 3c b9 9e 56 3d 7e 30 b9 bd
       0.04062104 0.018413333 0.052397463 -0.09042452
000120 64 cd e9 3d 86 5c c7 bd 7e 2f 21 3c 73 d0 19 3e
       0.11416128 -0.09734444 0.009837983 0.15020923
000130 92 8e 48 bc 3f 62 ef bc 23 c4 f4 3c 3b ea 0a be
       -0.012241023 -0.029221652 0.029878682 -0.13565914
000140 2f 40 e8 bd c6 95 1f 3d dc 94 86 bb 44 2b b4 bd
       -0.11340367 0.038961194 -0.004107101 -0.08797315
000150 f5 f3 d1 bd 7f a9 24 bd 07 16 59 bd 5a c3 2d 3c
       -0.10251609 -0.040200707 -0.052999523 0.0106056575
000160 7c 7c bf 3d 38 cc 12 be 8c 5d de 3c 55 5a 2e bd
       0.093499154 -0.14335716 0.027144216 -0.042566616
000170 37 e6 45 3b d4 96 63 bd d4 e2 55 3d c2 79 3b 3d
       0.0030197033 -0.055563763 0.052218273 0.045770414
000180 17 82 7f 3d 2a bd c0 bd ce 79 97 3d 0a ce 18 3d
       0.062379923 -0.0941108 0.07396279 0.03730587
000190 5f 11 ee 3d 87 94 a1 3c 77 2c 22 3d c2 2a a1 bd
       0.11624407 0.019724144 0.039593186 -0.078694835
0001a0 6e e2 6b bd f0 64 5e 3a 06 cd cb 3c e8 f5 0b 3e
       -0.057588987 0.0008483669 0.024878036 0.13668025
0001b0 68 80 73 bd 99 7c 91 3d c1 9c 9f 3d 19 2f 6c bd
       -0.05944863 0.07103843 0.0779357 -0.057662103
0001c0 8c 5d 15 bd 15 b6 4c 3d 92 ec 75 bd 94 7a d1 bd
       -0.036466166 0.049978334 -0.060040064 -0.10228458
0001d0 e8 5c ff 3c 92 4b c9 bd fc 8c fb bb b6 3a dd 3c
       0.03117223 -0.09828867 -0.0076767188 0.027005535
0001e0 a0 f7 a4 3d c2 cc 5c bc 43 25 a3 3d 73 d6 c2 3d
       0.08055043 -0.013476552 0.079660915 0.09513559
0001f0 49 4f 37 3d ef 0b 08 3e 6a 42 89 bd 0b 23 39 bc
       0.044753347 0.13285802 -0.067021206 -0.011299859
000200 4d 3d 71 bc c0 e5 ad bd bc 4c a5 3c 31 c5 10 3b
       -0.014724088 -0.08491087 0.020178191 0.0022090191
000210 a4 1d 0f 3e eb 8a 36 3d f1 7c a6 bc 92 e1 9a 3a
       0.13976151 0.044566076 -0.020323249 0.0011816493
000220 47 82 39 3e 77 f3 86 3d ea 74 2f bc 57 42 ce bd
       0.18116103 0.06589406 -0.010709027 -0.10071247
000230 3a c2 b5 bd f9 d2 c5 3d 65 cd f6 bd c7 b8 01 3e
       -0.088749364 0.096593805 -0.12050895 0.12668143
000240 9c 0f af bd df 17 ac 3b 81 a3 56 bd 73 4f e4 bd
       -0.08547899 0.005251869 -0.052402023 -0.11147966
000250 bb 65 c9 3d 7e 36 ba 3d af 16 22 3d 4d 64 2b bd
       0.09833857 0.09092425 0.039572414 -0.0418437
000260 c2 93 13 bd b2 a9 88 3d ae 71 a2 bc 85 d9 07 3e
       -0.036029585 0.06672992 -0.019829597 0.13266571
000270 dc 0c ed bc a9 d5 56 bd 37 f5 5c bd 47 1f 0f bd
       -0.028936796 -0.052449856 -0.053944793 -0.034941938
000280 6a fc db bd 06 84 5f bc 22 70 ba bd dd 40 08 be
       -0.107415035 -0.013642317 -0.09103419 -0.13305993
000290 c1 03 51 bd 36 ff 99 bd 25 e5 03 3e ee 9b cd 3b
       -0.05102897 -0.07519381 0.1288038 0.006274692
0002a0 db 66 33 bd fc 5e 37 bd 6d 59 c1 3c 8d 23 c3 bd
       -0.043799262 -0.04476832 0.023602212 -0.09528265
0002b0 dd ce 57 b7 ad cc 9d 3d 75 a9 c2 bd 50 5b de 3d
       -1.2863163e-05 0.077050544 -0.095049776 0.1085726
0002c0 c0 9d ea bd 1a b9 09 bc a9 9f 55 3d c4 5e c0 3d
       -0.1145587 -0.008405948 0.052154217 0.09393075
0002d0 05 58 09 bd 75 a8 1e bd 90 94 31 3c 0d 51 f5 3d
       -0.033531208 -0.038734872 0.010838643 0.1197835
0002e0 17 50 9b bd b8 37 85 3d ae aa b3 3d 82 6a c2 bd
       -0.07583635 0.06504768 0.08772789 -0.09492971
0002f0 33 92 dc bb 01 4f 89 3d 2f 0f ac bd 3d 38 39 bd
       -0.0067312955 0.06704522 -0.084013335 -0.04521965
000300 55 7c a2 bd fd 12 39 3e 48 db 1e bc 4b e0 88 3d
       -0.07933871 0.1807365 -0.009695835 0.066834055
000310 6f ef a1 bc da 18 61 3d f2 97 d8 bd ac d7 c4 3d
       -0.019767491 0.05495534 -0.10575856 0.09611449
000320 12 08 8e 3d 37 42 11 3d 1c 7e 87 3c 8f a5 89 3d
       0.06935133 0.035463538 0.016539626 0.06721031
000330 f4 37 e0 bc 53 8e 8c 3b 74 90 cb bc a2 19 1d be
       -0.02737043 0.0042894273 -0.024849154 -0.1534181
000340 fa 6a 09 bc f3 69 d3 bd 96 f2 4e 3d 26 6b 64 bd
       -0.008387322 -0.103229426 0.050524317 -0.055766247
000350 5b f5 c7 3d f6 e9 00 3e 2f 48 e0 3d df 28 a3 bd
       0.09763595 0.12589249 0.10951268 -0.0796678
000360 1d a6 66 3d 8a 84 e2 3d fd 98 bb bd 5d cc 89 3d
       0.05631076 0.11060436 -0.091600396 0.06728432
000370 5b 2e b2 3d d3 83 cc 3d d9 79 c4 3d 52 a5 e8 3d
       0.08700248 0.09986081 0.09593553 0.11359657
000380 71 42 86 bd 95 3a c4 3d 45 6e 1e bd 1d 7c 8d bd
       -0.065556414 0.09581486 -0.03867938 -0.06908438
000390 eb 96 09 3e 83 62 8f 3c 9c d0 5c 3d 4d 8e 0b be
       0.13436477 0.017503029 0.053909883 -0.13628502
0003a0 bc 3b a0 3d 64 c5 1a bd e1 80 4c 3d ab ed 4d bd
       0.078238934 -0.037785903 0.049927596 -0.050275486
0003b0 f3 d2 fa bc 0a fa dc 3d ac db 29 3d 4e 3d 29 bd
       -0.030618167 0.10789879 0.04146926 -0.04131823
0003c0 92 76 06 3e 51 6d e6 ba 28 59 c2 3d 11 f2 75 bb
       0.13131168 -0.0017580186 0.094896615 -0.0037528316
0003d0 d8 0a 64 3d c4 7b 6c 3d d7 8a e3 3d fa 4d 22 3d
       0.055674404 0.05773522 0.11110466 0.039625145
0003e0 e2 88 9d bd 7e ad a1 3d 6d c3 ec 3d cf 3f f9 3c
       -0.07692124 0.07894419 0.11560712 0.030425934
0003f0 f3 ec 1e 3e 20 3e 08 be 91 9d d0 bd 90 17 78 3b
       0.15520076 -0.13304949 -0.101863034 0.0037855841

actor_body.linear3.bias f4 [4]
000000 52 56 88 3d a7 fd 46 3d b1 f0 7b bc 3d 89 33 3d
       0.06657089 0.048581745 -0.0153772095 0.043832052

critic_body.linear1.weight f4 [160, 33]
000000 2f b2 96 bd bc 3a 64 be f0 4e 23 bd 7a 47 b9 3d
       -0.073582046 -0.2228803 -0.039870203 0.09046836
000010 66 05 fc 3c 90 6a 0e 3e 92 e1 88 bc 32 2a b8 bd
       0.030764293 0.13907838 -0.016709123 -0.08992423
000020 57 0e 08 3e a2 03 25 bd 48 af 82 3c b0 f3 6e 3d
       0.1328672 -0.040286668 0.015952721 0.058337867
000030 d2 5c 12 bc 89 08 00 3e e6 41 49 3d 75 0c a3 bd
       -0.008933263 0.12503256 0.04913511 -0.0796136
000040 14 97 45 3e 39 bd d2 3d f4 f3 47 3c dd bd ef 3d
       0.19295913 0.102899976 0.012204159 0.117061354
000050 bb d6 9d bd 60 2c 09 3c c8 1e 6d 3d 5c b6 41 bd
       -0.07706972 0.008372396 0.057890683 -0.047293052
000060 45 8a a6 3d 71 47 f6 bc 28 89 4f 3d 98 e7 a5 bd
       0.081318416 -0.030063363 0.05066791 -0.081008136
000070 b0 fc 0a be ab ee ac bd 8f 93 7c 3d 2c fb 2e 3e
       -0.13572955 -0.0844396 0.06166416 0.17088002
000080 6b 28 db be d6 bd 19 3d 69 8d 03 3e 57 7d e0 3d
       -0.42804274 0.037534557 0.12846912 0.10961407
000090 1c 1e f7 bd 74 83 f9 bd 30 96 04 be 2b a7 1d be
       -0.1206629 -0.12183276 -0.12947917 -0.15395801
0000a0 40 34 ae bd 58 45 db bd 16 77 ab 3d a7 2d 55 bd
       -0.0850606 -0.10706586 0.08372323 -0.05204549
0000b0 85 9d 04 bc e1 bf e1 bc ce df be 3d 50 a4 2d bc
       -0.008094196 -0.027557315 0.09320031 -0.010598257
0000c0 40 0c 43 3e af d9 f9 3d cb 1a 90 3b 79 6b 70 3d
       0.19047642 0.12199723 0.004397725 0.058696244
0000d0 99 53 4f 3c c9 d8 bc bd 09 c5 07 3e cb 50 9f 3c
       0.012654209 -0.09221036 0.13258757 0.019447705
0000e0 6f a8 a6 bd 95 ea 1a 3c 17 23 fd 3d ba 8a b8 bd
       -0.08137595 0.009455343 0.123602085 -0.09010835
0000f0 5a 75 2d 3e a7 b7 2f bd 50 75 a3 bc 1e ef c6 3c
       0.16939297 -0.042899754 -0.0199534 0.024283942
000100 66 99 07 be 72 98 bc 3e 1d 85 ec 3d 61 50 d6 3d
       -0.1324211 0.36835057 0.11548827 0.1046455
000110 af 10 3f be 80 b6 28 3d 79 f5 b3 bd 52 80 02 3e
       -0.18658708 0.04118967 -0.087870546 0.12744263
000120 d2 ca bd 3c 31 9d 0b 3e f4 ea a2 bd 86 af 2b 3d
       0.023168001 0.13634183 -0.0795497 0.04191544
000130 da 13 08 bd 46 85 4c bd 7c 7f ac 3d 37 a5 33 be
       -0.033222057 -0.049931787 0.08422753 -0.17543493
000140 6d 82 86 3d 76 b0 7e 3e 9c a2 b1 b9 b3 6a ef bc
       0.065678455 0.24872002 -0.00033881224 -0.029225683
000150 98 ae 00 3c c6 e4 c9 3c 12 73 7a bc 12 61 69 3d
       0.007854126 0.02464522 -0.015286224 0.05697734
000160 c2 f7 5d 3d 5a b4 dd bd b0 75 a0 3d 74 ce bb 3d
       0.05419136 -0.10825415 0.07834947 0.09170237
000170 09 22 51 bd 7a ac bf 3d 54 d9 4c be 08 2d 9e bd
       -0.05105785 0.09359069 -0.20004779 -0.07723433
000180 31 44 1f 3e 70 18 8b 3d aa 54 fd be d3 57 b9 3d
       0.15553357 0.067917705 -0.49478656 0.09049954
000190 2f ee 4c 3e b9 75 bc bd 33 0e 29 bd 86 0b fa bc
       0.20012735 -0.09202141 -0.041273307 -0.030523073
0001a0 aa be a7 bd 8d ea 94 3d b6 f0 60 3d de 52 28 bd
       -0.08190663 0.072712995 0.05491706 -0.041094653
0001b0 25 f4 01 be 27 4f 66 3d 12 b1 59 3d f6 fe 06 3d
       -0.1269079 0.05622783 0.053147383 0.032957993
0001c0 aa c6 07 bd ff 5b 38 be 20 6c c6 bb 98 30 0e be
       -0.033148445 -0.18003844 -0.00605537 -0.13885725
0001d0 8e 70 2a be aa 73 d2 39 0f e6 69 3c c2 7d 88 3d
       -0.16644499 0.00040140498 0.014276042 0.066646114
0001e0 db 5f 11 be 15 8f 4c bd a1 7d a4 3d 1b 96 13 be
       -0.14196722 -0.04994114 0.08031774 -0.1441273
0001f0 c2 4d 9b bd 7d b2 8c bc 21 9e 09 3e 61 35 8f 3c
       -0.075831905 -0.017174954 0.13439228 0.017481508
000200 48 11 46 bd 16 9d 58 be a4 0d ee 3d e5 3f 8b bd
       -0.048356324 -0.21153674 0.116236955 -0.06799296
000210 3b 93 1c be bf 9f de 3d 36 b5 c2 3d 70 7b e4 3d
       -0.15290539 0.10870313 0.095072195 0.11156356
000220 2d 27 86 bd 8f 29 97 3d 39 93 25 bd 3b 28 ee bc
       -0.06550441 0.073809735 -0.040423606 -0.029071918
000230 0d 1a 05 be 00 a0 c4 3d 62 80 6b bc a7 d1 2d bd
       -0.12998219 0.0960083 -0.014373871 -0.04243627
000240 0a d6 8e 3b 06 97 2c 3e 89 2d 8d 3d 23 88 23 3d
       0.0043590115 0.16854486 0.06893451 0.039924752
000250 f9 88 78 3b 12 0f e5 bc c4 95 06 3e 8e 53 8d 3d
       0.003792344 -0.027961288 0.13143069 0.069007024
000260 c0 de ba 3d eb 71 d7 3d b8 98 63 bd 56 07 a1 3d
       0.091245174 0.10519775 -0.055565566 0.07862727
000270 18 a8 4d 3d 68 8f d9 bd 77 e7 b9 3d 39 54 21 3e
       0.050209135 -0.10623056 0.090773515 0.15754785
000280 c5 99 b5 3c a6 91 c3 bd 71 52 d1 bd e3 f7 ad bd
       0.02216805 -0.095492646 -0.102208026 -0.08494546
000290 b9 c8 7b 3f 6b 01 7a bc 3b d8 fe bd 16 89 1f 3e
       0.98353153 -0.015259127 -0.124435864 0.15579638
0002a0 f7 c1 42 be 19 c1 80 bb 75 f4 a4 bb 0f aa 09 3e
       -0.19019304 -0.003929269 -0.0050340244 0.13443778
0002b0 5b c1 ef 3c f9 d5 7b 3d db 60 4e 3d 3a 51 dc bd
       0.029267004 0.061483357 0.050385337 -0.1075768
0002c0 03 32 86 3b 98 ac da 3c 86 47 fa bc b4 b5 49 bc
       0.0040953173 0.026693627 -0.030551683 -0.012311388
0002d0 95 fb 21 be a6 c1 f5 bc a8 48 30 3e 97 3f 05 3e
       -0.15818627 -0.029999565 0.17215216 0.13012539
0002e0 fc bc 7d bd 9f 43 2d bd f3 2b 02 3d e8 e3 23 bd
       -0.061947808 -0.042300817 0.031780194 -0.04001227
0002f0 2a 2e 93 bd ec 62 25 3d 77 04 63 bd ac c7 8f 3d
       -0.071865395 0.040377542 -0.05542418 0.07020506
000300 2f b6 ee 3c ff 13 77 3c 38 e2 00 be bf 87 08 3c
       0.029139606 0.015080451 -0.12586296 0.008333146
000310 90 82 ae bd 0e 10 e3 3e 97 96 80 bd 6f 08 fd 3d
       -0.085209966 0.44348186 -0.06278723 0.12355124
000320 2b f9 7b 3d 25 d1 88 bd 34 bf b8 3d 23 99 23 3d
       0.061516922 -0.06680516 0.09020844 0.039940964
000330 47 30 a9 bd 4d 14 86 3d 7a 36 96 3d fc 9d f2 ba
       -0.08261161 0.06546841 0.07334609 -0.0018510218
000340 af d1 99 bd a6 51 f9 bb 05 29 bd 3c a0 08 03 bd
       -0.07510697 -0.00760861 0.023090849 -0.031990647
000350 53 3a 39 be d1 85 2e bc fc 52 44 be 84 ce fb 3d
       -0.18088655 -0.0106520215 -0.19172281 0.12295249
000360 5a 87 80 3c 5f 8f a4 3d d9 f5 7a bd 58 e4 8d bd
       0.01568954 0.08035158 -0.061269615 -0.06928319
000370 ed d7 be 3d fa 97 29 3d 08 06 00 3b 1d 83 bc bd
       0.09318528 0.0414047 0.0019534845 -0.092046954
000380 88 11 e8 3d 6f 3e 05 3e f7 0c b2 bc f0 be 08 be
       0.11331469 0.13012098 -0.021734698 -0.13354087
000390 5d 4d ad bc f4 ed d3 3d 62 2c 44 bf 9b e5 6c 3e
       -0.021155054 0.1034812 -0.7663022 0.23134463
0003a0 a1 c3 98 bd ef e1 38 3e 42 c1 ea 3c b8 5c 4b 3e
       -0.07459188 0.18054937 0.028656606 0.19859588
0003b0 fc 96 d8 bc 91 a8 88 bd 2e 69 4f bc 52 48 96 bd
       -0.026439182 -0.066727765 -0.012659354 -0.07338013
0003c0 b0 67 c7 3d aa 05 6b 3b d2 ea 3a bd 43 34 df bc
       0.09736574 0.003586153 -0.0456341 -0.0272466
0003d0 9c e9 11 be 90 e5 d8 bd 12 46 9e bc 07 45 1a bd
       -0.14249271 -0.105906606 -0.019320522 -0.037663486
0003e0 e1 0a 8f bd eb 21 6f 3d 44 90 62 3c d7 dd b9 3d
       -0.06984497 0.058381956 0.013828341 0.09075516
0003f0 66 66 cb bc 88 d4 9e 3c e2 85 a8 bc bf 35 53 3d
       -0.0248291 0.019388452 -0.020571653 0.05156493

critic_body.linear1.bias f4 [160]
000000 4a db f6 bc ce 20 0d 3d f3 ef 00 3a f1 54 88 bc
       -0.030133862 0.034455113 0.0004918568 -0.016642066
000010 00 c6 35 be a8 8c 2e be e7 ec 44 3d 68 2d ca 3d
       -0.17751312 -0.17045844 0.04807749 0.09871942
000020 9a 29 2a 3e 2d 0f 93 bd 75 e3 77 bd 5f 22 97 be
       0.16617432 -0.07180629 -0.060519654 -0.2951841
000030 cf 9b 0c be e1 4d a5 3d c4 eb 4e bd 33 5d 19 be
       -0.13731311 0.08071495 -0.050517812 -0.14976959
000040 1d 79 4b 3d 6b 7f fd 39 33 3c aa 3c 38 a0 fb 3c
       0.04967605 0.00048350854 0.020780658 0.030716047
000050 a8 03 ab bd 04 64 70 3d eb 6c ca 3d 29 93 93 bd
       -0.08350307 0.058689132 0.09884056 -0.07205803
000060 27 5a 8f 3c 41 4d 1a be 81 d3 e2 bd 54 0b 27 bd
       0.017499043 -0.15068533 -0.110754974 -0.040782288
000070 ed c7 32 be 5f a7 04 be 61 b8 93 3d 67 04 30 3d
       -0.17459078 -0.12954472 0.07212902 0.04297295
000080 aa 4c 09 be 18 1c 6d 3e 7f 2b b3 bc a5 a4 23 be
       -0.13408151 0.23155248 -0.021871326 -0.15980776
000090 3e 85 96 3a a1 8f 26 3e 1b 75 33 3d 54 e1 a4 bc
       0.0011483801 0.16265728 0.043812852 -0.020126976
0000a0 31 35 da bd 9c 23 5f be e4 55 ca bd 16 bb 41 3e
       -0.10654677 -0.21790928 -0.098796636 0.18919024
0000b0 54 95 8a bd 15 94 8e bc 9f 73 05 be 16 64 03 3e
       -0.06766763 -0.017404595 -0.13032387 0.12831149
0000c0 19 b5 24 3e 47 bd 2d be c2 68 1e 3d f4 6a 83 3d
       0.16084708 -0.16966735 0.038674124 0.06416884
0000d0 5c be 08 bd 96 f9 b2 bd 8b 18 6b 3d 07 ec 2f 3e
       -0.033384666 -0.08739011 0.057396453 0.17179881
0000e0 b9 3b dc bd 0d 6f 6a 3d 5c ac 5f 3d 20 31 f2 bc
       -0.10753579 0.057234813 0.054607734 -0.02956444
0000f0 c5 a6 9f 3d b6 ee 5c be 54 0d 09 3d 9c 0d 00 3e
       0.07795481 -0.21575436 0.033459976 0.12505192
000100 5c ef 09 be 29 80 14 be 72 9f d4 3c 7c 26 00 be
       -0.13470215 -0.14502014 0.025954936 -0.1251468
000110 2e 6c 6e bd 29 d0 5f 3c 98 9e 92 3d 36 5a 4d 3e
       -0.058208637 0.013660469 0.071591556 0.20053944
000120 66 54 ed bd ad 6c fc 3d 03 b0 44 3e 17 5e 90 bc
       -0.11588363 0.12325416 0.19207768 -0.01762299
000130 5d b8 9c bb 99 fa de 3d d7 f5 99 bc a9 c1 62 3d
       -0.00478272 0.108876415 -0.018793983 0.05536047
000140 4d a6 c6 3c 8d 5f 90 3a 43 86 c1 bd 5c 4a 16 bd
       0.02424922 0.0011014804 -0.094494365 -0.03669201
000150 fe 59 44 3e eb d6 cf bc 64 be 40 be dd 00 20 3e
       0.19174954 -0.025371036 -0.18822628 0.1562533
000160 8a 40 4b 3e 0e 54 ef 3c 23 dc de bd a2 e5 d7 bc
       0.19848838 0.029214885 -0.108818315 -0.026354615
000170 d5 fe 99 bd cb ee c6 3d 70 d7 01 3e 83 a7 8b bd
       -0.075193085 0.09713515 0.12679839 -0.0681906
000180 b1 e9 1a bc 9e f3 f1 bd d3 4f 37 3e 5e a5 1c 3e
       -0.00945513 -0.118140444 0.17901544 0.15297458
000190 27 63 8d bd 43 a8 d0 bd a4 81 11 be b2 d5 eb 3a
       -0.069036774 -0.101883434 -0.1420961 0.0017992763
0001a0 3f e2 e1 bd 6e ad aa 3d ca 3e 4a bd 74 bd 03 3e
       -0.11029481 0.0833386 -0.049376287 0.1286524
0001b0 47 8a 80 bd 72 84 fd 3d 30 b8 5b 3e 1a df d0 bd
       -0.06276374 0.123787776 0.2145698 -0.10198803
0001c0 c2 31 f2 3d 98 26 02 3d 81 f9 16 be b2 ba f1 3c
       0.11825897 0.031775087 -0.14743616 0.029507969
0001d0 37 18 4a bd a0 76 95 3d 6d 1f 11 3e 30 dc 3a bd
       -0.0493395 0.072980165 0.14172144 -0.045620143
0001e0 f2 ff ef 3d 18 2f 91 bd 0c 7b 4a be 1e ed ae 3d
       0.117187396 -0.070890605 -0.19773501 0.0854132
0001f0 2e bd 32 be 5e 41 5e bd 99 a3 16 be 00 5e db 3c
       -0.17454979 -0.054261558 -0.14710845 0.026778221
000200 0b 17 3e 3d e8 17 c9 3d 15 a0 10 bc 26 f8 71 bd
       0.046408694 0.09819013 -0.008827229 -0.059074543
000210 86 c3 9b 3e 8f 95 ad bd de 81 be 3d 3f 27 da 3d
       0.3042261 -0.08475792 0.09302114 0.10652017
000220 d9 2f d4 bd ac 82 a4 3d 1c 13 7e bc be 83 b1 3d
       -0.10360689 0.08032736 -0.015507486 0.08667706
000230 c3 bc 05 bd a8 46 89 bd 80 65 95 3b c1 03 5a 3d
       -0.03265072 -0.0670293 0.004559219 0.053226236
000240 60 0a 39 bd fa 84 62 bd ef c4 a3 3d a1 f2 59 3d
       -0.04517591 -0.055302598 0.079965465 0.053209905
000250 ba dc 78 bd b4 0d 38 bd f9 4d 2f be 98 bb 8b bd
       -0.060757376 -0.044934943 -0.17119588 -0.0682289
000260 88 c7 d2 bd 8c e2 70 bd d8 bb 99 3d 3a d3 21 3d
       -0.10291964 -0.058809802 0.075065315 0.039508082
000270 39 28 f7 bd e3 3e 38 3d a7 2c ea bc 70 cb 8a 3d
       -0.12068219 0.04498185 -0.028585745 0.06777084

critic_body.linear2.weight f4 [160, 160]
000000 d1 8a bc bc 2f b6 68 bd 4d df 9a bd 9b 3e 82 bc
       -0.023015412 -0.05681437 -0.075621225 -0.015898993
000010 e7 3c be bd 02 68 8a bd 34 8c d3 bd 20 f6 ab 3d
       -0.0928896 -0.06758119 -0.10329476 0.08396554
000020 d1 7e 04 bd e0 95 45 bd c6 1b 9f bc d2 53 7d 3d
       -0.032347504 -0.048238635 -0.019422423 0.061847515
000030 c0 d9 af 3d 78 73 09 bd 93 ad 6a 3d b1 f4 80 bc
       0.085864544 -0.033557385 0.05729444 -0.015741678
000040 25 c6 96 3d b9 f7 77 bd b7 7b 85 bd ee 94 70 bd
       0.07362012 -0.06053898 -0.06517737 -0.05873578
000050 cc 1b 11 bd fb b3 cc bd 32 bd 85 bb 6b 9e ac bc
       -0.0354269 -0.09995266 -0.0040813917 -0.021071633
000060 ae 61 5d bd d9 35 27 3e ec be 71 3d 4c 74 3d 3d
       -0.054048233 0.16329135 0.059019968 0.046253487
000070 77 30 4e 3d 28 d2 05 3d 6f b3 8e bd fe 16 87 3c
       0.05033919 0.032671124 -0.06967818 0.016490456
000080 b6 0c ae 3a 23 29 b6 bd 19 5d 78 bd c0 b0 f4 bc
       0.0013278935 -0.08894565 -0.06063566 -0.029869437
000090 d3 26 c7 3c 14 e7 85 3d a1 ef 81 bd a7 78 9e 3d
       0.024310505 0.06538215 -0.06344534 0.07737856
0000a0 94 81 9b 3c 3b 95 3e 3d a9 e0 a2 3a c6 f9 5a 3d
       0.018982686 0.046529036 0.0012426573 0.05346086
0000b0 51 bb 63 3d 08 9f 84 3c 57 00 5b 3d 7a e1 74 bd
       0.05559856 0.016189113 0.05346712 -0.059785344
0000c0 71 fd 87 3d fe b6 86 3d 1f 29 cc 3d cb f3 f3 bc
       0.06640137 0.06577872 0.09968781 -0.029779335
0000d0 36 0e 88 3d b6 f5 44 3d e7 ed b5 bc b6 60 5c 3c
       0.066433355 0.04808589 -0.022208167 0.013450792
0000e0 87 4b 70 3d 67 0f 06 3e 7d 40 a3 bd 69 c7 22 bd
       0.05866578 0.13091813 -0.079712845 -0.039740954
0000f0 2f b2 ad 3c 42 53 6e bd ec 95 c8 bd 56 85 51 bd
       0.021203129 -0.05818487 -0.0979422 -0.05115255
000100 d5 bf 47 3c 58 8a 31 bd 67 4f 91 3d 32 3d 9f bd
       0.012191732 -0.043344826 0.07095223 -0.07775344
000110 8f a1 ad bd b5 36 2c 3d 86 e4 1c bc f5 a4 c7 3c
       -0.084780805 0.04204436 -0.009575969 0.02437065
000120 7f b7 8f 3d 22 2a 38 bd b6 92 51 bd 53 f8 ff bd
       0.07017421 -0.044962056 -0.051165305 -0.12498536
000130 92 0f 3a bd 06 5d 89 3d 79 f0 91 bd 92 72 c6 3d
       -0.045425005 0.06707196 -0.07125945 0.09689821
000140 28 14 0e bc 3c 92 da bc 97 08 3d 3b 67 f2 0e bd
       -0.008671798 -0.026681058 0.0028844231 -0.03489914
000150 41 ab c3 3c 0b 6a 68 bc 34 06 7c bd 3a 4d 8b bd
       0.023885371 -0.014185439 -0.061529353 -0.06801839
000160 83 a9 0f 3d ba f9 aa bd 50 85 fa bd 23 c2 77 3d
       0.03507377 -0.08348413 -0.122324586 0.060487878
000170 aa 2d 98 bd 1b 74 9e 3c 6e 95 c9 bc 08 f6 5e 3d
       -0.07430585 0.019342473 -0.024607386 0.054433852
000180 60 f7 b7 3b 30 56 81 3c bc 74 9a bd e0 4b a7 bc
       0.005614206 0.015788168 -0.075417966 -0.020421922
000190 a1 0a a4 3d 1e 49 37 bd 5e 3e 94 bd 64 78 40 bd
       0.0800984 -0.044747464 -0.07238458 -0.046989813
0001a0 33 b8 09 be 32 1a 66 3c bd d0 37 3c 1a 38 60 3a
       -0.13449173 0.014044331 0.011219201 0.00085532817
0001b0 61 cb f1 bc e3 d1 ae 3d d7 09 0c bd dd cc db bc
       -0.029515924 0.085361265 -0.03418907 -0.026831085
0001c0 a6 91 a2 bd 6d 73 1c 3d e3 2b 16 bd a4 e8 3c 3c
       -0.079379365 0.038196016 -0.036662947 0.011530075
0001d0 34 36 24 3c 42 ce 98 3d 0c 90 8a 3d 05 ab 2a bd
       0.010022689 0.074612156 0.06765756 -0.041667003
0001e0 54 42 a4 3d 84 cc f2 3c a4 e0 7b bc 48 dc 2c 3d
       0.080204636 0.029638536 -0.015373383 0.042202264
0001f0 5a a4 75 3d e4 8f f8 3d 71 7c a7 3d 87 a8 be bc
       0.05997119 0.1213682 0.08178032 -0.02327372
000200 46 11 a8 bc dc af 4e bd df ad 92 bd 95 b7 c1 bd
       -0.02051605 -0.05046068 -0.071620695 -0.094588436
000210 67 05 ca bd 60 b0 ba bd 1f e7 19 bd e9 73 63 bd
       -0.09864312 -0.09115672 -0.03757393 -0.055530462
000220 6e c6 c2 bd 1a a5 42 3b 53 10 a9 bd 84 22 f2 3d
       -0.09510504 0.002970046 -0.08255067 0.118229896
000230 21 0e f6 3c fb 4d 85 3d 9c 78 cf 3c 08 ba aa 3d
       0.030036034 0.06509014 0.025326066 0.08336264
000240 37 c7 9b bd e3 64 23 bc 49 77 c1 3d 2f 61 8d 3c
       -0.076063566 -0.009972784 0.0944658 0.017258255
000250 07 65 37 3c 60 86 f6 3c 06 e3 c9 bd ee 7a ce 3d
       0.01119352 0.030093372 -0.098577544 0.10082041
000260 70 43 86 3d 9f 7d f5 bc d0 c5 d6 bc 7c 95 26 bd
       0.065558314 -0.029967127 -0.026217371 -0.040669903
000270 40 a7 af bd 62 93 94 bd c8 f3 31 3b 4e 9d 3b bb
       -0.08576822 -0.072546735 0.0027153362 -0.0028627696
000280 8e 4e 2b 3c a2 25 64 3d 00 91 24 bd 78 d5 ff bc
       0.010455741 0.055699952 -0.040177345 -0.03122972
000290 e6 39 ec 3c 2f c1 b7 bd be a5 93 3c 1a 8b 1d 3c
       0.028836202 -0.08972394 0.018023368 0.009615684
0002a0 27 99 48 3d 7d 04 9e bd 76 d8 09 bd a8 b7 5d bd
       0.048974182 -0.077157 -0.0336537 -0.054130226
0002b0 b7 fc 1a bd 1d 23 c4 3b a6 05 d7 3c 01 8d ce bc
       -0.037838664 0.005985631 0.02624781 -0.02521372
0002c0 92 73 49 bb 1d 9e 9a 3d ef 5f a1 bd c7 cb 2a bd
       -0.0030739051 0.07549689 -0.07879626 -0.041698243
0002d0 c1 6f 1d 3a 62 b3 bd 3b 2e 24 c5 3c 36 d3 55 3c
       0.00060057273 0.0057892064 0.024065103 0.013050845
0002e0 fb 22 8c 3d 55 62 c5 3c fa 84 b8 3d 32 96 ee 3c
       0.068426095 0.02409474 0.09009738 0.029124353
0002f0 ea 5c 3a bd 65 b0 d6 bd 4a d6 ed bb 16 cf 1c 3d
       -0.045498766 -0.10482863 -0.0072582113 0.03828343
000300 f1 69 28 bc 7a b0 11 bd f2 08 98 3d f5 5d 52 3d
       -0.010279165 -0.03556869 0.07423581 0.051359136
000310 8d 7c 33 3d ac 96 95 bd 22 5b 37 bd b7 78 97 bc
       0.043819953 -0.07304129 -0.044764645 -0.018490179
000320 d4 99 36 3d 05 8e 51 bd 5b 35 71 bd 83 1c 8e 3d
       0.044580296 -0.05116083 -0.058888774 0.06939032
000330 d1 06 91 3d 3b 40 a5 bd 7c 37 91 bd 18 24 34 bd
       0.07081378 -0.080688916 -0.07090661 -0.043979734
000340 5b c7 5a 3d 6d d1 51 3c b6 2c a2 3c 34 80 f2 3c
       0.053412776 0.012806279 0.01979671 0.029602148
000350 27 4b 67 bd 7a d9 83 bc 7a ab e4 3c eb 66 28 3d
       -0.056468155 -0.016094912 0.027913798 0.041113775
000360 84 b1 6e bd 01 f3 0c bc 6e ec 9f 3d a0 a1 80 bd
       -0.05827476 -0.0086028585 0.07808767 -0.062808275
000370 d3 3a 08 bc b4 66 b1 b9 d9 19 87 bd ef f1 4f 3d
       -0.008314806 -0.0003383659 -0.06596727 0.050767835
000380 98 42 53 bd aa 42 27 bd f7 a9 9f 3b aa bc c1 bd
       -0.05157718 -0.04083506 0.0048725563 -0.09459813
000390 35 15 82 3d 79 49 dc bc 25 f0 cc b9 8c c3 af 3d
       0.06351701 -0.026890503 -0.00039088834 0.085822195
0003a0 10 d7 ad 3b d8 ed 2a bd 20 1c c4 3d 5c 3f 92 3c
       0.0053051785 -0.04173073 0.09575677 0.017852478
0003b0 1d 4b c2 bb c3 ea c5 bc a4 ba 8c bc 75 ba 12 bd
       -0.0059293644 -0.024159795 -0.017178841 -0.03582235
0003c0 53 7a 46 3c 6f 91 81 3c 83 62 b6 bc dc 55 59 3d
       0.012114125 0.015816418 -0.02226377 0.053060398
0003d0 c7 40 0d be 78 2c 25 3c 03 e1 40 bd 76 cd 5b 3d
       -0.13794242 0.010081403 -0.047089588 0.05366274
0003e0 5c 71 1b bd 8f 8c 90 3d 90 44 9d bd 3d 7b 3c bd
       -0.037949905 0.070580594 -0.07679093 -0.046015967
0003f0 9a b0 06 3d b8 ab a9 3d 6a 8e 81 3d ea b7 c1 bd
       0.032883264 0.08284706 0.063259915 -0.09458907
