reacher-ppo/models/ppo-max-hiddensize-192.pth (torch_old, 354888 bytes, 12 tensors)

std f4 [1, 4]
0	0x3f6a06d1	0.9141665
1	0x3f5b9da2	0.85787404
2	0x3e900120	0.28125858
3	0x3ef4ad8e	0.47788662

actor_body.linear1.weight f4 [192, 33]
0	0xbe46b93a	-0.19406596
1	0x3d09b391	0.033618513
2	0xbe4c2f95	-0.19940026
3	0xbdfa0bd4	-0.12209287
4	0xbe0a6e7c	-0.13518709
5	0xbde4719a	-0.1115448
6	0xbdfbe809	-0.123001166
7	0x3d58eedc	0.05296217
8	0xbe1d663d	-0.15371032
9	0xbcab8158	-0.0209357
10	0x3d35cf3f	0.0443871
11	0x3d7866c1	0.06064487
12	0x3d2565fb	0.04038046
13	0xbd449956	-0.047997795
14	0x3e042e1c	0.12908214
15	0xbd3570b0	-0.04429692
16	0xbc08cbaa	-0.008349339
17	0xbdf0ce57	-0.11758106
18	0x3ddcf657	0.10789173
19	0xbe263c33	-0.16233902
20	0xbd91517b	-0.07095619
21	0xbd6bd621	-0.057577256
22	0xbe350d99	-0.17680968
23	0x3e0e415f	0.13892125
24	0x3e0aeb8a	0.13566414
25	0xbddd0666	-0.10792236
26	0xbd91fd0e	-0.071283445
27	0xbb758bd2	-0.0037467373
28	0x3e15f09b	0.14642565
29	0xbca86b48	-0.020558968
30	0x3ca28d10	0.019842654
31	0xbcd3f168	-0.025871947
32	0x3e61b04d	0.2203991
33	0xbd4ed10b	-0.050492328
34	0xbe3350bc	-0.17511266
35	0xbdb2a1b4	-0.08722249
36	0x3d2fd1cf	0.0429247
37	0xbe01117e	-0.12604329
38	0x3daa80ad	0.08325324
39	0x3cb51864	0.022106357
40	0x3e09ff44	0.13476282
41	0x3c1964dc	0.009362426
42	0x3d23c4ae	0.03998249
43	0xbe069a30	-0.13144755
44	0xbe2274c3	-0.15864854
45	0xbd028974	-0.031869367
46	0xbd7645c8	-0.060125142
47	0x3de98840	0.11402941
48	0xbda67c21	-0.081291445
49	0xbdd2b015	-0.10287491
50	0x3c6f51c7	0.0146069
51	0xbd97f215	-0.0741922
52	0x3d611755	0.05495389
53	0xbdbc0290	-0.09180176
54	0x3e114f98	0.14190519
55	0x3d05c9dc	0.03266321
56	0xbe0c3492	-0.13691929
57	0xbc98bc2d	-0.018644417
58	0x3d9b0cd3	0.075708054
59	0x3e45219b	0.192511
60	0x3d14f842	0.03636957
61	0x3cebb88c	0.028774522
62	0xbcc63d20	-0.024199069
63	0xbbb93569	-0.005652119
64	0x3dcb3b40	0.099234104
65	0xbe95d151	-0.29261258
66	0x3d7ee987	0.062234428
67	0xbd8b6b8a	-0.06807621
68	0xbe322136	-0.17395481
69	0x3dc8ed79	0.09810919
70	0x3d587b09	0.05285171
71	0x3dcd4339	0.10022587
72	0xbe204a53	-0.15653352
73	0xbc14bc2e	-0.009078069
74	0x3dfc9b75	0.123343386
75	0x3b68d686	0.0035528257
76	0x3e4f00df	0.20215176
77	0x3df78ec1	0.12087775
78	0x3d1937f2	0.03740687
79	0x3dbf783b	0.09349104
80	0xbdec1bc2	-0.11528732
81	0x3e36ad9f	0.17839669
82	0x3e2e6a8c	0.17032832
83	0xbb94256b	-0.004521062
84	0x3d0b5db2	0.0340249
85	0xbc4c6fb1	-0.012477801
86	0x3d68cfd5	0.05683883
87	0x3e163240	0.14667606
88	0x3bf956e0	0.0076092333
89	0xbc04101a	-0.00806048
90	0x3e000942	0.12503532
91	0x3d1e9dda	0.038724758
92	0xbd12a651	-0.035803143
93	0xbe3339d5	-0.1750253
94	0xbdf855d6	-0.12125747
95	0xbdb9f0da	-0.09079142
96	0xbdf91920	-0.12162995
97	0x3db6c464	0.08924177
98	0x3eea63e4	0.45779335
99	0x3e7cec98	0.24699628
100	0xbe303823	-0.17208914
101	0x3dafbf4e	0.0858141
102	0xbd5a4da4	-0.0532967
103	0xbc8f903f	-0.017524837
104	0xbe5b0314	-0.21387893
105	0xbdb041c2	-0.08606292
106	0x3cac5dc4	0.021040805
107	0x3e2c6caf	0.16838335
108	0x3bdf8990	0.0068218186
109	0xbe03d9b9	-0.12876023
110	0xbd0b86ae	-0.034063987
111	0x3d076974	0.033059552
112	0xbe338d1f	-0.17534302
113	0x3e07e95c	0.13272613
114	0x3cfd4b50	0.0309197
115	0xbcf86a20	-0.030324042
116	0xbdd0e7f3	-0.10200491
117	0x3dcaa622	0.098949686
118	0x3de5f42e	0.11228214
119	0x3d3cff21	0.046141747
120	0x3dad3751	0.084578164
121	0xbd1300e5	-0.035889525
122	0xbc370e35	-0.011172821
123	0x3e331084	0.17486769
124	0xbc1d7300	-0.009609938
125	0xbdbb26c2	-0.09138252
126	0x3dc926f7	0.09821885
127	0x3d9b467c	0.07581803
128	0xbd9e2e32	-0.07723655
129	0xbda78f30	-0.08181608
130	0x3dad7bc0	0.08470869
131	0x3ee6befb	0.45067582
132	0x3ded4ab5	0.11586515
133	0x3db7f1a5	0.08981637
134	0xbd237dfe	-0.039915077
135	0x3dc920c9	0.098207064
136	0x3d6f4baa	0.05842177
137	0x3e1babfe	0.15202329
138	0xbe2c629a	-0.16834489
139	0x3e22b607	0.1588975
140	0xbdeecb19	-0.116598316
141	0x3c04cbdf	0.008105247
142	0xbc1d671c	-0.009607103
143	0x3baf34a7	0.005346853
144	0x3d4d58db	0.050133567
145	0xbe211f33	-0.15734558
146	0x3d746d11	0.059674326
147	0x3df2d122	0.11856295
148	0x3d219761	0.039451007
149	0x3df0129e	0.11722301
150	0x3dbeb742	0.093122974
151	0x3e017a52	0.12644318
152	0x3e191dfb	0.14952843
153	0x3e14b404	0.14521796
154	0x3def0d6c	0.11672482
155	0xbe5c7602	-0.21529391
156	0xbe1d1ac0	-0.15342236
157	0xbbc97197	-0.006147574
158	0xbde30a9f	-0.1108601
159	0x3df17c56	0.11791293
160	0xbb9445d1	-0.0045249243
161	0xbd077a58	-0.03307566
162	0xbe10548b	-0.1409475
163	0xbdc237eb	-0.09483322
164	0xbf043a8b	-0.5165183
165	0x3dafa9e6	0.085773274
166	0xbe497ed5	-0.19677289
167	0x3e515a62	0.20444635
168	0x3d075afc	0.033045754
169	0x3e7168c1	0.23575117
170	0xbdd64e20	-0.1046412
171	0xbd987d15	-0.074457325
172	0x3d8f8a06	0.07008748
173	0x3e08dbe5	0.13365133
174	0x3d4e4c49	0.05036572
175	0xbc8a7443	-0.016901141
176	0x3e43a5d1	0.19106223
177	0x3e2dbaa9	0.16965736
178	0xbdd275ce	-0.10276376
179	0x3dc821f0	0.09772098
180	0x3d604546	0.054753564
181	0x3d41ce8c	0.04731612
182	0xbe078a70	-0.13236403
183	0x3d19dbc5	0.037563104
184	0xbe1f21e8	-0.15540278
185	0xbd91d668	-0.07120973
186	0xbd89fdea	-0.067378834
187	0xbc2037dc	-0.009778943
188	0xbe1b2cbf	-0.15153788
189	0xbd13da0d	-0.03609662
190	0xbe02b3e0	-0.1276393
191	0x3d0e8b72	0.034800954
192	0xbe115ec7	-0.14196311
193	0xbd3c59a7	-0.045983937
194	0x3d16deb8	0.036833495
195	0x3dc4d12d	0.096102096
196	0xbe1380cd	-0.14404602
197	0x3d6f16b2	0.058371253
198	0x3af88fdb	0.0018963771
199	0xbcf15501	-0.029459478
200	0xbd96a97c	-0.07356545
201	0x3e41552d	0.18880148
202	0x3e06db9a	0.13169709
203	0x3d879678	0.066204965
204	0xbd76240a	-0.060092963
205	0xbc54a8f3	-0.012979734
206	0x3d2a0a81	0.041513924
207	0xbd4947d8	-0.04914078
208	0x3d28e3ce	0.041232876
209	0x3e2bf0de	0.16791102
210	0xbe1c093f	-0.15237902
211	0xbd9db07e	-0.07699679
212	0x3dbfbeac	0.0936254
213	0x3e26e9ce	0.16300127
214	0x3d8b0b3e	0.06789254
215	0x3e16e950	0.14737439
216	0x3d8b3451	0.06797088
217	0x3aa5989f	0.0012633986
218	0x3e124733	0.14284973
219	0x3dbe19b9	0.0928225
220	0x3cdebe76	0.027190428
221	0x3dd173ce	0.10227166
222	0x3c7b6f40	0.015346348
223	0x3dc6a25c	0.09698936
224	0x3d4784cd	0.048710633
225	0xbe2039e2	-0.1564708
226	0xbdf14d4f	-0.117823236
227	0x3dc80c5c	0.09767982
228	0x3d983de6	0.07433681
229	0x3dc1c9a4	0.09462288
230	0x3e46012c	0.19336385
231	0x3e451eb1	0.19249989
232	0x3d81320f	0.06308376
233	0xbd943475	-0.07236568
234	0x3d2915ab	0.04128043
235	0x3d166244	0.036714807
236	0xbd43ec26	-0.04783263
237	0xbe200834	-0.15628129
238	0xbdd9ee85	-0.10641197
239	0x3e80cb18	0.25154948
240	0x3d010e10	0.03150755
241	0xbe05243c	-0.13002104
242	0xbe0bea8c	-0.13663691
243	0x3d886df3	0.06661596
244	0x3d8176c6	0.06321482
245	0x3e69b82c	0.22824162
246	0x3e26a79b	0.16274874
247	0x3dee2585	0.1162825
248	0x3e0f815f	0.14014195
249	0xbb83514c	-0.004007494
250	0x3e0ea281	0.13929178
251	0x3d82c07c	0.0638437
252	0x3e63aaba	0.22233096
253	0xbdfc8222	-0.12329508
254	0x3ddfcf34	0.10928193
255	0x3c8ace63	0.016944116

actor_body.linear1.bias f4 [192]
0	0xbd86e182	-0.06585981
1	0xbd36b952	-0.04461033
2	0x3be4df03	0.006984593
3	0xbe0d25fc	-0.13784021
4	0x3c25514d	0.010090184
5	0x3d8087c8	0.06275898
6	0x393b7769	0.00017878193
7	0xbd1d6f9b	-0.038436513
8	0xbddb848b	-0.1071864
9	0xbd9c1692	-0.076214924
10	0x3cda6b0a	0.026662368
11	0xbe16e687	-0.14736377
12	0x3e0373f2	0.12837198
13	0x3cbd8474	0.023134448
14	0xbe06fd1d	-0.13182493
15	0x3e0498b1	0.12948872
16	0x3b73c36d	0.003719534
17	0x3d500c57	0.05079302
18	0x3dc662df	0.09686827
19	0x3dab2693	0.08356967
20	0x3dd8068d	0.105481245
21	0xbd1d3dc1	-0.03838897
22	0xbd2bbd11	-0.041928355
23	0xbe513ca4	-0.20433289
24	0xbd81158d	-0.063029386
25	0x3e330812	0.17483547
26	0x3da68fcd	0.081328966
27	0xbd3eba0c	-0.046564147
28	0xbce97523	-0.028498238
29	0xbe2732e3	-0.16328005
30	0xbbd11036	-0.0063801063
31	0xbcbc7bca	-0.023008246
32	0x3d30b94b	0.04314546
33	0x3d1eeee7	0.038802054
34	0x3d95e60a	0.07319267
35	0xbd19f4ab	-0.03758685
36	0x3dc76cdc	0.0973756
37	0xbd71a89c	-0.05899869
38	0xbd8684a4	-0.06568268
39	0xbd1a3358	-0.03764662
40	0xbdd14296	-0.102177784
41	0xbceaf04e	-0.02867904
42	0x3da557bd	0.080733754
43	0xbdef56ae	-0.11686455
44	0x3de20ce3	0.11037614
45	0xbdf2654b	-0.11835726
46	0x3d691b84	0.056911007
47	0x3d56a77a	0.05240581
48	0xbd8f1195	-0.069857754
49	0x3d9f78d7	0.0778672
50	0x3d907967	0.07054406
51	0xbe107307	-0.1410638
52	0x3d357afb	0.044306736
53	0xbc15c513	-0.009141224
54	0xbdd12c4f	-0.10213529
55	0x3cb8b6a1	0.022548022
56	0xbd745276	-0.059648953
57	0xbcedebce	-0.029043104
58	0xbdb13857	-0.08653324
59	0xbd79167c	-0.06081246
60	0x3c9845e6	0.018588018
61	0x3dc61948	0.09672791
62	0x3ddcd32d	0.10782466
63	0xbd81dbb6	-0.06340735
64	0x3dc73c26	0.09728269
65	0xbde23a4b	-0.11046275
66	0xbd47f1cb	-0.048814576
67	0x3e1d3eaa	0.15355936
68	0xbc4ce239	-0.012505108
69	0xbde5398a	-0.11192615
70	0x3dec73f1	0.115455516
71	0xbe36efae	-0.17864868
72	0x3e1533fc	0.14570612
73	0x3cfbf83d	0.030758018
74	0x3d8bd579	0.06827826
75	0x3e1fd839	0.15609826
76	0x3dc77a13	0.09740081
77	0xbdad45f7	-0.0846061
78	0x3d3fb3fc	0.046802506
79	0x3de92d80	0.113856316
80	0x3dd1cd29	0.10244209
81	0xbdf23eac	-0.1182836
82	0xbc737c7f	-0.014861225
83	0x3e11aa7a	0.14225188
84	0xbdb8ea66	-0.09029083
85	0x3e2dbd55	0.16966756
86	0x3db86ec4	0.09005502
87	0xbe45b929	-0.19308914
88	0xbe0673dd	-0.13130136
89	0xbdf1e335	-0.118109144
90	0x3d5bfb21	0.053706292
91	0xbd3ce0f0	-0.046112955
92	0xbd196a7d	-0.03745507
93	0x3db499b1	0.08818377
94	0xbce6a0a3	-0.02815277
95	0xbddf0886	-0.108902976
96	0x3d5a35af	0.053273853
97	0x3e366aa7	0.17814122
98	0x3dacceb7	0.08437865
99	0xbdc2dec0	-0.095151424
100	0x3d29be98	0.04144153
101	0x3cc5c748	0.024142876
102	0xbe5e8b13	-0.2173274
103	0xbdbd044f	-0.092293374
104	0x3e41d2e5	0.18928106
105	0xbcff98e5	-0.031200835
106	0xbdac44d5	-0.08411566
107	0x3df65007	0.12026983
108	0xbe5140aa	-0.20434824
109	0x3dc4f70f	0.09617435
110	0x3dc4c45b	0.09607764
111	0x3dc7be37	0.097530775
112	0x3dfcee79	0.123501725
113	0xbe20c97e	-0.15701863
114	0xbd4f11e5	-0.050554175
115	0xbdd29296	-0.10281865
116	0xbd4fb50f	-0.05070978
117	0xbe2689e4	-0.16263539
118	0x3e02ef30	0.12786555
119	0xbd260514	-0.040532187
120	0x3e3820ba	0.17981234
121	0x3da53c51	0.08068145
122	0xbd3cf388	-0.046130687
123	0xbd93aef0	-0.07211101
124	0xbe15ceb0	-0.14629626
125	0x3df52662	0.119702116
126	0xbdb206b5	-0.086926855
127	0x3e1c3929	0.1525618
128	0xbe1d6b4e	-0.15372965
129	0x3e37a298	0.17933118
130	0xbc4825bc	-0.012216028
131	0xbca9d1ed	-0.020729983
132	0x3d976784	0.07392791
133	0xbdf78d6d	-0.12087522
134	0x3baf6d77	0.0053536254
135	0x3dd60367	0.10449868
136	0x3c7f25af	0.015572949
137	0xbd9eeccb	-0.077600084
138	0x3d07b5ab	0.033132236
139	0xbd718d23	-0.05897249
140	0x3dbce2b5	0.092229284
141	0xbe10fe7f	-0.14159583
142	0x3c4486ad	0.011995
143	0x3dfa7461	0.12229229
144	0xbd59ec09	-0.053203616
145	0x3dafba24	0.085804254
146	0x3e179a60	0.14804983
147	0xbd933ed7	-0.0718972
148	0x3de6b613	0.11265197
149	0x3e104ab0	0.14090991
150	0x3d22d10c	0.039750144
151	0x3e6cdb65	0.23130567
152	0xbc5e8783	-0.013582113
153	0x3e0a9ff4	0.1353758
154	0x3d54381c	0.051811323
155	0xbd68273f	-0.056678053
156	0xbd0f495f	-0.03498208
157	0xbdb665df	-0.08906149
158	0x3db249da	0.08705492
159	0x3e43a28d	0.19104977
160	0x3e6705a5	0.22560747
161	0xbe63b024	-0.22235161
162	0x3e3feb2b	0.18742053
163	0x3dc3c1fc	0.09558484
164	0x3e285579	0.16438855
165	0xbe2615aa	-0.16219202
166	0xbe38885e	-0.1802077
167	0xbdf5ed3c	-0.120081395
168	0x3cdcd57a	0.026957262
169	0xbe08b374	-0.13349706
170	0xbda0b4fa	-0.078470185
171	0xbd002e73	-0.031294297
172	0xbe13481b	-0.14382975
173	0x3e0e7c15	0.13914521
174	0xbd8c3d69	-0.068476506
175	0x3e41d231	0.18927838
176	0x3e1af4eb	0.15132491
177	0x3dc1acbc	0.094567746
178	0x3cad740d	0.021173501
179	0x3e35dab3	0.17759208
180	0xbc86a47c	-0.016435854
181	0xbd022e87	-0.031782653
182	0xbd090cc1	-0.03345943
183	0x3dadfe65	0.084957875
184	0xbe3ba06f	-0.1832292
185	0xbe0bae5b	-0.1364073
186	0xbc22d3d7	-0.009938202
187	0xbd7271ce	-0.059190564
188	0xbdfba89c	-0.12288019
189	0xbe00f5ce	-0.12593767
190	0xbd26d99c	-0.040734872
191	0xbda60d6a	-0.08108027

actor_body.linear2.weight f4 [192, 192]
0	0xbd8c87df	-0.06861853
1	0xbd0e0156	-0.034669243
2	0x3c8e1dbc	0.017348163
3	0xbdfecb3e	-0.12441109
4	0x3cc68b5d	0.024236375
5	0xbd9e725c	-0.07736656
6	0x3d8453fc	0.06461331
7	0x3d586172	0.052827306
8	0x3ddbf57a	0.1074018
9	0xbb7be68a	-0.0038436973
10	0x3ddbb81f	0.10728478
11	0xbd3fa45d	-0.04678761
12	0xbc0968c6	-0.008386796
13	0x3c9c3165	0.019066522
14	0xbd38a490	-0.045078814
15	0xbdb32183	-0.08746626
16	0x3db3f914	0.08787742
17	0x3e170e1a	0.14751473
18	0x3d8b625c	0.0680587
19	0xbc4153bf	-0.011799752
20	0x3d3cd8bc	0.04610513
21	0xbc0cd7ea	-0.0085964
22	0xbd3cefb1	-0.046127025
23	0x38bd7826	9.034602e-05
24	0xbd5e8bbf	-0.05433249
25	0xbc9d4b59	-0.019200968
26	0x39f3c952	0.00046498567
27	0x3d000073	0.03125043
28	0xbc9a72c6	-0.018853556
29	0x3c7a51a9	0.015278258
30	0x3c08f56b	0.008359293
31	0xbde04d76	-0.109522745
32	0xbd99deee	-0.075132236
33	0xbd436525	-0.04770388
34	0x3c765410	0.0150346905
35	0x3dc85bba	0.097831205
36	0x3d460c8e	0.048351817
37	0xbbdce470	-0.006741099
38	0x3d957ba6	0.07298975
39	0x3d2c2c31	0.04203433
40	0xbcf38688	-0.029727235
41	0xbdd9b594	-0.106303364
42	0x3d503f2f	0.050841507
43	0x3db646b0	0.08900201
44	0x3d92434f	0.07141744
45	0x3dc84efc	0.0978069
46	0xbc9f6367	-0.019456578
47	0xbae3a012	-0.001736643
48	0x3cec3354	0.028833069
49	0x3d5f01a3	0.05444492
50	0xbcee3b11	-0.0290809
51	0x3d598d68	0.05311337
52	0x3c0a7de9	0.008452871
53	0x3d1e7e86	0.03869488
54	0x3cbd5c52	0.02311531
55	0x3db4e2e0	0.088323355
56	0xbb8304d0	-0.0039983764
57	0x3df2a924	0.11848667
58	0x3d46a4c2	0.04849697
59	0x3bb48006	0.0055084256
60	0x3c0367ce	0.008020354
61	0xbc9bb805	-0.019008646
62	0xbc295130	-0.010334298
63	0x3dacd5ba	0.084392026
64	0x3848643b	4.7777063e-05
65	0xbe2c5c33	-0.16832046
66	0xbd983ffe	-0.074340805
67	0xbdd21d57	-0.102595024
68	0x3e10591a	0.1409649
69	0x3d3a8bb9	0.045543406
70	0xbd49aa1e	-0.049234502
71	0xbcbb21bb	-0.022843232
72	0xbcd6338d	-0.026147628
73	0x3c84c726	0.016208243
74	0xbbdc140a	-0.006716256
75	0xbd831c39	-0.064018674
76	0x3d94fc5f	0.072746985
77	0x3dc803ef	0.09766375
78	0x3ae87ba1	0.001773704
79	0xbd0aadaa	-0.033857025
80	0x3d1c4e36	0.038160525
81	0xbd9c33ab	-0.076270424
82	0xbbb856af	-0.005625568
83	0xbda33b5a	-0.07970305
84	0x3dcdfa99	0.10057563
85	0xba8169af	-0.0009873415
86	0x3d9bea33	0.07613029
87	0xbc853138	-0.01625882
88	0x3da6e7a6	0.08149652
89	0x3d6c4f72	0.057692952
90	0x3e1e670c	0.15468997
91	0xbc6c8b7b	-0.014437552
92	0x3d7edbc8	0.06222132
93	0xbb3e0503	-0.0028994686
94	0x3d9ef6f9	0.0776195
95	0x3d2351ed	0.039873052
96	0x3d1ea187	0.038728263
97	0xbe03a2c7	-0.12855063
98	0xbd37f0d2	-0.0449074
99	0x3c83f1b0	0.016106457
100	0xbb342dcf	-0.0027493124
101	0x3daa2ba9	0.08309109
102	0xbd561a35	-0.052271087
103	0x3d5785a3	0.05261768
104	0xbaf4ff0d	-0.0018691734
105	0x3d83c0ca	0.06433256
106	0xbc65af70	-0.014018878
107	0xbd231fc4	-0.039825216
108	0xbd93e79f	-0.072219126
109	0xbd0ebd23	-0.034848344
110	0xb9b22526	-0.00033978483
111	0xbd26256e	-0.04056304
112	0xbd90a616	-0.070629284
113	0xbdf90f99	-0.12161178
114	0x3d1afbd1	0.037837807
115	0x3da1a519	0.07892818
116	0xbdcb254c	-0.09919223
117	0xbcd2d475	-0.025736073
118	0x3b89ef3e	0.004209428
119	0x3d61576c	0.055015013
120	0x3ce520d1	0.02796975
121	0xbcd8484d	-0.026401663
122	0x3dbaab0f	0.09114658
123	0xbccfc82b	-0.025364002
124	0xbd09e03f	-0.033661123
125	0xbd807673	-0.062725924
126	0xbdb001e4	-0.085941106
127	0x3d4ef0f9	0.05052278
128	0x3d638be9	0.05555335
129	0x3d6ed076	0.058304273
130	0x3d4fe9c8	0.05076006
131	0x3cb631c2	0.022240523
132	0x3d51ce2a	0.051222004
133	0xbd1e3b35	-0.038630683
134	0x3d339073	0.04383893
135	0xbd8dae1b	-0.069179736
136	0xbb2937ad	-0.002582054
137	0x3d975ffc	0.073913544
138	0xbd77952a	-0.06044499
139	0xbc76e9e7	-0.015070415
140	0x3dbe522c	0.09293017
141	0x3ca508b2	0.020145748
142	0x3dca1ab2	0.09868373
143	0x3d5338f1	0.051567975
144	0xbd5c31af	-0.05375832
145	0x3cfbbe15	0.030730287
146	0xbd5b0cc6	-0.05347898
147	0x3d5af540	0.053456545
148	0xba296ef9	-0.00064633746
149	0xbd8ddc5f	-0.06926798
150	0xbd4610e8	-0.048355967
151	0xbd859f0b	-0.06524476
152	0xbd2278b6	-0.0396659
153	0x3c518793	0.012788671
154	0xbcefa988	-0.029255643
155	0xbcaabcd9	-0.020842003
156	0xbcbe8983	-0.02325893
157	0xbd56e2e7	-0.052462485
158	0xba991d97	-0.0011681792
159	0x3d49f42f	0.049305137
160	0x3caf216f	0.021378247
161	0xbd083bbb	-0.03326009
162	0xbcd30372	-0.025758479
163	0x3d84304c	0.064545244
164	0xbc35e180	-0.011101127
165	0xbc9c3f73	-0.019073224
166	0x3d54606a	0.05184976
167	0xbbf3617f	-0.007427394
168	0xbc961d84	-0.018324621
169	0x3df36d90	0.11886132
170	0x3b5f5caa	0.0034082332
171	0xbbd65c38	-0.006541755
172	0x3d1b47b3	0.037910175
173	0x3c8317b8	0.01600252
174	0x3d62ed2e	0.055401973
175	0xbba6e642	-0.005093367
176	0xbd359c58	-0.044338554
177	0xbd1eb4ad	-0.038746525
178	0x3d588088	0.052856952
179	0x3b9d908d	0.0048084916
180	0xb9d1fc4b	-0.0004005156
181	0xbde94d56	-0.11391704
182	0xbd9f556f	-0.07779967
183	0xbd520ac9	-0.051279817
184	0xbd950abb	-0.07277437
185	0x3dcbce7d	0.09951494
186	0x3d287f7a	0.041137196
187	0x3d6c6bfd	0.057720173
188	0x3c7dd75e	0.015493242
189	0x3d8c8381	0.0686102
190	0x3db8cee0	0.09023833
191	0x3c000fdc	0.007816281
192	0x3d05f9fd	0.03270911
193	0xbcb28793	-0.021793162
194	0x3c7d7271	0.0154691795
195	0x3d835fb1	0.06414736
196	0xbcf6e147	-0.030136717
197	0x3d507d33	0.05090065
198	0xbd84e6b7	-0.06489318
199	0xbe035559	-0.12825526
200	0x3d72a428	0.059238583
201	0xbdcb8252	-0.09936966
202	0x3d2be359	0.041964862
203	0xbde3b2b5	-0.1111807
204	0x3e160a9c	0.14652485
205	0x3db231cc	0.08700904
206	0x3da9d477	0.082924776
207	0x3d22032e	0.039553814
208	0x3cdc7444	0.026910909
209	0xbcc179dc	-0.023617677
210	0x3d85199c	0.06499025
211	0xbd945f30	-0.07244718
212	0xbd20867c	-0.039190754
213	0xbd092035	-0.03347798
214	0x3d6cc06b	0.05780069
215	0xbdb329a2	-0.08748175
216	0xbd18f0bf	-0.03733897
217	0xbd7f288d	-0.06229453
218	0x3c9428d8	0.018085882
219	0x3d9149a9	0.07094128
220	0x3d084b8d	0.033275176
221	0x3daf57c3	0.08561661
222	0xbd27edc3	-0.04099823
223	0x3da84368	0.08215982
224	0xbd101f51	-0.035186116
225	0xbd1bac3a	-0.038006045
226	0xbd343be2	-0.04400242
227	0xbdbc83ea	-0.09204848
228	0xbbe118b8	-0.006869402
229	0x3adf1a92	0.0017021468
230	0xbc95b7d1	-0.018276127
231	0xbd1146c1	-0.035467867
232	0x3d1fb80c	0.03899388
233	0xbc0eb173	-0.008709299
234	0xbda6ba90	-0.08141053
235	0x3d85eae3	0.06538942
236	0x3cb37a5f	0.021908937
237	0xbde02edb	-0.10946437
238	0x3d5abd9b	0.053403478
239	0x3d954c1a	0.07289906
240	0x3cbacf36	0.022803884
241	0xbd2f50f4	-0.042801812
242	0x3d64ea34	0.055887416
243	0xbda77fc2	-0.08178665
244	0x3d30693e	0.043069117
245	0xbc2a40ec	-0.010391455
246	0x3df08088	0.117432654
247	0x3ca1a355	0.019731203
248	0x3d22febf	0.039793726
249	0xbdd5b92e	-0.10435711
250	0x3cdd1191	0.026985915
251	0xbddcbcdf	-0.10778212
252	0xbd4c4d0a	-0.049878158
253	0x3cfd8b75	0.030950287
254	0xbbe53de1	-0.006995902
255	0x3dbc9231	0.09207571

actor_body.linear2.bias f4 [192]
0	0x3cc8af93	0.024497783
1	0xbd84dbc6	-0.06487231
2	0xbd92321f	-0.07138466
3	0xbcb8f27c	-0.022576563
4	0xbb1801fb	-0.002319454
5	0xbd418f6c	-0.04725592
6	0x3b193065	0.0023374793
7	0x3cc30c4b	0.023809573
8	0x3c1b1269	0.009464839
9	0x3c6319b1	0.013861106
10	0x3c50945f	0.012730687
11	0xbbd63e2e	-0.006538174
12	0x3d117699	0.035513494
13	0x3d99471b	0.074842654
14	0xbd5279d1	-0.051385704
15	0xbbe80993	-0.0070812195
16	0xbd2412af	-0.04005688
17	0x3c84efda	0.016227651
18	0x3d79f1b0	0.061021507
19	0x3c8acc22	0.016943041
20	0x3cde1324	0.027108736
21	0xbb9511c9	-0.0045492393
22	0xbdab31d8	-0.08359116
23	0x3d2a1130	0.041520298
24	0xbd0c072c	-0.034186527
25	0x3cebd5d3	0.028788483
26	0x3cf8a02f	0.030349819
27	0x3c7d37b0	0.0154551715
28	0xbc938fee	-0.018012967
29	0xbd5cb8c8	-0.05388716
30	0xba32b8a7	-0.00068176765
31	0x3dae1543	0.08500149
32	0x3d31b64b	0.04338674
33	0x3d770e8d	0.06031661
34	0xbd26cc21	-0.040722016
35	0xbd422cb9	-0.047405932
36	0x3d9d39fa	0.07677074
37	0xbc8af685	-0.016963253
38	0xbca5fdcc	-0.020262621
39	0x3d06569c	0.03279744
40	0x3da8f510	0.08249867
41	0xbcd38178	-0.025818571
42	0x3da40ab7	0.08009856
43	0xbdc4527b	-0.095860444
44	0x3d3f0a55	0.046640713
45	0x3c560e81	0.013064981
46	0xbb2a3ed6	-0.0025977395
47	0xbc82a80b	-0.01594927
48	0xbd9447dd	-0.07240269
49	0x3cd51eed	0.026015723
50	0xbd3cf72b	-0.046134155
51	0x3d314bf5	0.04328533
52	0xbd2518e2	-0.040306933
53	0x3d1d7017	0.038436975
54	0x3d3d6472	0.04623837
55	0x3c6c53a0	0.014424235
56	0x3d49c15e	0.049256675
57	0xbc95c4f7	-0.018282397
58	0x3db600a7	0.08886843
59	0x3ccc541f	0.024942456
60	0x3cce19d1	0.025158795
61	0xbd45c450	-0.04828292
62	0xbd98013c	-0.074221104
63	0x3d5b979c	0.053611383
64	0x3d872e0b	0.06600579
65	0xbcbadb02	-0.02280951
66	0xbc6cca4a	-0.014452526
67	0x3d25f82b	0.040519875
68	0x3d58b519	0.052907083
69	0xbcf6ca7e	-0.030125853
70	0xbd850287	-0.06494623
71	0x3d2147eb	0.039375227
72	0x3cdcb5b2	0.026942108
73	0xbc9cdd07	-0.019148363
74	0xbc5eb1a7	-0.01359216
75	0x3c6555e5	0.01399753
76	0xbcb375d4	-0.02190677
77	0xbd1ca349	-0.03824166
78	0x3d9975bc	0.07493159
79	0xbcfd1c7f	-0.030897377
80	0x3cc58915	0.024113217
81	0xbd9b4722	-0.07581927
82	0x3c74d873	0.014944184
83	0x3d9ae3ad	0.07562957
84	0x3c1c0cf0	0.009524569
85	0xbd81f845	-0.06346182
86	0x3cb4d8f3	0.022076106
87	0xbc87a7dd	-0.016559536
88	0x3d138d74	0.036023572
89	0xbd43d033	-0.047805976
90	0x3d96346a	0.07334216
91	0xbbc30d59	-0.005952519
92	0x3d5b5a28	0.053552777
93	0x3ca97695	0.020686427
94	0x3da18c0b	0.07888039
95	0xbaf67d33	-0.0018805623
96	0x3d23365c	0.039846763
97	0xbca40fc4	-0.020027049
98	0xbc66eb89	-0.014094242
99	0xbceaceea	-0.028663117
100	0xbc9625b9	-0.018328534
101	0xbd0a5f72	-0.03378243
102	0xbd07bb9f	-0.033137914
103	0xbd9bdbca	-0.07610281
104	0xbc957494	-0.018244065
105	0x3d819f3f	0.06329202
106	0x3ca914f7	0.02063988
107	0x3d0c2ade	0.03422057
108	0x3d04ddef	0.032438215
109	0x3ce6ef8c	0.028190397
110	0x3d413988	0.047174007
111	0xbd5eafa2	-0.054366715
112	0x3c015a43	0.007895055
113	0xbd340b27	-0.04395595
114	0xbd198a94	-0.037485674
115	0xbd78fbf8	-0.06078717
116	0x3ceff0ac	0.029289566
117	0xbda06a8a	-0.07832821
118	0xbc0279bf	-0.007963597
119	0x3c9a2d6c	0.018820487
120	0xbd2ffe07	-0.04296687
121	0x3d8298d1	0.06376804
122	0xbc872839	-0.016498672
123	0xbd2cac48	-0.042156488
124	0x3d8d421b	0.06897374
125	0x3da38891	0.07985032
126	0xbca1fa90	-0.019772798
127	0xbd4249df	-0.04743373
128	0x3d05d098	0.032669634
129	0x3d5ef99e	0.054437272
130	0x3d0ca1c6	0.034333967
131	0x3d75e192	0.060029574
132	0xbc5c37a3	-0.013440999
133	0xbcc10e03	-0.023566252
134	0x3d60a9f7	0.05484959
135	0x3d3af6ea	0.04564563
136	0x3c3d7eeb	0.011565904
137	0x3cf9f1d3	0.030510819
138	0x3b875e8f	0.0041311453
139	0xbd132370	-0.035922468
140	0x3c92e36a	0.017930705
141	0xbd36f00a	-0.044662513
142	0xbd595a93	-0.053064894
143	0xbdab133c	-0.08353278
144	0x3d057616	0.03258332
145	0xbd00fd78	-0.031491727
146	0xbd1d5f1e	-0.03842079
147	0xbc114343	-0.008866134
148	0x3c204266	0.009781456
149	0x3d72114c	0.059098527
150	0xbd35bb9e	-0.04436838
151	0x3c86474a	0.016391415
152	0x3d1b823a	0.03796599
153	0xbd188b92	-0.03724248
154	0x3c8a4b5d	0.01688164
155	0x3bef90cd	0.007310963
156	0x3d9e71cc	0.07736549
157	0xbba49d10	-0.005023606
158	0xbd562aa6	-0.052286766
159	0x3d3ab020	0.045578122
160	0x3dcd2e5c	0.10018608
161	0x3d65361e	0.055959813
162	0x3d019abd	0.03164171
163	0xbd4e440b	-0.05035786
164	0xbcc6baec	-0.024259053
165	0x3d82dfe8	0.06390363
166	0xbd95c970	-0.07313812
167	0x3d465e72	0.048429914
168	0x3c0413b2	0.008061336
169	0x3c0acf63	0.008472296
170	0xbca7f509	-0.020502584
171	0xbbf8f22f	-0.00759723
172	0x3d83e6c3	0.06440499
173	0xbd26ce03	-0.04072381
174	0x3d6af8bd	0.05736612
175	0xbcadcad4	-0.02121488
176	0x37e0b8b4	2.678889e-05
177	0x3db28e1b	0.08718511
178	0x3d6d0c82	0.057873257
179	0x3ccf6a01	0.025319101
180	0x3dbfed1f	0.09371399
181	0x3d2108d8	0.039315075
182	0x3d9f5a28	0.07780868
183	0x3c27a8a0	0.010233074
184	0x38aa998b	8.134831e-05
185	0xbd7ef4f3	-0.06224532
186	0xbc0e75f8	-0.008695118
187	0x3c5612df	0.013066023
188	0xbd41118e	-0.047135882
189	0x3d3c8e5a	0.046034195
190	0x3dc82161	0.097719915
191	0xbd59edaa	-0.05320517

actor_body.linear3.weight f4 [4, 192]
0	0x3c80aaf1	0.015706511
1	0xbd817362	-0.06320836
2	0x3da29176	0.07937901
3	0x3e02fefa	0.12792578
4	0xbaa5a069	-0.0012636307
5	0xbd0284b2	-0.03186483
6	0xbb68821f	-0.003547795
7	0xbd9f1870	-0.07768333
8	0x3c86876c	0.016421996
9	0xbdc09a3e	-0.09404419
10	0xbd635c03	-0.05550767
11	0xbdd12977	-0.10212987
12	0xbc64b517	-0.013959191
13	0xbe1cece5	-0.15324743
14	0xbd080165	-0.033204455
15	0xbe0681ad	-0.13135405
16	0x3d75f655	0.060049374
17	0xbe03e665	-0.12880857
18	0x3da3f784	0.08006194
19	0x3d83d004	0.0643616
20	0xbce971aa	-0.028496582
21	0xbd9087a9	-0.07057125
22	0x3d3020ef	0.043000158
23	0x3c0e4da6	0.008685505
24	0xbd1a9843	-0.037742864
25	0xbdc4058b	-0.0957137
26	0xbd788a77	-0.060678925
27	0x3df87aeb	0.1213282
28	0xbdc9a37f	-0.098456375
29	0xbd75fcec	-0.06005566
30	0x3db5f09e	0.08883785
31	0xbdb3afa7	-0.087737374
32	0xbd9b5360	-0.07584262
33	0x3d85f05d	0.06539986
34	0xbd6ee87e	-0.05832719
35	0xbd047def	-0.032346662
36	0x3ca4e2d6	0.020127695
37	0x3caa36a8	0.020778015
38	0x3cad1b1b	0.021131089
39	0x3d3f5b26	0.046717785
40	0x3d377504	0.04478933
41	0x3c398304	0.01132274
42	0xbdbb42e6	-0.09143619
43	0xbc05c223	-0.008163962
44	0x3d9f1381	0.07767392
45	0xbd092ca5	-0.033489842
46	0xbd4caf60	-0.049971938
47	0x3dbb9685	0.09159569
48	0x3d939fae	0.07208191
49	0x3dbd5ee2	0.09246613
50	0xbc7fdbae	-0.015616341
51	0xbd3b0510	-0.045659125
52	0x3d8d0a85	0.06886772
53	0xbcd54ca5	-0.026037524
54	0x3ddee9ab	0.108844124
55	0xbdcd5f32	-0.10027923
56	0xbdb4f7be	-0.088363156
57	0x3daea509	0.08527572
58	0x3c62b215	0.013836403
59	0x3d57d076	0.05268904
60	0xbdbc7e8b	-0.09203824
61	0xbd70363f	-0.058645483
62	0xbd73694f	-0.059426602
63	0xbd152fff	-0.036422726
64	0x3d119f54	0.035552338
65	0xbd3f5a15	-0.04671677
66	0x3ca59015	0.020210305
67	0xbd089990	-0.033349574
68	0xbdadca94	-0.08485904
69	0xbd8e0b45	-0.06935743
70	0xbd814c32	-0.06313361
71	0xbdadc68d	-0.08485136
72	0x3d1174c7	0.03551176
73	0xbb9bfbbf	-0.004760235
74	0xbdaefe57	-0.08544605
75	0x3cf8ebdd	0.030385906
76	0xbc8f3929	-0.01748331
77	0x3dad7200	0.084690094
78	0xbde2a486	-0.110665366
79	0xbcc77e9b	-0.024352362
80	0xbdd245ec	-0.10267243
81	0xbd645725	-0.05574717
82	0x3dce6913	0.10078635
83	0x3d113efb	0.035460453
84	0xbcaae1d2	-0.020859633
85	0x3da82f3d	0.08212135
86	0x3c6c3b55	0.014418443
87	0x3d678113	0.05651958
88	0x3d8ac34d	0.06775532
89	0x3da4b6ae	0.08042656
90	0x3ccd7ac8	0.02508296
91	0x3d7613e5	0.060077567
92	0x3d5729bd	0.05253004
93	0x3cfa6211	0.03056434
94	0x3b58e2f7	0.0033094266
95	0x3c3e902c	0.011631053
96	0xbdbe8652	-0.09302963
97	0x3d283ee1	0.04107559
98	0x3d761e9c	0.060087785
99	0xbd8acaaa	-0.06776936
100	0x3d6c097e	0.05762624
101	0xbda35f7f	-0.07977199
102	0x3dc1d309	0.0946408
103	0xbd383b6d	-0.044978548
104	0x3dc1d69c	0.094647616
105	0xbd1acacb	-0.037791055
106	0xbdd341e6	-0.103153035
107	0xbd5db06f	-0.05412334
108	0xbe03ffad	-0.12890501
109	0xbd29e12f	-0.041474517
110	0x3dfc4139	0.12317128
111	0xbd012308	-0.03152755
112	0xbb1c40d8	-0.002384236
113	0xbde9df5e	-0.11419557
114	0x3d37f31f	0.044909593
115	0x3c689eaf	0.014197989
116	0xbddf2412	-0.10895552
117	0x3dc20a59	0.0947463
118	0x3dd6e97b	0.104937516
119	0xbdfe58c2	-0.12419273
120	0x3cbb0000	0.022827148
121	0xbce016c5	-0.027354607
122	0x3cf91e69	0.030410009
123	0xbda29246	-0.07938056
124	0x3dc5afaa	0.09652646
125	0xbdaea9e2	-0.08528496
126	0x3d01329b	0.0315424
127	0xbdc277d9	-0.094955154
128	0xbe2e4954	-0.1702016
129	0x3dc57de1	0.0964315
130	0xbd120889	-0.03565267
131	0x3dbaf1bc	0.091281384
132	0xbd227875	-0.039665658
133	0x3d09876a	0.033576407
134	0xbd5bd741	-0.05367208
135	0x3d67e548	0.056615144
136	0xbc63cb85	-0.013903503
137	0x3dd9d8c8	0.10637051
138	0xbdde44db	-0.10852977
139	0xbc3b3f74	-0.011428703
140	0xbd6f83ad	-0.058475185
141	0xbdf17e0b	-0.11791619
142	0x3e01531c	0.1262936
143	0x3d00fcaa	0.03149096
144	0x3d8ea7a2	0.06965567
145	0xbac72fec	-0.0015196777
146	0xbc858ab7	-0.016301496
147	0xbdeeb5ba	-0.11655755
148	0x3dc0f8f0	0.09422481
149	0xbdbf4ea1	-0.09341169
150	0x3db9521d	0.09048865
151	0xbd92a63c	-0.07160613
152	0xbd194f90	-0.037429392
153	0x3d83065f	0.063976996
154	0x3e1e5cdc	0.1546511
155	0xbc7020c6	-0.014656251
156	0xbe03f1ed	-0.12885256
157	0x3d7e3fbf	0.06207251
158	0xbd2d70ca	-0.042343892
159	0xbe01dac6	-0.12681112
160	0x3bb086c5	0.0053871595
161	0xbdd07718	-0.10178965
162	0x3d8f359c	0.06992647
163	0x3d51e00a	0.05123905
164	0x3ac41021	0.001495842
165	0x3dec0d10	0.11525929
166	0xbd273be0	-0.040828586
167	0xbd9985f5	-0.074962534
168	0x3daad149	0.08340699
169	0xbdbab607	-0.0911675
170	0xbcc41e48	-0.02394022
171	0xbd0afb7f	-0.03393125
172	0x3d05816b	0.032594126
173	0x3d02e445	0.031955976
174	0x3d8bec18	0.06832141
175	0xbd836628	-0.06415969
176	0xbd60bc0f	-0.054866847
177	0xbc2ac41f	-0.0104227355
178	0xbae88cb9	-0.0017742134
179	0xbd9ac8b0	-0.07557809
180	0xbd8b5618	-0.068035305
181	0xbd7ef01d	-0.06224071
182	0xbdda44de	-0.106576666
183	0xbd699f61	-0.05703676
184	0x3d4aa634	0.04947491
185	0xbd53ade0	-0.051679492
186	0x3dc54e99	0.09634132
187	0xbddd8717	-0.10816782
188	0x3ce616de	0.028087076
189	0x3d01ffc8	0.031738073
190	0x3d3e2e28	0.046430737
191	0x3c758b36	0.014986804
192	0xbd23b956	-0.039971672
193	0x3d316c16	0.04331597
194	0x3db1cbf6	0.086814806
195	0xbcd74338	-0.02627717
196	0x3d7c8783	0.06165267
197	0x3d102c4f	0.035198506
198	0xbd58d053	-0.05293305
199	0xbd83cb5b	-0.06435271
200	0x3c03f299	0.008053445
201	0x3d87606a	0.066101864
202	0x3de5d26c	0.112217754
203	0xbc2ca7ed	-0.0105380835
204	0xbd03fe64	-0.032225028
205	0xbdabe356	-0.0839297
206	0xbc45d434	-0.012074519
207	0xbd0fbdaa	-0.035092987
208	0xbdf858ff	-0.1212635
209	0xbd3c1d7a	-0.04592655
210	0x3c1dbbd2	0.009627299
211	0x3d80b10d	0.0628377
212	0x3cc35467	0.023843957
213	0xbd8292bb	-0.06375643
214	0xbd71a7e5	-0.058998007
215	0x3da72584	0.081614524
216	0xbca29bdf	-0.019849716
217	0x3c942e10	0.01808837
218	0x3cb8201e	0.022476252
219	0xbceb90d9	-0.028755592
220	0x3d8addcf	0.06780588
221	0x3d0e1119	0.034684274
222	0x3d7881a2	0.060670502
223	0xbda63695	-0.081158794
224	0x3ccf951b	0.025339654
225	0xbaa23b4b	-0.001237729
226	0x3d7fda9a	0.062464334
227	0xbcd2e5ec	-0.0257444
228	0x3dc6246d	0.096749164
229	0xbdbb52fb	-0.09146687
230	0x3c099570	0.008397445
231	0xbe0838a3	-0.13302855
232	0x3d2c86c0	0.042120695
233	0xbdbe935e	-0.09305452
234	0xbc7def4d	-0.015498948
235	0xbddfb47b	-0.10923096
236	0x3c610a54	0.013735373
237	0xbd9feb96	-0.07808606
238	0x3c390ff8	0.011295311
239	0xbce85b1c	-0.028363757
240	0x3d6f22a2	0.058382638
241	0x3c1cdb75	0.009573807
242	0x3e178808	0.14797986
243	0xbdf78c07	-0.12087255
244	0xbdd1282e	-0.10212742
245	0xbdedac7e	-0.11605166
246	0xbd4137ef	-0.047172483
247	0x3d163ec9	0.03668097
248	0x3da7179e	0.081588015
249	0x3d889c23	0.06670406
250	0xbd9b989a	-0.07597466
251	0xbdc1c02b	-0.09460481
252	0x3c315d9b	0.01082554
253	0xbdf511ce	-0.119662866
254	0x3c173252	0.009228306
255	0xbda7c811	-0.081924565

actor_body.linear3.bias f4 [4]
0	0x3d4d0a92	0.05005891
1	0xbab23d92	-0.0013598672
2	0xbc8db97c	-0.01730036
3	0x3ca5f043	0.020256167

critic_body.linear1.weight f4 [192, 33]
0	0xbe879aed	-0.26485386
1	0xbc70e84b	-0.01470382
2	0xbbd1e084	-0.006404938
3	0x3db8a830	0.09016454
4	0xbe34e28a	-0.17664543
5	0x3e0d0bf1	0.13774087
6	0x3c41817e	0.0118106585
7	0xbd0c7de4	-0.034299746
8	0x3c9307f7	0.017948134
9	0x3c96aaff	0.018392084
10	0xbdb22ea4	-0.08700302
11	0xbd4e9e0e	-0.0504437
12	0x3d8ca293	0.06866946
13	0x3e1726a9	0.14760841
14	0x3dfc90a1	0.12332273
15	0x3d4bc378	0.04974696
16	0x3dcc9b92	0.0999061
17	0xbdf49106	-0.119417235
18	0xbd8ee1fc	-0.06976697
19	0xbe17ff02	-0.14843372
20	0x3db3f219	0.08786411
21	0xbdbe2196	-0.0928375
22	0xbd90e55d	-0.070749976
23	0x3d55765f	0.05211484
24	0x3d8e2dc6	0.06942324
25	0x3d026f14	0.031844214
26	0x3e10dae7	0.14146005
27	0xbdef13c8	-0.11673695
28	0xbddfb97f	-0.109240524
29	0xbe27fecd	-0.16405793
30	0x3e196129	0.1497847
31	0xbdbfb455	-0.093605675
32	0x3e757da9	0.23973717
33	0xbdc4cbf4	-0.096092135
34	0x3df231d3	0.118259095
35	0x3e4f6fec	0.20257539
36	0x3da48c55	0.08034579
37	0xbe20d2be	-0.15705392
38	0xbe0cc2bb	-0.13746159
39	0x3daaa6ca	0.08332594
40	0xbd574ce0	-0.052563548
41	0x3b63515c	0.0034685945
42	0x3e1845ec	0.14870423
43	0xbd94633c	-0.0724549
44	0x3d5db899	0.054131124
45	0xbcd09b6b	-0.025464734
46	0x3dea5715	0.11442391
47	0xbdb15103	-0.0865803
48	0xbe5788c0	-0.2104826
49	0x3ca7abdf	0.020467697
50	0xbd63ab35	-0.055583198
51	0x3c4a9fa5	0.012367164
52	0xbd6aabb7	-0.057292666
53	0x3c9cc5cf	0.019137291
54	0x3d30781f	0.043083306
55	0x3c7219a9	0.014776626
56	0xbdf9e225	-0.12201337
57	0xbd171fbf	-0.03689551
58	0xbcba9151	-0.02277437
59	0xbd3c4c1b	-0.045971017
60	0xbde60eb5	-0.11233274
61	0x3ce5256b	0.027971944
62	0x3d9408c6	0.07228236
63	0xbd9e5c82	-0.07732488
64	0xbca4fc10	-0.020139724
65	0xbf1d1b25	-0.61369544
66	0x3e09cdaa	0.13457361
67	0xbe432b16	-0.19059405
68	0xbd843b87	-0.064566664
69	0x3e1bb4d3	0.15205698
70	0x3bb8b8c3	0.0056372597
71	0xbe398586	-0.18117341
72	0xbdc9269c	-0.09821817
73	0x3e0bdb65	0.13657911
74	0xbd832ca3	-0.06404998
75	0x3d9fca6b	0.0780228
76	0x3ccaffc6	0.024780165
77	0xbde5ff64	-0.112303525
78	0xbd28f34c	-0.04124765
79	0x3e0d2d67	0.13786851
80	0x3d8269f0	0.06367862
81	0xbd2698a8	-0.040672928
82	0x3e10dd86	0.14147004
83	0xbcaa7978	-0.020809874
84	0xbc4a76d5	-0.012357433
85	0x3da86456	0.082222626
86	0xbd75c25d	-0.059999812
87	0xbddcce63	-0.10781553
88	0x3db743e5	0.08948497
89	0x3d131269	0.03590623
90	0xbd63649b	-0.055515867
91	0x3de743a0	0.11292195
92	0x3e3b4e7a	0.18291655
93	0x3d924bac	0.071433395
94	0xbe30d229	-0.1726767
95	0xbd9d48a4	-0.07679871
96	0xbdb84a76	-0.08998577
97	0x3e261c1e	0.16221663
98	0xbda53abc	-0.08067843
99	0xbcb8f007	-0.022575391
100	0x3d41d64a	0.047323503
101	0x3c2efe83	0.0106807975
102	0x3e024ed9	0.1272539
103	0x3d9fcc95	0.07802693
104	0xbdb89905	-0.09013561
105	0xbdf16488	-0.11786753
106	0xbd3b75d5	-0.04576667
107	0x3d3d2488	0.046177417
108	0x3dd39d72	0.10332765
109	0xb9e8c184	-0.0004439467
110	0xbb994fdb	-0.004678709
111	0x3d054c95	0.032543737
112	0xbded54f6	-0.11588471
113	0x3e040413	0.12892179
114	0x3e14ef20	0.14544344
115	0xbe021893	-0.12704687
116	0xbc61f1a9	-0.013790526
117	0xbda4d964	-0.080492765
118	0xbc8aaf65	-0.016929338
119	0xbd9f2a4c	-0.07771739
120	0xbdb4f202	-0.08835222
121	0x3d9717b5	0.07377569
122	0xbd6fcff6	-0.058547936
123	0x3e14af87	0.14520083
124	0x3c34c931	0.011034296
125	0xbd3e1b95	-0.046413023
126	0xbd64d0e3	-0.055863272
127	0x3e2a2404	0.16615301
128	0x3e263ee8	0.16234934
129	0x3da06e82	0.07833578
130	0xbe061998	-0.130957
131	0xbedf4975	-0.4361073
132	0xbe2f4bc2	-0.17118743
133	0x3d8e633d	0.06952522
134	0xbe70bd9d	-0.23509832
135	0x3e1b5d2f	0.15172265
136	0x3dd0473b	0.10169836
137	0xbddcdd2c	-0.10784373
138	0x3dc75183	0.09732344
139	0xbcf1385b	-0.029445818
140	0x3db0f8a0	0.086411715
141	0xbdd84cbf	-0.10561513
142	0xbddafcc4	-0.106927425
143	0xbd997920	-0.07493806
144	0x3a423ac0	0.0007409267
145	0xbd8d667a	-0.069043115
146	0x3e2a4025	0.16626032
147	0x3cc96774	0.024585463
148	0xbdda214b	-0.106508814
149	0xbd53898f	-0.051644858
150	0x3de82ec4	0.11337045
151	0xbda3b06e	-0.07992636
152	0x3cbd2d53	0.023092901
153	0xbde00d0b	-0.10939988
154	0x3df6b515	0.120462574
155	0xbd243dbb	-0.040097933
156	0xbd4eed0e	-0.05051904
157	0xbdbcb031	-0.09213293
158	0x3e161dbe	0.14659783
159	0x3d726b36	0.059184276
160	0x3e091c59	0.1338972
161	0xbdadceea	-0.08486731
162	0xbe024c05	-0.12724312
163	0xbd0fdf50	-0.035125077
164	0xbdab72c3	-0.083714984
165	0x3e23a3f5	0.15980513
166	0xbd935c45	-0.071953334
167	0x3e29f17a	0.16596022
168	0x3d550db0	0.052015007
169	0xbc407dbc	-0.011748727
170	0x3cde0a4e	0.027104523
171	0xbde32a6f	-0.11092078
172	0x3cdb6d5d	0.026785547
173	0x3cc6304d	0.024192953
174	0xbcdb4a99	-0.02676897
175	0xbcabea6f	-0.02098581
176	0x3d33abb1	0.04386491
177	0x3d8bfa99	0.06834907
178	0xbe672b00	-0.22574997
179	0xbd5c4326	-0.053774975
180	0x3c3b7bcd	0.011443091
181	0x3c40ee28	0.011775531
182	0xbd0eeadf	-0.03489196
183	0xbd304563	-0.043034922
184	0x3d931562	0.07181813
185	0x3d1452d0	0.03621179
186	0x3ddc56fd	0.10758779
187	0xbd1ecd90	-0.03877026
188	0x3b8af7fa	0.004240987
189	0x3cdd1778	0.02698873
190	0xbd2af22a	-0.041734852
191	0x3e1e6243	0.15467171
192	0x3d27acb4	0.040936187
193	0xbdf23948	-0.11827332
194	0x3e024616	0.12722048
195	0x3d045a56	0.032312714
196	0x3e0ac540	0.13551807
197	0xbee6475a	-0.44976312
198	0x3c69bbdb	0.01426598
199	0xbd15a9e9	-0.036538992
200	0xbd9b44de	-0.07581495
201	0xbdc7ec25	-0.09761838
202	0xbc98cbd7	-0.018651886
203	0xbd207d82	-0.039182194
204	0x3b922bcb	0.004460787
205	0x3d7e0657	0.062017765
206	0xbdc6b33a	-0.097021535
207	0x3df71547	0.12064605
208	0x3d214ea3	0.039381634
209	0x3deee73a	0.11665197
210	0xbc21b84b	-0.009870599
211	0xbd947514	-0.072488934
212	0x3d468946	0.048470758
213	0xbaa1dd24	-0.001234923
214	0xbda4f36a	-0.0805424
215	0xbd994ea9	-0.07485706
216	0x3dc1bfca	0.09460409
217	0x3da93170	0.082613826
218	0xbd165c0e	-0.036708884
219	0xbdaafd46	-0.08349089
220	0x3d22b2a4	0.039721146
221	0x3d6c8e3c	0.057752833
222	0xbd6ce3b0	-0.057834327
223	0xbbce072c	-0.006287476
224	0x3cd63213	0.026146924
225	0xbda3fdc6	-0.08007388
226	0xbd1d3997	-0.038385
227	0xbd89fab8	-0.06737274
228	0xbe1126b4	-0.1417492
229	0xbd092ec0	-0.03349185
230	0x3eed4158	0.46338916
231	0x3d3d0f86	0.046157382
232	0xbe1f3f23	-0.15551428
233	0x3d5f163e	0.05446457
234	0x3e133c77	0.14378534
235	0xbd90df5f	-0.07073855
236	0x3b12e0a4	0.0022411728
237	0x3e05dc97	0.1307243
238	0xbd918bb4	-0.071067244
239	0x3d992199	0.07477111
240	0x3ddd2691	0.107983716
241	0x3c638553	0.013886767
242	0xbdcde19f	-0.100527994
243	0x3c8f9790	0.017528325
244	0x3cf8e42d	0.03038224
245	0xb92ad753	-0.00016292678
246	0xbd91f124	-0.07126072
247	0xbe263505	-0.16231163
248	0x3d3c58ac	0.045983
249	0xbe05ed72	-0.1307886
250	0x3d08f245	0.03343417
251	0xbb9e0380	-0.0048221946
252	0xbd01f255	-0.031725246
253	0xbd824bc3	-0.06362107
254	0x3d506db7	0.050885882
255	0xbdcfe256	-0.10150592

critic_body.linear1.bias f4 [192]
0	0x3c7e3951	0.015516595
1	0x3e145e6e	0.14489147
2	0x3e104d3a	0.1409196
3	0xbdc407c4	-0.09571794
4	0x3da7cfbb	0.08193918
5	0xbd97ca01	-0.07411576
6	0xbcca0938	-0.024662599
7	0x3d238922	0.039925702
8	0xbdd4b5ff	-0.103862755
9	0xbe088ca8	-0.13334906
10	0xbd8c70b0	-0.06857431
11	0xbd5e8344	-0.054324403
12	0xbd239e70	-0.03994602
13	0xba3eeada	-0.00072829204
14	0x3ddc7b39	0.1076569
15	0x3d6ed5fe	0.058309548
16	0x3d745eee	0.059660845
17	0xbe0c2215	-0.13684876
18	0xbd32f3f9	-0.0436897
19	0x3dffe1ff	0.12494277
20	0xbdd9a4ad	-0.106271125
21	0xbd9403c3	-0.0722728
22	0x3e4b0d9e	0.19829413
23	0xbd34f091	-0.044174735
24	0x3de5e756	0.112257645
25	0xbd93b6a4	-0.0721257
26	0x3d88c10e	0.06677447
27	0x3df88c07	0.12136083
28	0xbd6ab312	-0.05729968
29	0x3dbd825b	0.09253379
30	0x3c94c011	0.01815799
31	0x3d0c0745	0.03418662
32	0xbda6819f	-0.08130192
33	0xbe2765a8	-0.16347373
34	0x3d3cf636	0.046133243
35	0xbe2db49c	-0.16963428
36	0xbdfafb94	-0.12255016
37	0x3e0b9838	0.13632286
38	0x3d567ad3	0.052363228
39	0x3dc3ad24	0.09554508
40	0xbb7050bf	-0.0036669222
41	0x3def3035	0.11679117
42	0x3e277ecd	0.16356964
43	0xbd9e8da1	-0.07741857
44	0xbe1512bd	-0.1455793
45	0xbd49b237	-0.049242225
46	0xbe0af8d7	-0.13571487
47	0xbe7d0116	-0.24707446
48	0xbde699c5	-0.11259798
49	0x3e0d519c	0.13800663
50	0xbda3f829	-0.08006317
51	0xb86f3960	-5.7035475e-05
52	0x3d91b757	0.071150474
53	0x3dfd8832	0.12379493
54	0xbd925d82	-0.071467414
55	0x3e0c537c	0.13703722
56	0x3d0e5d31	0.034756843
57	0x3e31defe	0.17370221
58	0x3d5a9c84	0.05337192
59	0x3e2a5f1c	0.16637844
60	0xbdb27261	-0.08713222
61	0xbbd35d94	-0.0064503644
62	0x3de2c385	0.11072449
63	0xbd13eed0	-0.03611642
64	0xbe40a5d2	-0.18813255
65	0xbd911662	-0.07084347
66	0x3b061664	0.0020460123
67	0xbe104fe0	-0.1409297
68	0xbca71204	-0.020394333
69	0xbe243cc3	-0.16038804
70	0xbd0d0485	-0.03442814
71	0x3d46ac41	0.048504118
72	0xbda8f97e	-0.08250712
73	0x3e3bbf87	0.1833478
74	0xbd62ccd4	-0.05537112
75	0x3d2a08f3	0.04151244
76	0x3da35d8a	0.079768255
77	0x3defdfd3	0.11712613
78	0x3e7377aa	0.23776117
79	0x3dc669f0	0.09688175
80	0x3e0d0576	0.13771614
81	0x3c6a377b	0.014295454
82	0xbe351071	-0.17682053
83	0x3dd26882	0.102738395
84	0x3dea6189	0.114443846
85	0x3e024262	0.12720636
86	0x3de3d6ab	0.11124929
87	0x3dabd6fd	0.08390615
88	0xbc588d10	-0.013217226
89	0xbd21862f	-0.039434608
90	0x3e24cf8d	0.160948
91	0xbd8ca5b5	-0.068675436
92	0xbc924690	-0.017855912
93	0xbcb693a0	-0.02228719
94	0xbcc07022	-0.02349097
95	0x3de08163	0.109621786
96	0xbdeb8599	-0.11500091
97	0x3d9e1035	0.07717935
98	0xbe4915df	-0.1963725
99	0x3d54a124	0.05191149
100	0x3d49075d	0.049079288
101	0xbe1920b0	-0.14953876
102	0xbc2d14c5	-0.010564034
103	0xbdb6bcc2	-0.089227214
104	0x3e25aec9	0.16179956
105	0xbdc08e23	-0.094021104
106	0xbc97aeaa	-0.018515904
107	0x3e19fdfa	0.1503829
108	0x3e637c4b	0.22215383
109	0x3cc5b5af	0.024134485
110	0x3d3f0aeb	0.04664127
111	0xbe00b783	-0.12570004
112	0xbdeab0b5	-0.114594854
113	0xbd1e848a	-0.038700618
114	0xbe0ed89e	-0.1394982
115	0xbccce792	-0.025012765
116	0xbda2ad25	-0.07943181
117	0x3d361841	0.044456724
118	0x3e2de434	0.16981584
119	0xbe11e02a	-0.14245668
120	0x3dc4aba2	0.09603049
121	0xbdebdfca	-0.11517294
122	0x3c970702	0.018435959
123	0x3cd7bbaf	0.026334612
124	0xbdbea1af	-0.093081824
125	0x3d2433ec	0.04008858
126	0x3dca8153	0.09887948
127	0xbe42825b	-0.18995039
128	0x3e072aab	0.1319987
129	0xbd7f2281	-0.062288765
130	0xbda3dab5	-0.080006994
131	0x3d0a215d	0.033723224
132	0x3e21ab55	0.15788014
133	0x3db41398	0.087928
134	0xbd6aa8a8	-0.05728975
135	0x3e1af842	0.15133765
136	0x3e0ca0f0	0.13733268
137	0x3d14e587	0.036351707
138	0xbb2e52aa	-0.0026599565
139	0x3d57464e	0.052557282
140	0x3dad23a8	0.084540665
141	0xbd2806ff	-0.041022297
142	0xbd44b368	-0.048022658
143	0xbcdc1a54	-0.026868023
144	0x3e4c3672	0.19942644
145	0xbe0407c4	-0.12893587
146	0xbdbbf55c	-0.09177658
147	0x3e49ec5b	0.19719069
148	0xbe1cd26d	-0.15314646
149	0xbd1643af	-0.03668564
150	0xbceda5d4	-0.029009737
151	0xbe0d5222	-0.13800862
152	0xbdbea314	-0.093084484
153	0x3dbdaa43	0.092609905
154	0xbe28e285	-0.1649266
155	0x3d9b2a89	0.07576472
156	0xbe018702	-0.12649158
157	0xbdb7d006	-0.08975224
158	0xbcd70363	-0.026246732
159	0xbd4a691d	-0.04941665
160	0x3da2cd00	0.07949257
161	0x3e24f000	0.16107178
162	0x3e195053	0.14972048
163	0x3d2a8386	0.041629337
164	0xbe59f89c	-0.21286243
165	0x3df7fdbb	0.12108942
166	0xbdb35e35	-0.08758203
167	0x3d8729cb	0.06599768
168	0xbda15cd3	-0.07879033
169	0x3d45bb1a	0.048274137
170	0xbdef822e	-0.11694752
171	0xbc0c28c7	-0.008554644
172	0xbdf93425	-0.12168149
173	0xbe7053bc	-0.23469442
174	0xbe0001b9	-0.12500657
175	0x3e6c2454	0.23060733
176	0xbda41ed9	-0.08013696
177	0xbe3322c3	-0.1749373
178	0x3e3ab3b6	0.18232617
179	0xb9cadbad	-0.00038692114
180	0xbd7a3f5f	-0.06109559
181	0x3ddea5ac	0.10871443
182	0xbe58f68d	-0.21187802
183	0xbc4ad93e	-0.012380896
184	0xbad8e911	-0.0016548951
185	0x3d70e7e3	0.058814894
186	0x3bcb8eba	0.0062120827
187	0xbdd65c10	-0.10466778
188	0x3d88450d	0.066537954
189	0xbc8bcf69	-0.017066674
190	0x3dcc859e	0.09986423
191	0xbc59952a	-0.013280192

critic_body.linear2.weight f4 [192, 192]
0	0xbbd7ecdd	-0.0065895156
1	0xbac5d030	-0.0015091952
2	0xbd144af3	-0.03620429
3	0xbcfd9fc6	-0.030959975
4	0x3d9a8e9b	0.07546731
5	0x3d31f346	0.043444894
6	0x3db37f47	0.087645106
7	0xbd831fb6	-0.06402533
8	0xbe0f438d	-0.13990612
9	0xbd46e543	-0.048558485
10	0x3c170eb3	0.009219813
11	0xbd2b13cf	-0.041766938
12	0xbba0d123	-0.0049077435
13	0xbd46bc0a	-0.04851917
14	0xbcd84d07	-0.026403917
15	0x3ccccf47	0.025001181
16	0x3c7614bb	0.015019591
17	0xbb961336	-0.004579927
18	0xbbdd0881	-0.0067453985
19	0x3bfa7bfd	0.007644175
20	0x3d4cc326	0.049990796
21	0xbdc66e98	-0.09689063
22	0xbd048424	-0.03235258
23	0xbca15577	-0.019694073
24	0x3d88d35f	0.06680941
25	0xbc581de3	-0.013190719
26	0x3d2d75f2	0.04234881
27	0xbd032cfe	-0.03202533
28	0xbceb97fe	-0.028758999
29	0x3d0663d1	0.032810036
30	0xbd51c65a	-0.051214553
31	0xbd87eb12	-0.06636633
32	0x3bc27c47	0.005935225
33	0x3a9702eb	0.0011521255
34	0xbcc2f5e4	-0.02379889
35	0x3d308266	0.043093108
36	0xbd349fe2	-0.04409779
37	0xbafb20ae	-0.001915952
38	0x3d916a8b	0.071003996
39	0x3dc4a187	0.096011214
40	0x3d93b184	0.07211593
41	0x3d62e15f	0.055390712
42	0xbd26a0f4	-0.04068084
43	0xbc86a08c	-0.016433977
44	0xbd145196	-0.03621062
45	0xbcdb71f7	-0.026787741
46	0x3d72b8c4	0.059258237
47	0xbdad08db	-0.08448955
48	0x3d8d4214	0.06897369
49	0x3d043daa	0.03228537
50	0xbd223b94	-0.0396076
51	0x3cd0bf3c	0.025481813
52	0x3c744147	0.014908141
53	0xbd8a7340	-0.067602634
54	0xbba794a3	-0.0051141544
55	0x3d92958f	0.07157432
56	0x3cd8cf66	0.026466083
57	0x3d50250e	0.050816588
58	0x3c81bc22	0.015836779
59	0x3d7731d7	0.060350265
60	0x3d8be556	0.06830852
61	0xbd51f577	-0.051259484
62	0xbc71859b	-0.014741327
63	0x3d2224b8	0.0395858
64	0xbd515346	-0.051104806
65	0xbca256e2	-0.01981682
66	0x3d36576c	0.044516966
67	0xbc3b5192	-0.011433022
68	0x3cd7691c	0.026295237
69	0x3d97d013	0.07412734
70	0xbd239248	-0.039934427
71	0x3da3bf43	0.07995465
72	0x3b97e0c6	0.0046349494
73	0x3c5b9eba	0.013404543
74	0x3d9e001c	0.077148646
75	0x3bb3b4da	0.0054842057
76	0x3d3217e6	0.043479823
77	0xbd7df00c	-0.061996505
78	0x3cdfa510	0.027300388
79	0xbce3f7da	-0.027828146
80	0x3cceb9ed	0.02523514
81	0xbbadb8da	-0.005301577
82	0xbc7c4093	-0.015396255
83	0xbd9859f3	-0.074390315
84	0x3d7ec3c2	0.062198408
85	0xbd9dc559	-0.07703657
86	0xbd366ba7	-0.04453626
87	0x3c550109	0.013000735
88	0xbdf1e993	-0.11812129
89	0xbd547464	-0.05186881
90	0x3d1759fc	0.03695105
91	0x3c819ed8	0.015822813
92	0x3d864f34	0.065580755
93	0xbd442baf	-0.047893222
94	0xbb82190a	-0.00397027
95	0x3d2200d7	0.039551582
96	0xbd11f3ed	-0.035633016
97	0x3cba3058	0.02272813
98	0xbd30e984	-0.043191448
99	0xbd7ccb5f	-0.061717387
100	0xbdc28b5f	-0.09499239
101	0x3c842449	0.016130583
102	0xbca87288	-0.020562425
103	0x3d4970ef	0.049179967
104	0x3d8c285a	0.06843634
105	0x3d6e511e	0.058182828
106	0xbd7e625f	-0.062105533
107	0xbdc566f6	-0.09638779
108	0x3cb63c61	0.022245588
109	0xbcdf1c5c	-0.027235202
110	0x3d046210	0.032320082
111	0xbe05046c	-0.12989968
112	0xbdc5427e	-0.09631823
113	0xbbe1cc92	-0.0068908418
114	0xbd6634b8	-0.05620262
115	0x3d05865b	0.032598834
116	0x3cb0cb50	0.021581322
117	0xbd32ff42	-0.043700464
118	0xbda18a33	-0.078876875
119	0xbbc297be	-0.0059384992
120	0xbbcf64e6	-0.0063291667
121	0xbde2e04a	-0.11077936
122	0xbcd8cdd3	-0.026465332
123	0x3cb90e45	0.022589812
124	0x3d5bab87	0.053630378
125	0xbd7ef5bd	-0.062246073
126	0xbd38673d	-0.04502033
127	0x3d0e0c81	0.034679893
128	0x3d7ef7b4	0.062247947
129	0x3d9ef463	0.07761457
130	0xbcd3eb67	-0.025869085
131	0x3bb9ad1e	0.005666389
132	0x3c1ef514	0.009701986
133	0xba4c668f	-0.0007797265
134	0x3d5e4df9	0.05427358
135	0x3d827ba2	0.06371237
136	0xbd280932	-0.041024394
137	0xbe2febf7	-0.17179857
138	0x3d1a8062	0.03772009
139	0xbc868e49	-0.016425269
140	0x3d80e632	0.06293906
141	0xbc92e702	-0.017932419
142	0x3d934496	0.07190816
143	0x3c9f6684	0.019458063
144	0xbd8f7af0	-0.0700587
145	0x3c80c0bf	0.015716908
146	0xbd275f26	-0.040862225
147	0x3da38e39	0.07986111
148	0x3afa4ef4	0.0019097016
149	0xbda744ca	-0.08167417
150	0x3be703a1	0.007049993
151	0xbc56252d	-0.013070387
152	0xbd87c529	-0.06629402
153	0x3da91696	0.08256261
154	0xbd861227	-0.06546431
155	0x3d5faac2	0.054606207
156	0xbde00dfd	-0.10940168
157	0x3c2472b2	0.010037111
158	0xbc181371	-0.009281979
159	0x3cf89ee9	0.030349212
160	0xbd78e4b7	-0.060764994
161	0xbcf27ae7	-0.02959962
162	0x3d5a23b3	0.0532567
163	0xbcd62f57	-0.02614562
164	0x3ccc554d	0.024943018
165	0x3d53fbaf	0.051753696
166	0xbd3ae587	-0.04562905
167	0xbd40c5d8	-0.04706368
168	0xbdcb995d	-0.09941361
169	0x3d5bebc5	0.053691644
170	0xbd72be1c	-0.059263334
171	0xba25fd38	-0.0006331983
172	0xbd6df56f	-0.05809539
173	0xbd84e109	-0.064882345
174	0x3d83ba4b	0.06432017
175	0x3d0789d6	0.033090435
176	0xbda0b8da	-0.07847758
177	0xbd51241c	-0.051059827
178	0xbdb6f0af	-0.089326255
179	0x3db3e023	0.08782985
180	0xbb987847	-0.00465301
181	0x3d352cdf	0.044232246
182	0xbc4d6eaf	-0.012538596
183	0x3d178261	0.036989573
184	0xbd0411be	-0.032243483
185	0x3bf3a8a0	0.007435873
186	0x3d028dd7	0.03187355
187	0x3d6d206d	0.05789225
188	0xbcf6e799	-0.030139731
189	0x3c44acbe	0.012004076
190	0xbc45875f	-0.012056201
191	0xbc0cb5a2	-0.0085882265
192	0xbcfaca2d	-0.030613983
193	0xbc29e9d9	-0.010370695
194	0xbc8ec0f1	-0.017425986
195	0xbd85f74b	-0.06541308
196	0xbd8347da	-0.06410189
197	0x3c41035e	0.011780588
198	0x3c055a2a	0.008139173
199	0x3d5589a9	0.052133236
200	0x3cf185c4	0.02948273
201	0xbbb21acb	-0.005435323
202	0xbd28ae9d	-0.04118215
203	0xbdb4f24a	-0.088352755
204	0x3d99a1d6	0.07501571
205	0x3d46399a	0.048394777
206	0x3c4e2f63	0.01258454
207	0x3d1b8a7b	0.037973862
208	0x3cb35e45	0.021895537
209	0x3a99a9e8	0.001172361
210	0xbd257e2e	-0.040403537
211	0xbc453a3c	-0.01203781
212	0x3c80867c	0.015689127
213	0xbdb86fea	-0.09005721
214	0x3c9f3ea6	0.019439053
215	0xbd5df6c1	-0.0541904
216	0x3d8ef0fe	0.06979559
217	0x3db3bcec	0.08776268
218	0xbd0a6bbe	-0.033794157
219	0xbd93ef93	-0.072234295
220	0x3be8b00a	0.0071010636
221	0x3d777f35	0.06042405
222	0xbdb772f4	-0.089574724
223	0x3cafcb18	0.021459147
224	0x3dacbe6d	0.08434758
225	0x3d021ffa	0.031768776
226	0xbd24541b	-0.04011927
227	0x3a744514	0.0009318155
228	0xbdae12c2	-0.084996715
229	0xbc9e9427	-0.019357754
230	0x3ad34fa2	0.0016121755
231	0x3d3bfa0b	0.045892756
232	0xbcc34a95	-0.023839274
233	0xbcb009a8	-0.02148898
234	0xbd2e3d1f	-0.04253876
235	0xbd94ccd9	-0.07265634
236	0x3cb13506	0.021631729
237	0xbe0dbdaf	-0.1384189
238	0x3d0e81e9	0.03479186
239	0xbd6379a4	-0.055535927
240	0x3da60e48	0.08108193
241	0x3dd3c783	0.10340788
242	0xbdb3f032	-0.08786048
243	0xbc684305	-0.014176135
244	0xbd0bc973	-0.034127664
245	0x3d83bea1	0.06432844
246	0x3daf8442	0.08570148
247	0x3d734dde	0.05940043
248	0x3cc48fa6	0.023994278
249	0xbda34ce2	-0.079736486
250	0x3d12683b	0.035743933
251	0x3d9ec1e1	0.07751823
252	0xbca761a9	-0.02043231
253	0xbd74daa1	-0.059778813
254	0xbd6014b6	-0.05470725
255	0xbd25613e	-0.04037594
